Theises/InstagramAnalytics-Python/prediction/models/best_model_1.pt (torch, 370767 bytes, 7 tensors)

layers.0.weight f4 [256, 214]
-0.081547126 0.106813736 0.18939628 -0.21476729 -0.23268297 -0.099464625 0.025955906 -0.25889805
0.06822348 0.20460321 -0.18794724 -0.010079344 0.045987446 0.2303814 -0.04687824 0.05506261
0.016502025 0.028704755 0.03781899 -0.017016046 -0.03771176 -0.05069361 0.057646573 -0.0500233
0.060084112 -0.031736713 -0.048543315 0.06723491 0.054795276 0.027512992 -0.0066600386 -0.038083408
-0.043103117 -0.028508954 -0.014197057 -0.06798726 0.045188766 -0.04555465 -0.06285043 -0.06307573
0.008770475 -0.010608351 0.047767162 -0.0069253705 0.03203831 -0.011306148 -0.049167987 0.030385956
-0.014710059 -0.044082444 -0.015474955 -0.059473153 0.03270823 0.008715071 -0.0071265036 -0.060747076
-0.0389027 -0.010051367 -0.038512472 0.06497958 0.027568627 -0.055264868 0.013934061 -0.019239394
-0.06609127 0.015740491 0.063532226 -0.009376087 0.06585871 -0.0055040075 0.041435167 -0.007430661
-0.055187188 -0.028335322 0.0019524283 -0.04132051 -0.026291076 0.021468583 -0.036129206 -0.035801023
0.041402172 -0.035355113 0.026047166 -0.033627562 -0.04844704 -0.045975167 -0.033437684 -0.068816006
-0.01074907 0.02006902 0.049194075 0.019540513 0.019151563 0.058696315 -0.026180396 -0.009456453
-0.06595461 -0.032401204 0.05397286 0.0058424897 -0.06438238 0.057890944 -0.038836308 -0.071885474
0.0037350715 0.046455298 0.0014204467 -0.0115106115 -0.01890551 -0.058796283 0.030633152 -0.056188665
0.0013149041 -0.06696411 -0.05025142 0.016117672 0.030170798 -0.040838096 0.017952165 -0.011268189
-0.044244368 0.046494946 0.012953201 0.022741357 -0.022383077 -0.01610732 0.06155856 -0.0113452645
-0.053917605 -0.062828556 -0.003935015 -0.032887444 0.0041989065 -0.011270647 -0.032789633 -0.050150253
0.01236807 -0.04753175 0.015548348 0.020272462 0.012779551 0.047678582 -0.0038835232 0.0075562773
-0.07739852 0.008972375 -0.052882418 -0.018313 0.0075823604 0.004923891 -0.004401879 -0.06730313
-0.061275847 0.022575496 -0.013729597 -0.041165594 0.015543754 -0.017193297 -0.005497481 -0.002976583
-0.019952543 0.0025245624 -0.0603802 -0.015902627 -0.00853843 0.020483369 -0.05829469 -0.016380949
0.023237625 -0.041944396 0.0017188359 0.02479343 -0.088032804 -0.069042556 0.036195938 -0.0034917013
-0.056696426 -0.025782863 -0.023942968 -0.0007325471 -0.0743104 0.021107933 -0.025302095 -0.071104065
-0.04369049 0.009852931 0.0003434293 -0.05400063 -0.012960108 0.014073739 -0.08086211 -0.102499805
-0.002519823 -0.02890467 -0.03908951 0.01476253 -0.0019558256 -0.07017982 -0.03070802 -0.014997374
-0.07215867 -0.02665666 -0.114767894 -0.1840374 -0.08297958 -0.059321992 -0.1208463 -0.15837944
-0.09285986 -0.23672174 -0.10266686 -0.22328408 -0.49302542 0.1645552 0.14765304 -0.113928676
0.16912654 -0.060757283 0.11537063 -0.028128626 -0.39369643 -0.23794642 -0.2561989 0.13995162
0.055151638 -0.03784963 0.009724601 0.16488501 0.054038685 0.06439559 0.07675207 0.047978185
0.05491097 0.05836972 0.06830759 0.0015005732 0.032807637 0.022391837 0.0576029 0.0363764
-0.05868524 0.035714954 -0.017608272 0.013440494 0.004169958 0.06486948 0.029236976 0.033070818
0.029762369 0.01525272 0.003803931 -0.052715518 0.056093432 0.01570405 -0.06496978 -0.05389165
00000000: 2e02 a7bd 29c1 da3d 19f1 413e f5eb 5bbe
00000010: 7244 6ebe 1cb4 cbbd 7ba1 d43c 498e 84be
00000020: c0b8 8b3d 8183 513e 3e75 40be d523 25bc
00000030: 555d 3c3d 1ae9 6b3e 6603 40bd 5589 613d
00000040: 412f 873c 3c26 eb3c 16e8 1a3d 3c65 8bbc
00000050: a577 1abd 1aa4 4fbd d01e 6c3d 3be5 4cbd
00000060: c21a 763d 5bfe 01bd 5bd5 46bd 75b2 893d
00000070: 0371 603d ed62 e13c 743c dabb 59fd 1bbd
00000080: e58c 30bd 9c8b e9bc c69a 68bc e83c 8bbd
00000090: db17 393d 8397 3abd bab7 80bd d92d 81bd
000000a0: 0ab2 0f3c a6ce 2dbc 80a7 433d 38ee e2bb
000000b0: 9a3a 033d 6c3d 39bc 5f64 49bd f8eb f83c
000000c0: 7602 71bc cb8f 34bd aa8a 7dbc 1f9a 73bd
000000d0: 11f9 053d a8c9 0e3c 7285 e9bb edd1 78bd
000000e0: 7058 1fbd 7dae 24bc 41bf 1dbd 0414 853d
000000f0: 9ad7 e13c 6a5d 62bd b04b 643c ef9b 9dbc
00000100: dc5a 87bd 34f2 803c 2f1d 823d 299e 19bc
00000110: eee0 863d f65a b4bb ecb7 293d e77c f3bb
00000120: f60b 62bd 7a1f e8bc 9fe8 ff3a b23f 29bd
00000130: 6260 d7bc e2de af3c 38fc 13bd 18a4 12bd
00000140: 5395 293d 86d0 10bd de60 d53c 0ebd 09bd
00000150: 6770 46bd 7550 3cbd f4f5 08bd 68ef 8cbd
00000160: de1c 30bc c967 a43c ba7f 493d 6d13 a03c
00000170: bde3 9c3c 8c6b 703d 4578 d6bc 3def 1abc
00000180: 3613 87bd 20b7 04bd a512 5d3d 5b72 bf3b
00000190: e9da 83bd 0e1f 6d3d d212 1fbd b138 93bd
000001a0: 1ac8 743b e947 3e3d 482e ba3a 0197 3cbc
000001b0: badf 9abc 5fd4 70bd 60f2 fa3c 1626 66bd
000001c0: dc58 ac3a 7b24 89bd 6fd4 4dbd 3509 843c
000001d0: c028 f73c d945 27bd 6b10 933c 369e 38bc
000001e0: 9539 35bd 7c71 3e3d aa39 543c 154c ba3c
000001f0: b75c b7bc 80f3 83bc d424 7c3d 7de1 39bc
00000200: b5d8 5cbd 42ac 80bd 4cf1 80bb fcb4 06bd
00000210: fb96 893b 85a8 38bc 6c4e 06bd 5a6a 4dbd
00000220: 72a3 4a3c a7b0 42bd 80be 7e3c 6f12 a63c
00000230: 5261 513c 9e4a 433d b582 7ebb a69a f73b
00000240: 1e83 9ebd de00 133c 3c9b 58bd 2505 96bc
00000250: 7375 f83b 9758 a13b a33d 90bb 39d6 89bd
00000260: 62fc 7abd 3ff0 b83c 1bf2 60bc 419d 28bd
00000270: 3bab 7e3c f5d8 8cbc 3724 b4bb c712 43bb
00000280: 8473 a3bc 2173 253b 3b51 77bd 3a46 82bc
00000290: c5e4 0bbc bdcc a73c 6ac6 6ebd 5731 86bc
000002a0: d55c be3c e3cd 2bbd 904a e13a 971b cb3c
000002b0: 8b4a b4bd 2f66 8dbd 3142 143d 07d5 64bb
000002c0: 833a 68bd 9536 d3bc 0b24 c4bc 6708 40ba
000002d0: 0d30 98bd 8bea ac3c 5746 cfbc 029f 91bd
000002e0: cdf4 32bd 306e 213c 4d0e b439 c42f 5dbd
000002f0: a256 54bc 8a95 663c 099b a5bd 6beb d1bd
00000300: 9d23 25bb 7dc9 ecbc 521c 20bd 8ade 713c
00000310: 4f2d 00bb 70ba 8fbd 638f fbbc 8cb7 75bc
00000320: edc7 93bd 115f dabc 6e0b ebbd 4d74 3cbe
00000330: 33f1 a9bd 9efb 72bd 447e f7bd 382e 22be
00000340: 4f2d bebd 2f67 72be 0143 d2bd 95a4 64be
00000350: d46d fcbe 2981 283e 5c32 173e 7053 e9bd
00000360: 822f 2d3e a1dc 78bd 7047 ec3d 016e e6bc
00000370: 9492 c9be 3aa8 73be 812c 83be 7a4f 0f3e
00000380: afe6 613d 3708 1bbd ef53 1f3c 9ed7 283e
00000390: ab57 5d3d d6e1 833d 3030 9d3d c684 443d
000003a0: 53ea 603d 1615 6f3d dae4 8b3d e2ae c43a
000003b0: 4d61 063d 166f b73c 05f1 6b3d 6cff 143d
000003c0: ef5f 70bd d849 123d 393f 90bc 8535 5c3c
000003d0: 25a4 883b 4ada 843d 6282 ef3c 4475 073d
000003e0: 36d0 f33c 8be6 793c 5f4b 793b 3aec 57bd
000003f0: 3ac2 653d c8a5 803c e00e 85bd 7ebd 5cbd

layers.0.bias f4 [256]
-0.1026868 0.043733034 0.078205496 -0.15590848 -0.021109037 -0.08325618 -0.0006625115 0.0072598476
-0.100579195 -0.06332803 -0.26274282 -0.061737005 -0.03679264 -0.046390627 -0.081158355 0.05779777
-0.0009756853 -0.11288375 -0.105180226 -0.087138474 0.08958823 -0.1207588 0.0025384997 -0.19052611
-0.109352626 -0.13181292 -0.09418183 -0.009701368 -0.105088785 -0.03270858 -0.14486991 -0.16961944
-0.077242434 0.021110151 -0.0076366123 -0.09136565 -0.029687902 0.00034317424 -0.15360948 -0.025030123
-0.14031664 0.09812502 -0.041332107 -0.13748239 -0.13424712 -0.03674589 0.05495099 -0.0955314
-0.14276521 -0.13113926 0.26886332 0.08256935 -0.10247615 -0.03844364 -0.007170238 -0.16108692
-0.078457244 -0.045880865 0.18175805 -0.03031906 0.1421285 -0.13724725 -0.061482877 0.19916975
-0.07353924 -0.15190864 -0.0036452992 -0.12713398 -0.09291169 0.040781792 0.038361996 -0.14559208
-0.07710543 0.010845651 -0.017379714 -0.0019997717 0.06691123 -0.080915324 -0.074625984 -0.04955086
-0.08719456 -0.2619086 -0.02339714 -0.11542205 -0.13077271 0.02947512 -0.10989801 0.1666988
-0.17716749 -0.17121066 -0.04590998 -0.023153031 0.003024825 -0.11437441 -0.07591605 -0.16219059
0.017516913 -0.047120504 -0.0680809 -0.18350063 0.0005060881 -0.07112691 -0.06381931 -0.14799702
-0.07197234 -0.13916768 -0.055557027 -0.060416464 -0.2640271 0.020237809 -0.18317263 -0.03763315
-0.061349306 -0.16586463 -0.12796576 -0.12650616 -0.002761916 -0.1534307 -0.07660495 -0.09192118
-0.10628891 -0.11472837 -0.1155111 -0.12218341 0.041910715 -0.07032342 -0.040267497 0.102782995
0.049305134 0.055776883 -0.038311396 -0.03657594 -0.022310328 -0.07977177 -0.20813973 -0.06981986
0.08788491 0.038025822 -0.0945581 -0.1288985 -0.07711208 -0.052820086 -0.1655006 -0.14682332
0.09187679 -0.026114322 -0.0197856 -0.019801818 -0.0020034076 -0.10864262 -0.1253905 -0.052375607
-0.15208259 0.08482799 -0.05214595 -0.17167571 -0.0069238474 -0.11250634 -0.22005789 -0.06893194
-0.08399699 0.16321728 -0.0035957748 -0.08869169 0.017236937 -0.034914024 -0.19565903 -0.04425102
-0.09446561 -0.08857284 -0.1531297 0.10523435 -0.16596992 -0.104430534 -0.13854772 -0.0869394
-0.08440026 -0.14833453 0.22655286 -0.14160278 -0.078755595 -0.06633807 -0.14879657 -0.18440379
-0.10967206 -0.25561538 -0.06868311 0.036752347 -0.11972859 -0.054626103 -0.055041265 0.18872188
-0.06410699 -0.13379906 -0.053996734 -0.17966284 0.009661451 -0.24099322 -0.104178175 -0.04401449
0.1378538 0.029206602 -0.022189282 -0.22657809 -0.049803007 -0.23255017 -0.08649834 -0.0929596
-0.21540685 0.03407029 -0.109712586 0.007876795 -0.036619946 -0.159646 -0.10555112 0.07980277
-0.04487568 -0.0005590485 -0.17628628 0.06829665 -0.2645537 0.0080707 -0.037953705 -0.16856243
-0.11805066 -0.067275465 0.099772036 -0.12699868 -0.093718916 -0.22711785 -0.10476924 -0.2591104
-0.005636471 -0.112872 -0.22460267 -0.05650234 -0.045005564 0.011281201 -0.06854001 -0.10514582
-0.22211082 -0.049556293 -0.029513717 0.1288287 0.008262693 -0.13110897 -0.18726496 -0.27656823
0.0443116 -0.13394886 -0.16173737 -0.1248324 -0.19301489 -0.11121496 -0.068284474 -0.043902125
00000000: 754d d2bd 6921 333d 342a a03d 79a6 1fbe
00000010: dcec acbc 3782 aabd 65ac 2dba 04e4 ed3b
00000020: 77fc cdbd 20b2 81bd 3a86 86be f1df 7cbd
00000030: e1b3 16bd 1904 3ebd 5a36 a6bd 5bbd 6c3d
00000040: 22c5 7fba 982f e7bd bb68 d7bd a875 b2bd
00000050: 097a b73d 6450 f7bd f55c 263b 4719 43be
00000060: 45f4 dfbd f7f9 06be 67e2 c0bd 7df2 1ebc
00000070: ca38 d7bd 6ff9 05bd c758 14be b8b0 2dbe
00000080: 4831 9ebd 32ef ac3c 8c3c fabb ea1d bbbd
00000090: 0b34 f3bc 11ec b339 ce4b 1dbe f90b cdbc
000000a0: 2aaf 0fbe c5f5 c83d db4b 29bd 2fc8 0cbe
000000b0: 1478 09be dc82 16bd 4a14 613d f7a5 c3bd
000000c0: 0b31 12be 5f49 06be 74a8 893e 1f1a a93d
000000d0: 04df d1bd 1477 1dbd 51f4 eabb f8f3 24be
000000e0: 31ae a0bd 93ed 3bbd c81e 3a3e ad5f f8bc
000000f0: 228a 113e 8b8a 0cbe 78d5 7bbd 28f3 4b3e
00000100: be9b 96bd f08d 1bbe f9e5 6ebb 692f 02be
00000110: 7c48 bebd cf0a 273d 7821 1d3d 1716 15be
00000120: 74e9 9dbd f5b1 313c e75f 8ebc 9a0e 03bb
00000130: c108 893d efb6 a5bd 82d5 98bd d8f5 4abd
00000140: 1093 b2bd e218 86be 5cab bfbc 6562 ecbd
00000150: 48e9 05be cf75 f13c 3512 e1bd 17b3 2a3e
00000160: 656b 35be d951 2fbe 1a0c 3cbd 6dab bdbc
00000170: 243c 463b 213d eabd e079 9bbd 4a15 26be
00000180: a17f 8f3c 6e01 41bd 006e 8bbd 97e7 3bbe
00000190: ffaa 043a fcaa 91bd b3b3 82bd 888c 17be
000001a0: 3c66 93bd f981 0ebe c48f 63bd 4177 77bd
000001b0: 8f2e 87be c3c9 a53c 9b91 3bbe 3825 1abd
000001c0: 6949 7bbd 6bd8 29be 7509 03be d58a 01be
000001d0: 4301 35bb f01c 1dbe 0ee3 9cbd 2c41 bcbd
000001e0: 00ae d9bd b5f6 eabd 1591 ecbd 4c3b fabd
000001f0: 92aa 2b3d ba05 90bd 88ef 24bd e47f d23d
00000200: 2ef4 493d 4d76 643d 69ec 1cbd a7d0 15bd
00000210: 26c4 b6bc 625f a3bd 9522 55be b7fd 8ebd
00000220: 01fd b33d f7c0 1b3d ada7 c1bd f8fd 03be
00000230: f0ec 9dbd e059 58bd fd78 29be da58 16be
00000240: e629 bc3d b4ed d5bc 6915 a2bc 6c37 a2bc
00000250: 9a4b 03bb 0680 debd 5e66 00be ce87 56bd
00000260: 8abb 1bbe 4cba ad3d fe96 55bd c2cb 2fbe
00000270: 71e1 e2bb b969 e6bd db56 61be 302c 8dbd
00000280: 9d06 acbd 6e22 273e 17a7 6bbb fda3 b5bd
00000290: 7a34 8d3c 0202 0fbd d75a 48be 8f40 35bd
000002a0: 3077 c1bd ad65 b5bd 08ce 1cbe 1b85 d73d
000002b0: 05f4 29be addf d5bd 74df 0dbe 490d b2bd
000002c0: 0bda acbd 02e5 17be 79fd 673e 5200 11be
000002d0: 9d4a a1bd 41dc 87bd 215e 18be 59d4 3cbe
000002e0: bf9b e0bd 05e0 82be bba9 8cbd a189 163d
000002f0: 4334 f5bd 9fbf 5fbd f372 61bd 4f40 413e
00000300: 874a 83bd 9f02 09be ae2b 5dbd 89f9 37be
00000310: 104b 1e3c edc6 76be 5e5b d5bd 8a48 34bd
00000320: 8c29 0d3e af42 ef3c 4cc6 b5bc 1604 68be
00000330: 3dfe 4bbd a221 6ebe 0b26 b1bd 9a61 bebd
00000340: 9d93 5cbe 4a8d 0b3d feb0 e0bd ac0d 013c
00000350: ccfe 15bd 3e7a 23be 302b d8bd a26f a33d
00000360: 90cf 37bd 1c8d 12ba 6484 34be 1ddf 8b3d
00000370: 9573 87be f83a 043c 5875 1bbd a19b 2cbe
00000380: 8bc4 f1bd b8c7 89bd 4855 cc3d f10b 02be
00000390: b4ef bfbd 9591 68be 4191 d6bd 1eaa 84be
000003a0: 25b2 b8bb 6f29 e7bd 3efe 65be ff6e 67bd
000003b0: c157 38bd c9d4 383c b45e 8cbd b156 d7bd
000003c0: 0571 63be 8afb 4abd c0c6 f1bc aceb 033e
000003d0: 3f60 073c 6e41 06be 63c2 3fbe 5a9a 8dbe
000003e0: 1580 353d e429 09be 7b9e 25be 21a8 ffbd
000003f0: b2a5 45be abc4 e3bd bbd8 8bbd b7d2 33bd

layers.2.weight f4 [128, 256]
-0.07315364 0.029320328 -0.06466461 0.08405638 -0.013012481 0.41721132 -0.10268254 0.13788632
0.10384453 -0.23434106 0.11836739 0.14792393 0.088990286 0.0012750947 -0.06390567 -0.27299923
-0.30067077 0.14147551 -0.00047097416 0.26722184 0.016289659 0.2568511 -0.105417244 0.15937933
0.13369521 0.29289007 0.12383717 -0.100345775 0.19627528 0.028427327 -0.067172825 0.18003352
0.09900877 0.12909664 0.15934174 0.28433675 0.07722107 -0.05077618 0.029480455 0.1705575
-0.2649806 0.2437895 -0.10456021 0.1861192 -0.044655815 0.1886176 -0.017241905 -0.07449527
-0.06554888 -0.3174645 -0.053762067 -0.13182639 0.09812884 -0.0060308054 -0.28317645 0.23457217
-0.25161627 -0.29083672 0.021576613 -0.081356615 0.07527976 -0.24719769 0.045744807 -0.17245148
0.021021862 -0.117092706 -0.113104716 0.023240434 -0.15894397 -0.04297635 -0.4364411 -0.18050304
0.026120685 0.0906701 0.23779893 -0.3921845 0.28000638 0.08711743 -0.13477841 0.011288432
0.3132714 0.1192985 0.11772043 -0.08064246 0.14347304 -0.17695887 0.17201847 0.05245009
0.060610864 -0.13291971 0.12845886 -0.15762372 -0.22547628 -0.29577973 0.07542136 -0.08838144
-0.15518726 0.10334931 -0.07420673 0.03391426 -0.22397234 0.047130033 0.062336594 -0.00087379816
0.1802268 0.12514678 0.02633922 -0.048251968 0.037420116 0.03163497 -0.035239857 -0.065892555
0.06082964 -0.030340541 0.01432881 -0.133845 0.064952135 -0.10421943 -0.28628668 -0.2539064
-0.10739528 -0.19700456 0.062187817 -0.07447845 -0.37591928 -0.22382414 0.074809745 -0.05216313
0.08250171 -0.21664506 -0.08616723 -0.036679003 -0.005624628 -0.23976947 0.37063244 -0.13564631
-0.28898 0.026538083 0.21444699 0.02655446 -0.19543134 0.15121922 0.010761261 0.077406734
-0.20429061 0.033681978 -0.18491484 0.17574689 0.0801739 0.23752826 -0.05751762 0.054780837
-0.22028373 -0.32641274 -0.10312842 -0.0455716 0.18296145 -0.11737271 -0.07323371 0.07806147
-0.120906234 -0.18307741 -0.05891562 0.01917889 -0.14503388 -0.06861972 0.08624733 -0.03096736
-0.3597067 -0.3278705 0.35834152 -0.4042689 -0.008385322 0.110812 -0.21875477 -0.31495598
-0.04438429 -0.10688192 -0.1028393 0.19333634 0.069308065 0.075844504 0.114966355 -0.061481602
-0.08888576 0.1176182 -0.068631805 -0.03371697 -0.22108914 0.18270104 0.11836585 -0.05509217
-0.14900869 -0.21499135 -0.25235432 0.08597378 0.08367324 -0.22387521 0.08416561 -0.16452096
-0.04818834 -0.0386071 -0.22840615 0.043425534 -0.24823502 0.3326761 0.14223096 -0.061697435
-0.1908862 -0.11122249 -0.13754094 0.2005938 -0.06436788 -0.0018034484 -0.18958378 0.079183936
0.14155518 -0.0666096 -0.41610917 -0.041367117 0.3408894 0.023117384 0.15697803 0.40055725
0.034327477 0.512222 0.007520124 -0.12251722 0.19424804 0.000565807 0.33140993 0.11505835
0.07506198 -0.047439266 -0.1689325 -0.2253859 -0.050842527 -0.122753836 0.07536358 -0.039120834
-0.06179424 0.32170537 -0.050389256 0.038515624 -0.1693444 -0.14916916 -0.36785367 0.18687436
-0.20621674 0.01706397 0.00440493 -0.042805612 -0.042264186 0.056122083 0.119234554 0.19238414
00000000: 93d1 95bd 2f31 f03c e16e 84bd c025 ac3d
00000010: 4d32 55bc b99c d53e 394b d2bd 1232 0d3e
00000020: 71ac d43d 1af7 6fbe 9a6a f23d 5f79 173e
00000030: 8a40 b63d 1421 a73a fae0 82bd 8ec6 8bbe
00000040: 85f1 99be f5de 103e 15ed f6b9 4dd1 883e
00000050: e471 853c fd81 833e ffe4 d7bd 5634 233e
00000060: 66e7 083e b0f5 953e 589e fd3d 1682 cdbd
00000070: 63fc 483e 6de0 e83c e891 89bd b55a 383e
00000080: 1cc5 ca3d e931 043e 7b2a 233e 9694 913e
00000090: 1526 9e3d affa 4fbd ff80 f13c a0a6 2e3e
000000a0: 8aab 87be f4a3 793e aa23 d6bd 0896 3e3e
000000b0: 04e9 36bd f924 413e e53e 8dbc fa90 98bd
000000c0: 7e3e 86bd b58a a2be 9d35 5cbd 7ffd 06be
000000d0: c6f7 c83d 109e c5bb 81fc 90be b033 703e
000000e0: d9d3 80be 8de8 94be 70c1 b03c 4c9e a6bd
000000f0: 462c 9a3d 6421 7dbe e85e 3b3d 1f97 30be
00000100: 0a36 ac3c 4dce efbd 72a3 e7bd b962 be3c
00000110: 35c2 22be f807 30bd 3575 dfbe cad5 38be
00000120: 0cfb d53c 3fb1 b93d 9081 733e 68cc c8be
00000130: ff5c 8f3e a06a b23d 5a03 0abe 1ef3 383c
00000140: 1c65 a03e c652 f43d 6917 f13d e027 a5bd
00000150: 99ea 123e b534 35be 9c25 303e e8d5 563d
00000160: 1943 783d 1b1c 08be b88a 033e 1d68 21be
00000170: 41e3 66be 7170 97be 8476 9a3d 5401 b5bd
00000180: 69e9 1ebe cea8 d33d b3f9 97bd aee9 0a3d
00000190: 0159 65be 6c0b 413d a854 7f3d 9a0f 65ba
000001a0: 608d 383e 7a26 003e 59c5 d73c dba3 45bd
000001b0: d645 193d ac93 013d ab57 10bd adf2 86bd
000001c0: 8028 793d ba8c f8bc 63c3 6a3c aa0e 09be
000001d0: a005 853d ff70 d5bd 2b94 92be 0500 82be
000001e0: 0ef2 dbbd 90bb 49be a7b8 7e3d 2888 98bd
000001f0: 7e78 c0be 2832 65be da35 993d 02a9 55bd
00000200: a8f6 a83d 34d8 5dbe 7278 b0bd b93c 16bd
00000210: cd4e b8bb 2186 75be 89c3 bd3e dee6 0abe
00000220: 30f5 93be 6566 d93c fe97 5b3e bd88 d93c
00000230: 271f 48be 36d9 1a3e 0050 303c 6c87 9e3d
00000240: 8f31 51be 1df6 093d 515a 3dbe fef6 333e
00000250: 3732 a43d 9c3a 733e 9997 6bbd df61 603d
00000260: 0f92 61be 921f a7be fe34 d3bd 49a9 3abd
00000270: 3f5a 3b3e 1a61 f0bd 8efb 95bd b1de 9f3d
00000280: b09d f7bd a578 3bbe 8151 71bd 0c1d 9d3c
00000290: c383 14be 7f88 8cbd 71a2 b03d 43af fdbc
000002a0: 7a2b b8be a4de a7be 8a78 b73e 55fc cebe
000002b0: 9762 09bc 67f1 e23d 4001 60be e941 a1be
000002c0: 4dcc 35bd e8e4 dabd 699d d2bd f6f9 453e
000002d0: 63f1 8d3d 5d54 9b3d 7b73 eb3d 22d4 7bbd
000002e0: bd09 b6bd d0e1 f03d d58e 8cbd ce1a 0abd
000002f0: 3165 62be fb15 3b3e cb69 f23d 54a8 61bd
00000300: bc95 18be b126 5cbe 9634 81be 0513 b03d
00000310: e05c ab3d 8b3f 65be 055f ac3d 2f78 28be
00000320: 2361 45bd 7a22 1ebd 4de3 69be f9de 313d
00000330: 5231 7ebe 8654 aa3e fea4 113e 73b6 7cbd
00000340: ac77 43be 9ec8 e3bd 88d7 0cbe 7668 4d3e
00000350: 4fd3 83bd b061 ecba 4022 42be 302b a23d
00000360: d7f3 103e 9d6a 88bd 430c d5be 9170 29bd
00000370: 0e89 ae3e ab60 bd3c d9be 203e d715 cd3e
00000380: f89a 0c3d fb20 033f 5f6b f63b 4fea fabd
00000390: f5e8 463e aa52 143a 90ae a93e b6a3 eb3d
000003a0: 18ba 993d ad4f 42bd a4fc 2cbe 90cb 66be
000003b0: 4140 50bd 5d66 fbbd 3858 9a3d 2b3d 20bd
000003c0: f51b 7dbd 91b6 a43e f764 4ebd 8fc2 1d3d
000003d0: 9e68 2dbe cdbf 18be 5157 bcbe fe5b 3f3e
000003e0: 7b2a 53be bdc9 8b3c 3b57 903b f054 2fbd
000003f0: 361d 2dbd 45e0 653d 3f31 f43d 5900 453e

layers.2.bias f4 [128]
-0.24171546 -0.1591365 -0.116919056 0.019454835 -0.13052996 0.03582796 -0.09827182 -0.16208829
-0.068767235 -0.1517879 -0.1735256 -0.22159825 -0.08914823 -0.0058348523 -0.0691616 -0.07594311
-0.11345742 -0.07786858 -0.02557733 -0.035149828 -0.06836457 -0.097335085 -0.1870441 -0.031709637
-0.09442404 -0.04622358 -0.059453856 0.035486344 -0.07450301 -0.12760702 0.12166673 -0.041805614
-0.08172201 -0.10870561 -0.05678605 -0.13849643 -0.1539395 -0.0014178613 -0.14564353 -0.023689374
-0.11200521 0.05159019 -0.09865529 -0.08977159 -0.0035790305 -0.17899954 -0.057627216 -0.12742901
-0.030471139 0.03332944 -0.15370478 -0.16437227 -0.03383597 -0.12891322 -0.010933977 -0.016750911
-0.063025504 -0.050351623 0.0133239515 -0.09792872 -0.04421438 -0.057999164 -0.05251456 0.017601172
-0.10290901 -0.121870525 -0.2445886 -0.08071336 -0.086552195 -0.004563677 0.023447048 -0.094978735
-0.08752261 -0.058055498 -0.03319093 -0.09248654 -0.020316267 -0.06114576 0.07274838 0.026106147
0.013371442 -0.06200817 -0.008333628 -0.22217736 -0.06227597 -0.075612664 -0.07343037 -0.034475565
-0.18513586 -0.14856048 -0.08160678 0.020809 -0.08649389 -0.08646014 -0.16261475 -0.14664319
-0.07517621 -0.04974617 -0.11924084 -0.073013976 -0.036987636 -0.076434076 -0.060930315 -0.19651833
0.025045298 0.0076997187 -0.017297508 0.04744931 -0.0055173305 0.08271777 -0.16649088 -0.03491352
-0.039357465 -0.04050575 -0.18316302 0.040913463 0.0915615 -0.090232566 0.053399306 -0.05372082
0.055535026 0.0096398825 0.06830305 -0.041276716 -0.0908045 0.008017505 -0.14726438 0.043223597
00000000: 4284 77be aef4 22be 4273 efbd bf5f 9f3c
00000010: a5a9 05be 57c0 123d bc42 c9bd 79fa 25be
00000020: d6d5 8cbd 4a6e 1bbe b2b0 31be a7ea 62be
00000030: 5993 b6bd 4a32 bfbb 99a4 8dbd 1088 9bbd
00000040: 5d5c e8bd 9079 9fbd 8c87 d1bc 44f9 0fbd
00000050: b902 8cbd 9e57 c7bd 7d88 3fbe f7e1 01bd
00000060: 6461 c1bd f054 3dbd e385 73bd 215a 113d
00000070: 0995 98bd 6aab 02be 682c f93d 5d3c 2bbd
00000080: df5d a7bd 0ca1 debd 7d98 68bd 02d2 0dbe
00000090: 51a2 1dbe 88d7 b9ba 9423 15be 3810 c2bc
000000a0: fd62 e5bd 3c50 533d c90b cabd 2bda b7bd
000000b0: 2b8e 6abb a84b 37be 840a 6cbd c07c 02be
000000c0: 9c9e f9bc 7384 083d c964 1dbe 3451 28be
000000d0: 9697 0abd d401 04be 6c24 33bc 3539 89bc
000000e0: 8413 81bd 813d 4ebd b44c 5a3c da8e c8bd
000000f0: 231a 35bd 8890 6dbd 8219 57bd 5530 903c
00000100: f6c1 d2bd 4197 f9bd 6f75 7abe 0c4d a5bd
00000110: 4742 b1bd e68a 95bb 0614 c03c 3684 c2bd
00000120: 0e3f b3bd 9acb 6dbd 36f3 07bd 9569 bdbd
00000130: 4d6e a6bc fa73 7abd 1afd 943d 8fdc d53c
00000140: e513 5b3c 47fc 7dbd c589 08bc 7682 63be
00000150: 1615 7fbd d0da 9abd a962 96bd 4036 0dbd
00000160: 4194 3dbe 3d20 18be 7521 a7bd a377 aa3c
00000170: b523 b1bd 0412 b1bd 7b84 26be a229 16be
00000180: fcf5 99bd a4c2 4bbd 8b34 f4bd 5a88 95bd
00000190: 5980 17bd 7889 9cbd 1192 79bd 1a3c 49be
000001a0: cc2b cd3c ec4d fc3b 81b3 8dbc 355a 423d
000001b0: b9ca b4bb ef67 a93d 967c 2abe 7b01 0fbd
000001c0: 4b35 21bd 5be9 25bd 168f 3bbe e094 273d
000001d0: 9984 bb3d dacb b8bd 3bb9 5a3d 5d0a 5cbd
000001e0: b278 633d 99f0 1d3c 78e2 8b3d c611 29bd
000001f0: b6f7 b9bd da5b 033c 79cc 16be 3a0b 313d

layers.4.weight f4 [32, 128]
-0.082714036 -0.26383355 -0.11661345 0.06160275 0.23625167 -0.19346124 0.12650652 -0.393754
0.22695388 0.24823959 -0.1259068 -0.3479089 -0.06307919 -0.084389806 0.003101655 0.060862143
0.005626411 -0.3001835 -0.00561831 0.08217315 0.066687785 -0.05975086 0.31585807 -0.055928834
0.035511527 0.039840836 -0.015841518 -0.025687156 0.03601535 -0.21862145 -0.12126915 0.00061490946
0.28051436 -0.009048418 -0.40798888 0.42806917 0.023522226 0.018799555 -0.053743806 0.0044957153
0.31537905 -0.2109372 0.097744256 -0.03475647 -0.30042276 -0.20124514 0.03835152 0.25530854
-0.054712694 -0.2712915 -0.22190933 0.27606407 0.16775273 0.14016947 0.11816877 0.21686125
0.16441557 0.06919989 -0.33710736 -0.061207056 0.19635826 -0.057730734 0.22527863 -0.029479593
0.10154779 -0.0687437 0.19762488 0.2477046 0.00017620856 0.02915178 0.092998296 -0.013841838
-0.15001303 -0.07159746 0.117557034 -0.1428021 -0.21893157 0.21560426 -0.030418033 -0.12246169
-0.185019 -0.041557215 0.07417754 -0.14810944 0.15425548 0.003507494 -0.035040706 -0.007590372
0.118747115 0.23438938 0.24150735 -0.0909223 0.05734825 0.05669021 0.25688112 0.055442173
-0.2944223 -0.11007488 -0.0026870356 -0.23982154 -0.020284953 -0.0725593 -0.21455353 0.15373956
-0.051604338 -0.32251617 0.030835899 0.07306642 -0.13486578 -0.03112934 0.16743614 0.04692097
0.043465957 -0.31822398 0.068076156 -0.10342919 0.03067094 -0.23943998 0.08904068 0.1085876
0.0977852 -0.2046199 -0.032451134 0.06345999 -0.04567354 -0.08285551 0.13034154 -0.008265309
0.029135596 0.233214 0.040588565 -0.033004828 -0.0014993645 0.05842798 0.13838379 -0.17475733
-0.15669927 0.08216173 0.13633297 0.04445978 -0.00091994443 -0.22883125 -0.0028292465 -0.12850387
0.0026245818 0.016549984 0.012403339 0.057262283 0.0671711 0.076313704 -0.065219395 -0.18971822
0.022244139 -0.013974935 -0.06258936 -0.17522936 -0.0007375432 -0.11465924 0.041010387 0.016201226
-0.05618242 -0.067093715 -0.08855407 -0.10465742 -0.044145554 0.0071115973 -0.2362758 0.046709046
0.04062687 0.048801344 0.09993183 0.006968766 0.026130581 -0.27242178 -0.14925125 -0.10417436
-0.028405653 -0.20050079 0.086348325 -0.13839142 -0.13138677 -0.1707325 0.15979494 -0.16879806
-0.12982185 0.016977958 -0.11819961 0.15233004 0.0058853347 -0.019932585 0.01671231 -0.056576025
-0.1340651 0.09016847 0.13172567 0.013083912 -0.038448866 0.08006205 -0.062190834 0.03834716
-0.00059800985 0.056332354 -0.04351622 0.06329524 0.13704094 -0.03583217 -0.015304192 -0.10964723
0.07402892 0.03783456 -0.17669794 0.08960646 0.09626849 0.041857734 -0.034479123 -0.17233132
0.01547421 0.005019297 0.11311774 0.028742615 -0.03413115 0.046013128 0.13319263 0.06880415
-0.05776042 -0.04683361 -0.04621084 0.03476272 -0.07468445 0.05014021 0.10837597 -0.16388357
0.07655361 -0.12316535 -0.069908306 0.006934839 -0.046072576 0.03684801 -0.05367478 -0.082275465
0.01625957 -0.10462833 -0.09891637 0.0085105235 0.021561602 -0.02572559 -0.034729883 -0.0071900194
-0.042832628 -0.01844003 -0.20323491 0.03149644 0.056169566 -0.04635331 -0.066885576 -0.042212892
00000000: fa65 a9bd 3115 87be 08d3 eebd 2a53 7c3d
00000010: f5eb 713e b41a 46be ed8a 013e 209a c9be
00000020: 9966 683e 8532 7e3e b6ed 00be 1e21 b2be
00000030: aa2f 81bd 90d4 acbd 2345 4b3b 954a 793d
00000040: c25d b83b a7b1 99be cd19 b8bb 654a a83d
00000050: 9b93 883d 51bd 74bd 26b8 a13e a215 65bd
00000060: 8974 113d 2530 233d 12c6 81bc df6d d2bc
00000070: d584 133d 4dde 5fbe f65b f8bd e031 213a
00000080: 949f 8f3e d13f 14bc ebe3 d0be e22b db3e
00000090: afb1 c03c 8601 9a3c 7722 5cbd cb50 933b
000000a0: 5d79 a13e ecff 57be 242e c83d cd5c 0ebd
000000b0: 03d1 99be 3513 4ebe 7c16 1d3d cdb7 823e
000000c0: 6b1a 60bd b8e6 8abe 333c 63be 4558 8d3e
000000d0: 5fc7 2b3e 9688 0f3e 7802 f23d e010 5e3e
000000e0: 8e5c 283e acb8 8d3d 5699 acbe 40b4 7abd
000000f0: 2412 493e 1077 6cbd 71af 663e 307f f1bc
00000100: 4af8 cf3d 7fc9 8cbd 2d5e 4a3e 46a6 7d3e
00000110: a0c4 3839 b7cf ee3c e475 be3d e0c8 62bc
00000120: 049d 19be b0a1 92bd bec1 f03d b73a 12be
00000130: 992f 60be 5dc7 5c3e 3d2f f9bc 32cd fabd
00000140: 9f75 3dbe e637 2abd 65ea 973d 00aa 17be
00000150: 26f5 1d3e fcdd 653b d886 0fbd a8b8 f8bb
00000160: b031 f33d c503 703e b44d 773e 7935 babd
00000170: 00e6 6a3d fe33 683d ec85 833e 5517 633d
00000180: 85be 96be f06e e1bd fa18 30bb c793 75be
00000190: a12c a6bc f899 94bd ecb3 5bbe e76d 1d3e
000001a0: 125f 53bd d720 a5be 919b fc3c d9a3 953d
000001b0: 411a 0abe f502 ffbc 6174 2b3e 3430 403d
000001c0: 5c09 323d 41ee a2be 836b 8b3d afd2 d3bd
000001d0: a041 fb3c c12f 75be f65a b63d 2d63 de3d
000001e0: 9b43 c83d e187 51be 7beb 04bd 50f7 813d
000001f0: 2e14 3bbd 26b0 a9bd 4178 053e 386b 07bc
00000200: c6ad ee3c a7cf 6e3e 3240 263d 1230 07bd
00000210: 5386 c4ba 2d52 6f3d 7bb4 0d3e 96f3 32be
00000220: c675 20be 6944 a83d df9a 0b3e 751b 363d
00000230: 6d28 71ba bd52 6abe e16a 39bb 8596 03be
00000240: 2d01 2c3b d593 873c 6037 4b3c db8b 6a3d
00000250: 0091 893d 5c4a 9c3d bf91 85bd 7e45 42be
00000260: 5739 b63c 20f7 64bc da2e 80bd 536f 33be
00000270: b057 41ba 77d2 eabd 82fa 273d 6fb8 843c
00000280: 8a1f 66bd 6e68 89bd d65b b5bd a156 d6bd
00000290: f8d1 34bd 6708 e93b 49f2 71be fc51 3f3d
000002a0: 5c68 263d ebe3 473d 0fa9 cc3d 3f5a e43b
000002b0: cd0f d63c de7a 8bbe 52d5 18be 5e59 d5bd
000002c0: f9b2 e8bc 1450 4dbe 64d7 b03d 7bb6 0dbe
000002d0: 418a 06be 80d4 2ebe 49a1 233e 66d9 2cbe
000002e0: 05f0 04be 5c15 8b3c a312 f2bd 68fc 1b3e
000002f0: c4d9 c03b a949 a3bc 41e8 883c 43bc 67bd
00000300: 5d48 09be 3faa b83d 18e3 063e e85d 563c
00000310: 8f7c 1dbd 92f7 a33d d1bb 7ebd e911 1d3d
00000320: c3c3 1cba c1bc 663d 103e 32bd efa0 813d
00000330: 7654 0c3e c1c4 12bd 6fbe 7abc ba8e e0bd
00000340: 799c 973d 69f8 1a3d 4ef0 34be 9783 b73d
00000350: 6a28 c53d 0473 2b3d fb39 0dbd 9f77 30be
00000360: 8a87 7d3c ea78 a43b 46aa e73d a275 eb3c
00000370: 1bcd 0bbd 4378 3c3d a663 083e 31e9 8c3d
00000380: 3196 6cbd 99d4 3fbd 9447 3dbd 5b63 0e3d
00000390: 29f4 98bd d25f 4d3d 38f4 dd3d 18d1 27be
000003a0: 24c8 9c3d 1d3e fcbd 162c 8fbd a53d e33b
000003b0: 99b6 3cbd f0ed 163d 16da 5bbd 0a80 a8bd
000003c0: ca32 853c 6147 d6bd aa94 cabd b96f 0b3c
000003d0: f5a1 b03c 79be d2bc ec40 0ebd 419a ebbb
000003e0: 4471 2fbd 8c0f 97bc d01c 50be 6902 013d
000003f0: 0f12 663d f8dc 3dbd 4efb 88bd 6de7 2cbd

layers.4.bias f4 [32]
0.037643168 -0.0400769 0.027559074 -0.0064612483 0.00047393466 0.00095509406 -0.0022599911 -0.0026582084
-0.12726775 0.020031476 -0.13072969 0.033267263 -0.078695595 0.01704023 0.03254329 -0.1050167
0.0025812127 0.032626726 -0.14515455 -0.11693748 -0.09718342 -0.100623004 0.028415877 0.02050196
0.021862185 -0.061205447 0.02928428 -0.081501 -0.15327138 -0.11450385 -0.1510953 -0.0725585
00000000: b92f 1a3d ad27 24bd 91c3 e13c e1b8 d3bb
00000010: 6f7a f839 475f 7a3a 5c1c 14bb 5635 2ebb
00000020: 7a52 02be 0d19 a43c 01de 05be 4143 083d
00000030: 282b a1bd f497 8b3c 1d4c 053d ff12 d7bd
00000040: 9029 293b 9aa3 053d 65a3 14be eb7c efbd
00000050: 1a08 c7bd 6f13 cebd 6ac8 e83c baf3 a73c
00000060: 5318 b33c 90b2 7abd 96e5 ef3c ffe9 a6bd
00000070: 2cf3 1cbe ff80 eabd bab8 1abe 8d99 94bd

layers.7.weight f4 [1, 32]
0.016617842 -0.04490453 0.018913079 -0.008802633 -0.013841057 -0.010560814 -0.008067234 -0.008341738
0.0030313504 0.024443096 -0.046117168 0.014781244 0.09345845 0.027973877 0.022403285 0.09249122
-0.008384653 0.018132435 0.10850811 -0.08688134 -0.050387375 0.07276746 0.017440587 0.020178596
0.018109074 -0.07281216 0.014330204 0.09458515 -0.027226761 0.24064867 0.116422094 -0.017385585
00000000: 2422 883c d0ed 37bd 9aef 9a3c eb38 10bc
00000010: 9ac5 62bc 4407 2dbc 6f2c 04bc c9ab 08bc
00000020: 9fa9 463b e33c c83c 5be5 3cbd 082d 723c
00000030: 2567 bf3d 7929 e53c 1887 b73c 096c bd3d
00000040: c95f 09bc 798a 943c 8039 de3d d8ee b1bd
00000050: fe62 4ebd 1b07 953d 90df 8e3c 954d a53c
00000060: 7b59 943c 8b1e 95bd 3bc9 6a3c dcb5 c13d
00000070: a80a dfbc 9b6c 763e b56e ee3d 376c 8ebc
