Theises/InstagramAnalytics-Python/prediction/models/best_model_3.pt (torch, 370767 bytes, 7 tensors)

layers.0.weight f4 [256, 214]
-0.052930713 0.17060387 0.3179652 -0.38184485 -0.35789222 -0.049600992 0.021655435 -0.32477576
0.034647614 0.28822607 -0.42734504 0.025928585 0.045987446 0.16690734 -0.04687824 0.05506261
0.016502025 0.028704755 0.03781899 -0.017016046 -0.03771176 -0.05069361 0.057646573 -0.0500233
0.060084112 -0.031736713 -0.048543315 0.06723491 0.054795276 0.027512992 -0.0066600386 -0.038083408
-0.043103117 -0.028508954 -0.014197057 -0.06798726 0.045188766 -0.04555465 -0.06285043 -0.06307573
0.008770475 -0.010608351 0.047767162 -0.0069253705 0.03203831 -0.011306148 -0.049167987 0.030385956
-0.014710059 -0.044082444 -0.015474955 -0.059473153 0.03270823 0.008715071 -0.0071265036 -0.060747076
-0.0389027 -0.010051367 -0.041660104 0.061831962 0.024420982 -0.0584125 0.010786403 -0.022387039
-0.06923891 0.0125928335 0.06038459 -0.012523746 0.06271107 -0.0086516645 0.038287535 -0.010578319
-0.05833482 -0.031482946 -0.0011952309 -0.044468142 -0.029438721 0.018320939 -0.03927684 -0.038948655
0.03825454 -0.038502745 0.022899522 -0.036775194 -0.05159467 -0.0491228 -0.036585316 -0.07624442
-0.018177502 0.012640524 0.041765653 0.012112017 0.01172305 0.051267944 -0.033608794 -0.016884876
-0.07338308 -0.039829537 0.046544425 -0.0015859425 -0.07436361 0.047909744 -0.048817493 -0.081866674
-0.006246185 0.03647414 -0.008560823 -0.021491766 -0.02888672 -0.068777345 0.02065193 -0.06616969
-0.008666365 -0.07694531 -0.060232542 0.0061363773 0.020189576 -0.05081927 0.007970856 -0.021249332
-0.054225534 0.03651379 0.0029719237 0.012760087 -0.032364298 -0.0260885 0.051577397 -0.021326406
-0.06389861 -0.07280975 -0.013916262 -0.0428686 -0.005782345 -0.021251787 -0.041791778 -0.059152488
0.0033658152 -0.056533996 0.0065460945 0.011270184 0.003777292 0.03867634 -0.015039451 -0.0035996318
-0.08855472 -0.0021835344 -0.06403831 -0.029468918 -0.0035735436 -0.0062320367 -0.015557785 -0.07845932
-0.07243207 0.011419589 -0.024885403 -0.05232147 0.0043878136 -0.028349167 -0.016653357 -0.014132457
-0.031108486 -0.0054421136 -0.06834699 -0.02386934 -0.016505133 0.0125166895 -0.06626145 -0.026982045
0.012636587 -0.052545324 -0.008882203 0.0063825296 -0.10644396 -0.08745371 0.019244963 -0.02044279
-0.073119126 -0.041446056 -0.039606113 -0.016395656 -0.08476823 0.010650025 -0.035759997 -0.080069184
-0.0688248 -0.016626012 -0.02293638 -0.0750484 -0.01166613 0.005617616 -0.036085963 -0.051156808
0.048022404 0.02110349 0.011526413 0.12328683 0.1064291 0.040502124 0.0733671 0.08896022
0.031799015 0.077301346 -0.010810796 -0.087911524 0.0070168925 0.0301774 -0.03134786 -0.06888082
-0.026302453 -0.25963822 -0.08741163 -0.10588255 -0.70878965 0.3393764 0.24515793 -0.17285426
0.15798306 -0.035660885 0.25760698 0.012308406 -0.48748043 -0.29899704 -0.6460094 0.24170418
0.08335807 0.009179762 0.009724601 0.23064654 0.054038685 0.06439559 0.07675207 0.047978185
0.05491097 0.05836972 0.06830759 0.0015005732 0.032807637 0.022391837 0.0576029 0.0363764
-0.05868524 0.035714954 -0.017608272 0.013440494 0.004169958 0.06486948 0.029236976 0.033070818
0.029762369 0.01525272 0.003803931 -0.052715518 0.056093432 0.01570405 -0.06496978 -0.05389165
00000000: e0cd 58bd c8b2 2e3e 56cc a23e 2b81 c3be
00000010: a63d b7be 692a 4bbd bd66 b13c 0249 a6be
00000020: a8ea 0d3d 5e92 933e f8cc dabe 2f68 d43c
00000030: 555d 3c3d c2e9 2a3e 6603 40bd 5589 613d
00000040: 412f 873c 3c26 eb3c 16e8 1a3d 3c65 8bbc
00000050: a577 1abd 1aa4 4fbd d01e 6c3d 3be5 4cbd
00000060: c21a 763d 5bfe 01bd 5bd5 46bd 75b2 893d
00000070: 0371 603d ed62 e13c 743c dabb 59fd 1bbd
00000080: e58c 30bd 9c8b e9bc c69a 68bc e83c 8bbd
00000090: db17 393d 8397 3abd bab7 80bd d92d 81bd
000000a0: 0ab2 0f3c a6ce 2dbc 80a7 433d 38ee e2bb
000000b0: 9a3a 033d 6c3d 39bc 5f64 49bd f8eb f83c
000000c0: 7602 71bc cb8f 34bd aa8a 7dbc 1f9a 73bd
000000d0: 11f9 053d a8c9 0e3c 7285 e9bb edd1 78bd
000000e0: 7058 1fbd 7dae 24bc c9a3 2abd 8343 7d3d
000000f0: 830e c83c f241 6fbd 74b9 303c 0665 b7bc
00000100: 21cd 8dbd 2c52 4e3c d555 773d 6630 4dbc
00000110: a96e 803d b6bf 0dbc 64d3 1c3d b050 2dbc
00000120: 7ef0 6ebd 43f4 00bd 4ba9 9cba 3a24 36bd
00000130: 7929 f1bc cb15 963c c0e0 20bd a088 1fbd
00000140: cbb0 1c3d 0eb5 1dbd c797 bb3c 96a1 16bd
00000150: ef54 53bd fd34 49bd 7cda 15bd 0926 9cbd
00000160: fce8 94bc 331a 4f3c 7612 2b3d 7b71 463c
00000170: 0912 403c 56fe 513d 60a9 09bd 2752 8abc
00000180: de49 96bd 4c24 23bd 5ea5 3e3d 66df cfba
00000190: f34b 98bd 023d 443d daf4 47bd b7a9 a7bd
000001a0: ccac ccbb e865 153d b242 0cbc 800f b0bc
000001b0: d8a3 ecbc 23db 8cbd 3c2e a93c f983 87bd
000001c0: 5ffd 0dbc 8195 9dbd 66b6 76bd aa13 c93b
000001d0: 9c64 a53c de27 50bd 3198 023c 1413 aebc
000001e0: 981b 5ebd 7c8f 153d 9bc4 423b af0f 513c
000001f0: 6d90 04bd 8db7 d5bc d242 533d b7b4 aebc
00000200: 46dd 82bd 471d 95bd 0901 64bc fc96 2fbd
00000210: d379 bdbb 3a18 aebc db2d 2bbd e149 72bd
00000220: 0295 5c3b 3190 67bd 9f80 d63b 94a6 383c
00000230: 728c 773b 156b 1e3d 0868 76bc cde7 6bbb
00000240: 2d5c b5bd a119 0fbb 8426 83bd cd68 f1bc
00000250: 1d32 6abb 1d36 ccbb 14e6 7ebc 48af a0bd
00000260: 4457 94bd 3a19 3b3c 79dc cbbc 0a4f 56bd
00000270: a6c7 8f3b 833c e8bc 9f6c 88bc d28b 67bc
00000280: 39d7 febc c253 b2bb 82f9 8bbd a289 c3bc
00000290: c635 87bc cd12 4d3c 15b4 87bd 7309 ddbc
000002a0: b009 4f3c c439 57bd a986 11bc 8a24 d13b
000002b0: 4aff d9bd ee1a b3bd 9da7 9d3c a377 a7bc
000002c0: 7bbf 95bd 57c3 29bd 053a 22bd 2f50 86bc
000002d0: f79a adbd 717d 2e3c 1379 12bd 50fb a3bd
000002e0: 04f4 8cbd 4633 88bc 13e5 bbbc fab2 99bd
000002f0: 4c23 3fbc fb13 b83b e0ce 13bd cd89 51bd
00000300: 24b3 443d 3ae1 ac3c 48d9 3c3c ce7d fc3d
00000310: 80f7 d93d 8ee5 253d 7d41 963d c730 b63d
00000320: af3f 023d 2b50 9e3d c41f 31bc f50a b4bd
00000330: f6ed e53b 9836 f73c 9d66 00bd 6311 8dbd
00000340: 3e78 d7bc 4def 84be de04 b3bd f3d8 d8bd
00000350: 3d73 35bf bec2 ad3e ae0a 7b3e b500 31be
00000360: 50c6 213e 2611 12bd 10e5 833e 32a9 493c
00000370: 0997 f9be 2416 99be df60 25bf 4d81 773e
00000380: a3b7 aa3d b666 163c ef53 1f3c 9b2e 6c3e
00000390: ab57 5d3d d6e1 833d 3030 9d3d c684 443d
000003a0: 53ea 603d 1615 6f3d dae4 8b3d e2ae c43a
000003b0: 4d61 063d 166f b73c 05f1 6b3d 6cff 143d
000003c0: ef5f 70bd d849 123d 393f 90bc 8535 5c3c
000003d0: 25a4 883b 4ada 843d 6282 ef3c 4475 073d
000003e0: 36d0 f33c 8be6 793c 5f4b 793b 3aec 57bd
000003f0: 3ac2 653d c8a5 803c e00e 85bd 7ebd 5cbd

layers.0.bias f4 [256]
-0.17112507 0.10657638 0.120655045 -0.23753275 -0.11933624 -0.18111543 0.012326216 -0.13712686
-0.12081436 -0.066191085 -0.33452588 -0.14795554 -0.10356014 -0.06631064 -0.1639525 0.120256685
-0.14226893 -0.15689227 -0.21432965 -0.13513167 0.04760291 -0.26565698 -0.055142414 -0.3679512
-0.16555098 -0.1886575 -0.09938249 -0.06454379 -0.24663408 -0.064684704 -0.23925404 -0.3519497
-0.03608486 -0.010604748 -0.0012336057 -0.19084853 -0.0875081 0.056660034 -0.1614015 -0.08731532
-0.29079565 0.14044368 -0.09999169 -0.3034238 -0.14814709 -0.13006188 0.014930396 -0.18207176
-0.20537035 -0.22880779 0.56320775 0.023266183 -0.18569878 -0.04949102 -0.12815443 -0.29447994
-0.1801989 -0.12617637 0.25406033 0.054388434 0.22530527 -0.2190104 -0.061482877 0.37537232
-0.07353924 -0.25205645 -0.042871714 -0.20183314 -0.11601333 0.013600382 -0.008330475 -0.26709723
-0.1946869 0.002544223 -0.0032320532 -0.07168711 0.148473 -0.07201989 -0.06332078 -0.093751535
-0.1665383 -0.35368484 -0.011334691 -0.19168591 -0.18399642 -0.0055820495 -0.08811626 0.20649408
-0.23111974 -0.3091059 -0.13653938 -0.076892406 -0.00075633585 -0.2288897 -0.063162364 -0.31082225
-0.0076051424 -0.07251421 -0.059743162 -0.33542332 0.034572035 -0.109460644 0.0008068233 -0.17860138
-0.11895346 -0.23966129 -0.20856741 -0.09519049 -0.38672036 0.0016351939 -0.209215 -0.06232303
-0.09811073 -0.1904057 -0.13902447 -0.107956275 0.022066062 -0.2920815 -0.20020866 -0.20992436
-0.24271439 -0.19680604 -0.1784232 -0.29612672 0.048694514 -0.12291559 -0.03952205 0.12601075
-0.025682952 0.046325758 -0.1304828 -0.027920013 -0.17908621 -0.20429885 -0.26494297 -0.2744943
0.042379558 0.04672881 -0.23984528 -0.21782672 -0.17953016 -0.03997136 -0.3126397 -0.24198924
0.12799951 -0.11707395 -0.049015 -0.055342168 -0.10261448 -0.18596308 -0.21920261 -0.17849173
-0.36062118 0.040615276 -0.10230244 -0.31233367 0.0031046083 -0.16886424 -0.30640954 -0.15981178
-0.14111942 0.22889844 -0.042493578 -0.08951686 0.036972884 -0.0012660559 -0.32675618 -0.05242479
-0.11847834 -0.21968101 -0.22895756 0.11750812 -0.20231833 -0.1455531 -0.2576444 -0.14894827
-0.19197455 -0.19446295 0.45883694 -0.3371526 -0.10073527 -0.07587548 -0.21395667 -0.32314742
-0.19694056 -0.3181272 -0.14750764 -0.038141437 -0.22435835 -0.1490149 -0.11766239 0.29468337
-0.079027385 -0.24048936 -0.12437845 -0.16244815 -0.0058978074 -0.3304516 -0.15641554 -0.042957455
0.22928199 -0.036355678 -0.049382597 -0.30665547 -0.11335045 -0.38563347 -0.0714123 -0.23129992
-0.38455832 0.06808029 -0.14238489 -0.05552348 -0.12201697 -0.14229035 -0.24275647 0.23663223
-0.04513427 -0.032990705 -0.24375814 0.08896715 -0.46739188 -0.0022743777 -0.15880895 -0.24993162
-0.2107185 -0.0650443 0.12018873 -0.1935849 -0.16464518 -0.35195032 -0.2075372 -0.4076174
-0.028669914 -0.16186275 -0.40304318 -0.18419085 -0.13883874 0.041167237 -0.1657265 -0.2882441
-0.33052215 -0.06900868 0.014897316 0.24490467 -0.04464458 -0.21482667 -0.27164164 -0.4201246
0.019616688 -0.23006861 -0.25010824 -0.16658567 -0.34729856 -0.12952952 -0.21284689 -0.08191261
00000000: 693b 2fbe b844 da3d fe19 f73d c93b 73be
00000010: 8f66 f4bd 5376 39be e6f3 493c fc6a 0cbe
00000020: 856d f7bd 318f 87bd fa46 abbe a881 17be
00000030: 5717 d4bd dfcd 87bd 2ae3 27be 2349 f63d
00000040: f2ae 11be 5ea8 20be 3b79 5bbe f55f 0abe
00000050: 45fb 423d 3104 88be 03dd 61bd 1a64 bcbe
00000060: 3286 29be 6f2f 41be 0c89 cbbd 892f 84bd
00000070: a58d 7cbe 6a79 84bd 03ff 74be c032 b4be
00000080: b8cd 13bd 89bf 2dbc f0b0 a1ba cc6d 43be
00000090: 7237 b3bd 5a14 683d 6f46 25be 60d2 b2bd
000000a0: 2be3 94be 78d0 0f3e 71c8 ccbd 5d5a 9bbe
000000b0: dfb3 17be f12e 05be 9f9e 743c 0571 3abe
000000c0: 9b4c 52be 974c 6abe 622e 103f b998 be3c
000000d0: d227 3ebe 19b7 4abd ea3a 03be 13c6 96be
000000e0: 0f86 38be 6134 01be 3214 823e 68c6 5e3d
000000f0: 6db6 663e 4344 60be 78d5 7bbd cd30 c03e
00000100: be9b 96bd 8b0d 81be 409a 2fbd 59ad 4ebe
00000110: 6698 edbd 23d4 5e3c 8b7c 08bc f8c0 88be
00000120: 015c 47be fbbc 263b dbd0 53bb b1d0 92bd
00000130: 4e09 183e 2a7f 93bd 53ae 81bd ce00 c0bd
00000140: 0489 2abe 2e16 b5be 24b5 39bc 5049 44be
00000150: 8f69 3cbe a0e9 b6bb 4c76 b4bd 2f73 533e
00000160: a7aa 6cbe 2143 9ebe fbd0 0bbe c479 9dbd
00000170: d744 46ba 1062 6abe 455b 81bd 1824 9fbe
00000180: 8f34 f9bb 5582 94bd 3fb5 74bd 9bbc abbe
00000190: 689b 0d3d e72c e0bd ff80 533a 48e3 36be
000001a0: df9d f3bd c569 75be b292 55be 3bf3 c2bd
000001b0: 3600 c6be 0154 d63a 753c 56be 6f46 7fbd
000001c0: 47ee c8bd b6f9 42be 6e5c 0ebe 2e18 ddbd
000001d0: e3c3 b43c b58b 95be 8003 4dbe 69f6 56be
000001e0: 1f8a 78be 8687 49be 92b4 36be ec9d 97be
000001f0: e673 473d 2bbb fbbd e0e1 21bd f608 013e
00000200: 0e65 d2bc 14c0 3d3d 489d 05be 83b8 e4bc
00000210: 6062 37be b833 51be 9ba6 87be 848a 8cbe
00000220: 3096 2d3d b566 3f3d 009a 75be f80d 5fbe
00000230: c1d6 37be 02b9 23bd 5012 a0be 07cc 77be
00000240: 4e12 033e 78c4 efbd f4c3 48bd 78ae 62bd
00000250: 8a27 d2bd 1b6d 3ebe a676 60be 89c6 36be
00000260: 57a3 b8be 345c 263d f183 d1bd 33ea 9fbe
00000270: af76 4b3b bfea 2cbe b6e1 9cbe b3a5 23be
00000280: 9c81 10be 5a64 6a3e bf0d 2ebd 9e54 b7bd
00000290: e170 173d c9f1 a5ba 964c a7be 60bb 56bd
000002a0: c6a4 f2bd 0ff4 60be da73 6abe 19a8 f03d
000002b0: 892c 4fbe df0b 15be f7e9 83be e585 18be
000002c0: fa94 44be 4c21 47be adec ea3e 449f acbe
000002d0: 4b4e cebd 9b64 9bbd 7517 5bbe 9473 a5be
000002e0: c9aa 49be 91e1 a2be 3e0c 17be 323a 1cbd
000002f0: 32be 65be 5d97 18be fbf8 f0bd bde0 963e
00000300: 1cd9 a1bd d842 76be 21ba febd cf58 26be
00000310: 6542 c1bb f430 a9be 652b 20be 28f4 2fbd
00000320: e6c8 6a3e b1e9 14bd 6845 4abd f201 9dbe
00000330: 4824 e8bd c071 c5be 9d40 92bd e3d9 6cbe
00000340: d4e4 c4be ae6d 8b3d 58cd 11be 976c 63bd
00000350: 08e4 f9bd 90b4 11be 2795 78be b84f 723e
00000360: b6de 38bd 4321 07bd bc9b 79be 6934 b63d
00000370: fd4d efbe ba0d 15bb d09e 22be 13ee 7fbe
00000380: 97c6 57be f235 85bd 8225 f63d 1f3b 46be
00000390: bf98 28be d532 b4be a284 54be 3ab3 d0be
000003a0: 2bdd eabc 59bf 25be ad5b cebe 879c 3cbe
000003b0: be2b 0ebe fa9e 283d 35b4 29be bb94 93be
000003c0: 333a a9be 6c54 8dbd df13 743c 4ac8 7a3e
000003d0: 3cdd 36bd 86fb 5bbe 9d14 8bbe 921a d7be
000003e0: 2db3 a03c 1b97 6bbe 300e 80be 6f95 2abe
000003f0: 1ed1 b1be 63a3 04be 89f4 59be ccc1 a7bd

layers.2.weight f4 [128, 256]
-0.0017748504 0.070442766 -0.046505097 0.08110288 0.012571963 0.43441218 0.024782902 0.24530081
0.016771667 -0.27824524 0.3100515 -0.119166605 0.11932589 -0.088976644 -0.005703322 -0.20950224
-0.4080601 0.21378882 0.16238204 0.4274588 0.027378153 0.38856202 -0.22602028 0.2976549
0.016605793 0.3229654 0.14228362 -0.2723302 0.3164685 0.24842444 -0.09635154 0.20719942
0.08277199 0.2502311 0.1552294 0.45270196 -0.023881955 -0.18122852 -0.022118943 0.1718567
-0.2555846 0.27821243 -0.09636514 0.4548441 -0.3100864 0.2866027 -0.057301793 -0.33449057
0.02497303 -0.6296323 0.0870533 -0.3945076 0.28530592 -0.0662502 -0.24067989 0.20122083
-0.03552147 -0.2796599 -0.021202581 -0.14371106 -0.11866129 -0.29474145 0.045744807 -0.05951998
0.021021862 -0.0890837 -0.09746203 0.051925745 -0.07182041 -0.057890438 -0.44883338 0.044933334
0.094161496 0.21731512 0.2512226 -0.7269723 0.46192577 0.19862579 -0.21119027 0.033602767
0.28335184 0.1993267 0.45090577 -0.25673497 0.026420254 -0.35616827 0.1419412 -0.021484632
0.13835454 -0.4588612 -0.15896119 -0.038195513 -0.22128595 -0.61793405 0.13640039 -0.016692692
-0.195217 -0.122608736 -0.01094248 -0.04448995 -0.38930577 0.18032075 0.05943731 -0.056729242
0.43561906 0.16945745 -0.074875645 -0.06714747 0.22469969 -0.063169636 -0.09604084 -0.3324554
0.11468384 -0.14729346 0.0028857596 -0.36732754 0.19490798 -0.3078028 -0.31195366 -0.2713336
-0.015375362 -0.21910748 0.25114554 0.09869867 -0.8075701 -0.4584199 0.0055334168 -0.12746108
0.022582693 -0.65211594 -0.31465596 -0.10862995 0.08843438 -0.2739665 0.30534518 0.2725239
-0.20118716 -0.28014788 0.09610511 -0.063076995 -0.35498163 0.21759482 -0.060868874 0.39079034
-0.33905703 0.23938853 -0.25134993 0.113713555 0.07611131 0.18119165 -0.19413859 -0.09012829
-0.5025741 -0.43524608 -0.09305142 -0.26675797 0.22219416 -0.08773783 0.011224357 0.23319796
-0.073178805 -0.097393 0.13461228 -0.16744037 -0.32393533 -0.051135458 -0.12560053 0.09489622
-0.3690777 -0.47202387 0.11953127 -0.5039988 0.104356 0.124187626 -0.3550105 -0.41834638
-0.18800415 -0.16446199 -0.058806382 0.18444364 0.10716755 0.20484175 0.13265836 -0.017248629
-0.013221922 0.059471875 -0.13708684 0.078868695 -0.42234716 0.31454685 0.37501937 -0.09040953
-0.21309128 -0.5189219 -0.28230053 -0.0317108 -0.00036599822 -0.8188087 0.077267036 -0.35461512
-0.33749688 -0.16179201 -0.61138767 0.0018812837 -0.336139 0.31443572 0.21177892 0.10977649
-0.51432693 -0.035448857 -0.13924836 0.52532554 -0.12266556 -0.05956307 -0.4778803 0.22258419
0.25429395 -0.044824574 -0.90316725 -0.25987715 0.5526369 -0.03999482 0.28182188 0.20528966
0.12799057 0.72307533 -0.1444656 -0.40748048 0.34268084 -0.14681923 0.35672382 0.29213518
-0.10442623 -0.013992257 0.23202085 -0.29669955 -0.14463173 -0.49522412 0.015969647 -0.07656505
-0.4821616 0.3151315 -0.07851803 0.24204874 -0.27892166 -0.18525097 -0.43801218 0.08467727
-0.14785944 -0.01980866 -0.0056438996 0.07402687 -0.06547679 0.1702471 0.13780348 0.20067945
00000000: 19a2 e8ba 4c44 903d 217c 3ebd 4419 a63d
00000010: a2fa 4d3c 466b de3e 8305 cb3c 2330 7b3e
00000020: bc64 893c 2976 8ebe 12bf 9e3e 9f0d f4bd
00000030: 2261 f43d 6339 b6bd efe2 babb c187 56be
00000040: 41ed d0be 75eb 5a3e 7a47 263e e1db da3e
00000050: 2648 e03c 9af1 c63e dc71 67be 3966 983e
00000060: df08 883c b95b a53e ccb2 113e dd6e 8bbe
00000070: 2908 a23e fa62 7e3e f553 c5bd 162c 543e
00000080: 5c84 a93d 4a1e 803e 75f4 1e3e 8dc8 e73e
00000090: 17a4 c3bc f893 39be c932 b5bc 34fb 2f3e
000000a0: fcdb 82be dc71 8e3e 165b c5bd 53e1 e83e
000000b0: a5c3 9ebe 97bd 923e 49b5 6abd 5942 abbe
000000c0: 3d94 cc3c 952f 21bf 0049 b23d e6fc c9be
000000d0: 9e13 923e 2fae 87bd ca74 76be d50c 4e3e
000000e0: f67e 11bd 952f 8fbe 09b1 adbc fe28 13be
000000f0: b104 f3bd 5ae8 96be e85e 3b3d 39cb 73bd
00000100: 0a36 ac3c 8471 b6bd 2c9a c7bd 17b0 543d
00000110: 9416 93bd 861e 6dbd 7dcd e5be 040c 383d
00000120: bed7 c03d db87 5e3e 40a0 803e db1a 3abf
00000130: 8981 ec3e 8f64 4b3e 4342 58be 0ea3 093d
00000140: 7e13 913e 4c1c 4c3e 1fdd e63e c472 83be
00000150: 4a6f d83c b05b b6be 0959 113e 8a00 b0bc
00000160: d0ac 0d3e dbef eabe b9c6 22be e672 1cbd
00000170: c998 62be ed30 1ebf 8bac 0b3e 1dbf 88bc
00000180: f7e6 47be 4a1a fbbd 1648 33bc 183b 36bd
00000190: 1653 c7be 01a6 383e 8974 733d ec5c 68bd
000001a0: 7609 df3e 4186 2d3e 6758 99bd 9d84 89bd
000001b0: ad17 663e 155f 81bd 0fb1 c4bd 9837 aabe
000001c0: 5cdf ea3d 19d4 16be 031f 3d3b 5b12 bcbe
000001d0: f595 473e 5498 9dbe 64b8 9fbe 3dec 8abe
000001e0: f1e8 7bbc b65d 60be 2696 803e 8722 ca3d
000001f0: eabc 4ebf 03b6 eabe aa51 b53b 2885 02be
00000200: 57ff b83c 12f1 26bf 961a a1be 6179 debd
00000210: 161d b53d 5645 8cbe 3456 9c3e 4188 8b3e
00000220: 0204 4ebe 8b6f 8fbe c2d2 c43d 832e 81bd
00000230: 27c0 b5be 2dd1 5e3e a451 79bd ac15 c83e
00000240: e298 adbe 4422 753e f0b0 80be a7e2 e83d
00000250: 3fe0 9b3d 4e8a 393e 44cc 46be 2e95 b8bd
00000260: b2a8 00bf 93d8 debe be91 bebd 8094 88be
00000270: de86 633e e4af b3bd 5ee6 373c 72cb 6e3e
00000280: c5de 95bd fb75 c7bd cdd7 093e 7d75 2bbe
00000290: dada a5be 6a73 51bd 6d9d 00be f358 c23d
000002a0: c1f7 bcbe 1dad f1be cfcc f43d 1106 01bf
000002b0: 99b8 d53d 1556 fe3d f0c3 b5be 7f31 d6be
000002c0: 2984 40be b968 28be f6de 70bd cbde 3c3e
000002d0: a97a db3d 09c2 513e 98d7 073e ff4c 8dbc
000002e0: c3a0 58bc c898 733d 7e60 0cbe e985 a13d
000002f0: e33d d8be 490c a13e 8a02 c03e a228 b9bd
00000300: 9a34 5abe 11d8 04bf b289 90be 2fe3 01bd
00000310: 73e3 bfb9 729d 51bf 2e3e 9e3d 1d90 b5be
00000320: 64cc acbe ceac 25be e783 1cbf 6895 f63a
00000330: 691a acbe b8fd a03e 93dc 583e 7fd2 e03d
00000340: eeaa 03bf d232 11bd 1f97 0ebe bc7b 063f
00000350: 1538 fbbd 68f8 73bd baac f4be 1ced 633e
00000360: d132 823e f999 37bd f835 67bf 9e0e 85be
00000370: 9d79 0d3f 9cd1 23bd f54a 903e 7437 523e
00000380: f60f 033e 771b 393f caee 13be 48a1 d0be
00000390: dd73 af3e c857 16be 81a4 b63e be92 953e
000003a0: 6bdd d5bd c83f 65bc e096 6d3e 01e9 97be
000003b0: 571a 14be 048e fdbe c7d2 823c 23ce 9cbd
000003c0: e3dd f6be ea58 a13e 10ce a0bd a0db 773e
000003d0: d2ce 8ebe 6eb2 3dbe 2243 e0be 476b ad3d
000003e0: 7768 17be c545 a2bc 76f0 b8bb 669b 973d
000003f0: b218 86bd 4155 2e3e 5b1c 0d3e ea7e 4d3e

layers.2.bias f4 [128]
-0.24415714 -0.33165383 -0.21798691 0.0465071 -0.31745133 0.0055714245 -0.04717644 -0.30703205
-0.079288915 -0.39789277 -0.22823565 -0.43402135 -0.22543952 -0.030320344 -0.07388565 -0.061949376
-0.33451977 -0.08848883 -0.017982177 -0.038298793 -0.07152208 -0.10459151 -0.38754237 -0.017683517
-0.2539776 -0.05528245 -0.06086776 0.011687834 -0.15011927 -0.27693295 0.0482415 -0.04790665
-0.4943385 -0.095181204 -0.19049542 -0.30730814 -0.37326494 -0.0046717543 -0.279788 0.11712399
-0.25057888 0.009132544 -0.2464902 -0.08977159 -0.04429625 -0.3224013 -0.04213596 -0.33802623
-0.034357324 0.19368833 -0.24503326 -0.29373616 -0.09924602 -0.2824405 -0.087344036 -0.13044636
-0.2577064 -0.06559731 0.011872055 -0.082139775 -0.14197983 -0.030596802 -0.23710844 -0.07977193
-0.31753775 -0.172353 -0.5585479 -0.35556254 -0.25401518 -0.006651445 0.023600033 -0.101026945
-0.23062514 -0.060004756 -0.1299606 -0.0819345 0.06282427 -0.12018266 0.11354601 0.13570894
0.011435955 -0.07624302 0.0053834436 -0.34256843 -0.25209585 -0.10386802 -0.07653843 -0.048082184
-0.32326263 -0.4668716 -0.22405939 0.17194821 -0.09651974 -0.08962573 -0.30543944 -0.40734866
0.0029474257 -0.051538046 -0.11247576 -0.23048334 0.00435221 -0.08512746 -0.12226354 -0.33447358
-0.00019002127 0.065463275 -0.1389115 0.20660247 -0.04895931 0.1600595 -0.29286215 -0.108613394
-0.042360835 -0.0220119 -0.34059557 0.036531817 0.01519252 -0.080572106 0.07310619 -0.15297845
0.035799287 -0.08796077 0.043948058 -0.041276716 -0.093412824 -0.06266512 -0.3616118 0.038744733
00000000: 5404 7abe 88ce a9be f637 5fbe 3b7e 3e3d
00000010: fb88 a2be 7f90 b63b 153c 41bd 4e33 9dbe
00000020: 3a62 a2bd 9ab8 cbbe 9bb6 69be 0c38 debe
00000030: 9ed9 66be 5f62 f8bc 5c51 97bd a1be 7dbd
00000040: 2d46 abbe a239 b5bd 5c4f 93bc 32df 1cbd
00000050: 2b7a 92bd 1334 d6bd f46b c6be 06dd 90bc
00000060: 5a09 82be da6f 62bd 7950 79bd 547e 3f3c
00000070: deb8 19be 28ca 8dbe e198 453d c339 44bd
00000080: f019 fdbe 5dee c2bd 3b11 43be 7e57 9dbe
00000090: 951c bfbe 8415 99bb 5f40 8fbe b4de ef3d
000000a0: e04b 80be aaa0 153c ed67 7cbe 2bda b7bd
000000b0: fc6f 35bd c811 a5be c296 2cbd c611 adbe
000000c0: 44ba 0cbd 3c56 463e 00ea 7abe 9664 96be
000000d0: 7f41 cbbd 0b9c 90be 6ee1 b2bd bb93 05be
000000e0: 18f2 83be e257 86bd 0283 423c e638 a8bd
000000f0: 2963 11be 25a6 fabc 8ecc 72be 775f a3bd
00000100: 4f94 a2be 4e7d 30be fffc 0ebf 4b0c b6be
00000110: 470e 82be 5df4 d9bb db54 c13c 37e7 cebd
00000120: ff28 6cbe 8cc7 75bd 6414 05be 46cd a7bd
00000130: 03aa 803d 5422 f6bd cf8a e83d 49f7 0a3e
00000140: df5d 3b3c 4d25 9cbd 9967 b03b 2165 afbe
00000150: b512 81be c2b8 d4bd 2ec0 9cbd d3f1 44bd
00000160: ae82 a5be cb09 efbe d36f 65be 3113 303e
00000170: 24ac c5bd b28d b7bd 8f62 9cbe 0190 d0be
00000180: 9929 413b 8f19 53bd b159 e6bd d303 6cbe
00000190: fc9c 8e3b 4e57 aebd 4f65 fabd 1f40 abbe
000001a0: 7240 47b9 9c11 863d d13e 0ebe 998f 533e
000001b0: 8f89 48bd a3e6 233e 07f2 95be b370 debd
000001c0: 8e82 2dbd 4d52 b4bc 8b62 aebe 63a2 153d
000001d0: 0cea 783c fd02 a5bd b3b8 953d 62a6 1cbe
000001e0: 46a2 123d c724 b4bd e102 343d c611 29bd
000001f0: 394f bfbd 9256 80bd 2f25 b9be ccb2 1e3d

layers.4.weight f4 [32, 128]
-0.22328375 -0.2660056 -0.045092277 0.10873215 0.27393314 -0.27294654 0.17435977 -0.4170058
0.27465412 0.2586584 -0.18429737 -0.41824138 -0.07456969 -0.12622823 -0.0014051961 0.07567144
-0.046656717 -0.24478886 -0.002127776 0.08217315 0.06419661 -0.05975086 0.3995403 -0.10132257
0.06841917 0.033688467 -0.015841518 0.06815511 0.21235172 -0.23130077 -0.21795917 -0.036109917
0.40536222 -0.20606136 -0.5772876 0.6398778 -0.083199784 0.019650042 -0.042450428 -0.0047238483
0.46485752 -0.4422944 0.12991042 -0.03475647 -0.3063402 -0.011052612 0.034754604 0.2727692
-0.05292605 -0.3574384 -0.30973604 0.29077637 0.044560708 0.13018571 0.15091401 0.25863472
0.19023627 0.114493325 -0.29481938 -0.12733488 0.23571938 -0.06681232 0.26411358 -0.021830695
0.14169693 -0.16186425 0.33082747 0.5602732 0.12905414 0.03300392 0.17465553 -0.011422771
-0.22115596 -0.06975191 0.10315908 -0.30493027 -0.33353034 0.28764126 -0.14556302 -0.15309916
-0.36468613 -0.06823491 0.10944887 -0.20170747 0.35703993 0.0054806317 -0.035040706 -0.07381771
0.24157953 0.427574 0.34059206 -0.19531111 0.0600174 0.054652978 0.2731623 0.12409068
-0.41639352 -0.22403304 0.2499128 -0.56710076 -0.079713956 -0.07229456 -0.30990854 0.28122473
-0.20033394 -0.3942418 0.048936743 0.115620464 -0.33098266 -0.13242136 0.23087887 -0.04010437
0.043465957 -0.38036087 0.19158569 -0.09693099 -0.035637073 -0.50479764 0.108279936 0.24557173
0.07733634 -0.2096545 0.041083608 0.06345999 -0.046719186 -0.17098501 0.28028706 -0.012512805
0.07131426 0.2221548 -0.3004901 -0.012466105 0.27493104 0.09545522 0.3207704 -0.7964278
-0.5263175 0.059965592 0.16397168 0.15632306 -0.49262783 -0.34189445 -0.0028292465 -0.19494489
-0.2522834 0.050607767 -0.17809258 0.057262283 0.0671711 0.076313704 -0.56734353 -0.56099546
-0.21270525 -0.013974935 -0.06258936 -0.27629706 0.05417285 -0.2790971 0.13801654 -0.042417996
0.014366538 -0.17964841 0.06274484 -0.12609959 -0.067458965 0.0071115973 -0.08834707 0.018752724
-0.17781055 0.059621282 0.11314523 0.006968766 0.20420526 -0.14609689 -0.3676946 -0.2586698
-0.028405653 -0.23059225 0.0640878 -0.12493465 -0.16840847 -0.11705509 0.20596257 -0.1958371
-0.1412309 -0.024523204 -0.58796245 0.15844853 0.03500316 0.030122839 -0.20789288 0.027614553
-0.24524912 0.17726678 0.1743647 -0.05265647 -0.061121576 0.08006205 -0.05624104 0.03834716
-0.09843571 0.056332354 -0.13379252 0.019585805 0.22426908 0.0757242 0.06759958 -0.19332673
-0.09529943 0.032895435 -0.4345526 0.10384362 -0.01129127 0.043393355 -0.034479123 -0.39726394
0.15618125 -0.13063289 -0.29362366 0.021074457 -0.037234455 0.046013128 0.029532162 0.052107304
-0.4527525 -0.16321144 -0.14517693 0.07213914 -0.007303212 0.05014021 -0.22077374 -0.48483786
0.16772674 0.031257704 0.2092278 0.1141713 -0.063668884 0.16520625 0.09413719 -0.07478081
0.01625957 0.26786435 0.014308654 -0.069411635 0.03415951 0.09002069 0.012246178 0.13074744
0.08938833 0.08337533 -0.2236831 0.03149644 0.056169566 -0.021782823 -0.143004 -0.102994114
00000000: 7fa4 64be e331 88be aeb2 38bd f6ae de3d
00000010: f740 8c3e a6bf 8bbe 5e8b 323e c981 d5be
00000020: 779f 8c3e e06e 843e 73b8 3cbe bc23 d6be
00000030: feb7 98bd f941 01be 8f2e b8ba a1f9 9a3d
00000040: 1d1b 3fbd eea9 7abe 2872 0bbb 654a a83d
00000050: 8379 833d 51bd 74bd 8c90 cc3e 3582 cfbd
00000060: 5a1f 8c3d ebfc 093d 12c6 81bc e894 8b3d
00000070: bb72 593e 1cda 6cbe b030 5fbe fee7 13bd
00000080: a38b cf3e c001 53be 1fc9 13bf 08cf 233f
00000090: a664 aabd 20f9 a03c 80e0 2dbd 83ca 9abb
000000a0: ce01 ee3e 6974 e2be 3d07 053e cd5c 0ebd
000000b0: 9fd8 9cbe 0416 35bc d85a 0e3d 68a8 8b3e
000000c0: fcc8 58bd 2a02 b7be b995 9ebe a4e0 943e
000000d0: 4a85 363d 674f 053e 3489 1a3e c56b 843e
000000e0: 4ccd 423e 7a7b ea3d 91f2 96be 1364 02be
000000f0: 6c60 713e e6d4 88bd e539 873e 49d6 b2bc
00000100: 0019 113e bebf 25be 3862 a93e 106e 0f3f
00000110: c526 043e 1e2f 073d e6d8 323e 9326 3bbc
00000120: b576 62be 17da 8ebd 1145 d33d d21f 9cbe
00000130: 7dc4 aabe b745 933e 790e 15be 07c6 1cbe
00000140: 24b8 babe bfbe 8bbd bb26 e03d 678c 4ebe
00000150: f0cd b63e df96 b33b d886 0fbd bd2d 97bd
00000160: a060 773e fbea da3e 1562 ae3e a3ff 47be
00000170: ced4 753d cddb 5f3d eedb 8b3e 4123 fe3d
00000180: 8831 d5be eb68 65be 24e9 7f3e 842d 11bf
00000190: 1241 a3bd 2c0f 94bd 55ac 9ebe b0fc 8f3e
000001a0: 5724 4dbe 10da c9be e571 483d 6cca ec3d
000001b0: 8f76 a9be 7799 07be 836b 6c3e 7b44 24bd
000001c0: 5c09 323d a9be c2be 0a2f 443e c183 c6bd
000001d0: 2ef8 11bd 6b3a 01bf dfc1 dd3d 2877 7b3e
000001e0: 8462 9e3d abaf 56be 4947 283d 50f7 813d
000001f0: 9e5c 3fbd b216 2fbe c981 8f3e 8202 4dbc
00000200: 360d 923d 8c7c 633e d7d9 99be a23e 4cbc
00000210: c3c3 8c3e 077e c33d 053c a43e b1e2 4bbf
00000220: bebc 06bf 7b9e 753d 31e8 273e 2713 203e
00000230: b739 fcbe ca0c afbe e16a 39bb a29f 47be
00000240: 4a2b 81be 174a 4f3d e75d 36be db8b 6a3d
00000250: 0091 893d 5c4a 9c3d 6d3d 11bf 669d 0fbf
00000260: 68cf 59be 20f7 64bc da2e 80bd cf76 8dbe
00000270: 5ae4 5d3d d1e5 8ebe 3554 0d3e 7ebe 2dbd
00000280: a161 6b3c c1f5 37be 5e80 803d 4020 01be
00000290: ed27 8abd 6708 e93b 4fef b4bd 509f 993c
000002a0: f813 36be 7235 743d b0b8 e73d 3f5a e43b
000002b0: 2f1b 513e 6c9a 15be 7742 bcbe 5e70 84be
000002c0: f9b2 e8bc 6020 6cbe 7740 833d bddd ffbd
000002d0: 4573 2cbe 94ba efbd dae7 523e 8589 48be
000002e0: d59e 10be e3e4 c8bc b584 16bf 5540 223e
000002f0: 795f 0f3d 2cc4 f63c dfe1 54be ea37 e23c
00000300: 9622 7bbe 6c85 353e a98c 323e 50ae 57bd
00000310: 9e5a 7abd 92f7 a33d 015d 66bd e911 1d3d
00000320: a998 c9bd c1bc 663d e800 09be 6972 a03c
00000330: cba6 653e 4a15 9b3d a671 8a3d 71f7 45be
00000340: 592c c3bd 5dbd 063d ae7d debe f7ab d43d
00000350: 05ff 38bc 3bbd 313d fb39 0dbd 2e66 cbbe
00000360: faed 1f3e a1c4 05be d755 96be 57a4 ac3c
00000370: 2883 18bd 4378 3c3d 6fed f13c 786e 553d
00000380: 2dcf e7be e620 27be 43a9 14be afbd 933d
00000390: c84f efbb d25f 4d3d 8312 62be ab3c f8be
000003a0: 8fc0 2b3e 1408 003d d03f 563e a4d2 e93d
000003b0: d564 82bd d42b 293e 00cb c03d ae26 99bd
000003c0: ca32 853c 8425 893e d86e 6a3c b027 8ebd
000003d0: d8ea 0b3d c45c b83d 32a4 483c a8e2 053e
000003e0: 3b11 b73d afc0 aa3d 2f0d 65be 6902 013d
000003f0: 0f12 663d e471 b2bc a46f 12be 94ee d2bd

layers.4.bias f4 [32]
0.07295443 -0.103688374 0.047867674 0.007419888 0.013422508 0.0019397466 0.009678017 0.008581912
-0.17490679 0.018336337 0.0043939254 0.075435564 -0.21189788 0.023082336 0.030171942 -0.104417935
0.0062944125 0.05177379 -0.3287061 -0.20149824 -0.25371093 -0.22645423 0.06443224 0.029091503
0.054981776 -0.08766576 0.0535218 -0.2606441 -0.35197097 -0.113260016 -0.3429157 0.0034554994
00000000: 2269 953d 925a d4bd e510 443d 8822 f33b
00000010: 14ea 5b3c 183f fe3a 8c90 1e3c 269b 0c3c
00000020: c41a 33be 1636 963c ebfa 8f3b f67d 9a3d
00000030: c2fb 58be 2b17 bd3c 262b f73c 12d9 d5bd
00000040: 5c41 ce3b c110 543d 2a4c a8be 8e55 4ebe
00000050: 66e6 81be 9ee3 67be 0df5 833d 4e51 ee3c
00000060: 9234 613d 1b8a b3bd ad39 5b3d 2573 85be
00000070: 8a35 b4be def4 e7bd a692 afbe a975 623b

layers.7.weight f4 [1, 32]
0.010129008 -0.0075439233 0.0095507 -0.003361052 -0.005239525 -0.0039534974 -0.006775008 -0.0051813433
-0.021356745 0.017819127 -0.0055184057 0.010161792 0.083602555 0.017575162 0.013011739 0.03227242
-0.005745414 0.009062239 0.09215043 -0.057155244 -0.021394016 0.0577937 0.007858976 0.014596456
0.009166234 -0.039909188 0.011748356 0.08265602 -0.014934257 0.052209463 0.063089766 -0.0038048502
00000000: 24f4 253c 0433 f7bb 8a7a 1c3c 1845 5cbb
00000010: 52b0 abbb 578c 81bb e300 debb 42c8 a9bb
00000020: 57f4 aebc 6bf9 913c bed3 b4bb a57d 263c
00000030: d137 ab3d c9f9 8f3c 302f 553c 1630 043d
00000040: 0744 bcbb c979 143c 5db9 bc3d 9e1b 6abd
00000050: 8142 afbc 16b9 6c3d efc2 003c f925 6f3c
00000060: f92d 163c d177 23bd 2d7c 403c 8f47 a93d
00000070: d0ae 74bc 97d9 553d 3535 813d cb5a 79bb
