Theises/InstagramAnalytics-Python/prediction/models/best_model_5.pt (torch, 370767 bytes, 7 tensors)

layers.0.weight f4 [256, 214]
000000 82 b4 cf 3d ec 1a 5c 3d bc f2 6c 3f e5 27 22 3f
       0.10141851 0.053736612 0.92557883 0.63342124
000010 96 e3 6e bf 4b 2d d2 bd 88 e2 60 3f 94 7e 1a 3f
       -0.9331602 -0.10262545 0.8784566 0.6034939
000020 44 8d 81 3f f6 7b a0 3e e4 a4 55 3d e2 49 36 3e
       1.0121236 0.31344575 0.052159205 0.17801622
000030 55 5d 3c 3d fb 0b 1f 3f 66 03 40 bd 55 89 61 3d
       0.045987446 0.62127656 -0.04687824 0.05506261
000040 41 2f 87 3c 3c 26 eb 3c 16 e8 1a 3d 3c 65 8b bc
       0.016502025 0.028704755 0.03781899 -0.017016046
000050 a5 77 1a bd 1a a4 4f bd d0 1e 6c 3d 3b e5 4c bd
       -0.03771176 -0.05069361 0.057646573 -0.0500233
000060 c2 1a 76 3d 5b fe 01 bd 5b d5 46 bd 75 b2 89 3d
       0.060084112 -0.031736713 -0.048543315 0.06723491
000070 03 71 60 3d ed 62 e1 3c 74 3c da bb 59 fd 1b bd
       0.054795276 0.027512992 -0.0066600386 -0.038083408
000080 e5 8c 30 bd 9c 8b e9 bc c6 9a 68 bc e8 3c 8b bd
       -0.043103117 -0.028508954 -0.014197057 -0.06798726
000090 db 17 39 3d 83 97 3a bd ba b7 80 bd d9 2d 81 bd
       0.045188766 -0.04555465 -0.06285043 -0.06307573
0000a0 0a b2 0f 3c a6 ce 2d bc 80 a7 43 3d 38 ee e2 bb
       0.008770475 -0.010608351 0.047767162 -0.0069253705
0000b0 9a 3a 03 3d 6c 3d 39 bc 5f 64 49 bd f8 eb f8 3c
       0.03203831 -0.011306148 -0.049167987 0.030385956
0000c0 76 02 71 bc cb 8f 34 bd aa 8a 7d bc 1f 9a 73 bd
       -0.014710059 -0.044082444 -0.015474955 -0.059473153
0000d0 11 f9 05 3d a8 c9 0e 3c 72 85 e9 bb ed d1 78 bd
       0.03270823 0.008715071 -0.0071265036 -0.060747076
0000e0 70 58 1f bd 7d ae 24 bc 41 bf 1d bd 04 14 85 3d
       -0.0389027 -0.010051367 -0.038512472 0.06497958
0000f0 9a d7 e1 3c 6a 5d 62 bd b0 4b 64 3c ef 9b 9d bc
       0.027568627 -0.055264868 0.013934061 -0.019239394
000100 dc 5a 87 bd 34 f2 80 3c 2f 1d 82 3d 29 9e 19 bc
       -0.06609127 0.015740491 0.063532226 -0.009376087
000110 ee e0 86 3d f6 5a b4 bb ec b7 29 3d e7 7c f3 bb
       0.06585871 -0.0055040075 0.041435167 -0.007430661
000120 f6 0b 62 bd 7a 1f e8 bc 9f e8 ff 3a b2 3f 29 bd
       -0.055187188 -0.028335322 0.0019524283 -0.04132051
000130 62 60 d7 bc e2 de af 3c 38 fc 13 bd 18 a4 12 bd
       -0.026291076 0.021468583 -0.036129206 -0.035801023
000140 70 82 05 3d 69 e3 34 bd 12 3b 8d 3c ea cf 2d bd
       0.032595098 -0.044162188 0.017240081 -0.04243461
000150 4a 83 6a bd 58 63 60 bd d2 08 2d bd d3 f8 9e bd
       -0.057254113 -0.05478224 -0.04224474 -0.07762303
000160 30 34 a0 bc fe 83 38 3c d7 6c 25 3d 4a db 2f 3c
       -0.019556135 0.011261938 0.040387 0.010733435
000170 e6 7b 29 3c a9 58 4c 3d fd 4e 0f bd 65 9d 95 bc
       0.010344481 0.04988924 -0.03498744 -0.018263528
000180 a1 1c 99 bd fd c9 28 bd c2 ff 38 3d b9 49 42 bb
       -0.07476164 -0.041208256 0.045165785 -0.0029645993
000190 52 e4 95 bd 2b 0c 49 3d b5 25 43 bd 1c 42 a5 bd
       -0.07318939 0.04908387 -0.047643382 -0.0806925
0001a0 31 33 a6 bb 06 35 1a 3d ab 0b f2 bb 41 71 a6 bc
       -0.0050720205 0.037648223 -0.007386645 -0.020317676
0001b0 86 05 e3 bc 9e 73 8a bd 86 cc b2 3c 7d 1c 85 bd
       -0.027712595 -0.067603335 0.02182604 -0.06499574
0001c0 09 81 f5 bb e6 2d 9b bd 52 e7 71 bd a0 8d ef 3b
       -0.007492189 -0.07577114 -0.059058495 0.007310584
0001d0 e6 02 af 3c bc 58 4b bd 3a d5 15 3c dc 74 a4 bc
       0.021363687 -0.04964517 0.009145075 -0.020075254
0001e0 78 4c 59 bd 99 5e 1a 3d 34 dc 87 3b 9b 4c 64 3c
       -0.053051442 0.03768787 0.0041461233 0.01393428
0001f0 82 82 ff bc 46 19 cc bc ed 11 58 3d 7e 16 a5 bc
       -0.03119016 -0.024914395 0.05275147 -0.020152327
000200 cb 75 80 bd ab b5 92 bd 35 c4 50 bc d9 c7 2a bd
       -0.06272467 -0.07163557 -0.012742092 -0.041694496
000210 37 00 97 bb 03 7a a4 bc 49 61 2a bd 3d 7d 71 bd
       -0.00460818 -0.020077711 -0.041596685 -0.058957327
000220 ab 5f 69 3b 8a c3 66 bd c8 e5 dc 3b 4a d9 3b 3c
       0.003561 -0.056338824 0.0067412592 0.01146538
000230 84 2b 82 3b bb 37 1f 3d 3f ec 4f bc 11 f2 a3 ba
       0.0039724726 0.038871508 -0.012690603 -0.0012508054
000240 89 8c b0 bd a2 52 2d 39 1f ae 7c bd ee 2a de bc
       -0.08620555 0.00016529349 -0.061689492 -0.02712008
000250 c9 86 a0 ba 2d 7d 7e bb 61 6a 58 bc a4 df 9b bd
       -0.00122472 -0.0038831935 -0.013208956 -0.076110154
000260 92 87 8f bd ef 94 61 3c c8 9e b8 bc 24 b0 4c bd
       -0.0700828 0.013768419 -0.02253665 -0.04997267
000270 40 bf dc 3b bc fe d4 bc a0 5d 6a bc 40 10 41 bc
       0.006736666 -0.026000373 -0.0143045485 -0.011783659
000280 50 99 eb bc b0 dd cd bb 00 b2 8d bd fe 6b ca bc
       -0.028759629 -0.0062825307 -0.069187164 -0.024709698
000290 24 18 8e bc e7 4d 3f 3c a4 6c 89 bd 1c 57 ce bc
       -0.017345496 0.011676288 -0.06710175 -0.025188021
0002a0 1a 6e 6c 3c c6 e0 4f bd 9b 44 e8 bb cc f5 82 3c
       0.014430547 -0.05075147 -0.0070882565 0.015986346
0002b0 f6 53 c6 bd 9a 6f 9f bd 85 5e e0 3c d6 80 49 bc
       -0.09683983 -0.07784958 0.02738882 -0.012298783
0002c0 b3 26 86 bd 27 ae 0d bd e6 24 06 bd 1b 4c 1c bc
       -0.0655035 -0.034589913 -0.032750033 -0.009539629
0002d0 78 39 aa bd 87 89 49 3c 08 b6 0b bd 6d a8 a3 bd
       -0.083117425 0.0123008555 -0.034109145 -0.07991109
0002e0 b0 07 57 bd f0 14 89 3a 23 ab 0a bc 53 a1 80 bd
       -0.052497566 0.001045851 -0.008463654 -0.0628077
0002f0 14 51 b2 bc fc 93 ac 3b 74 a4 b7 bd d6 f4 e3 bd
       -0.021767177 0.0052666645 -0.08966914 -0.11130683
000300 75 94 39 bc 9f 77 1a bd 35 2f 44 bd f4 25 c3 3b
       -0.011326899 -0.037711736 -0.047896583 0.005955452
000310 e0 56 30 bc db c3 a1 bd 92 da 21 bd 86 01 c3 bc
       -0.0107629 -0.078986846 -0.039515086 -0.023804437
000320 58 d1 a5 bd 63 42 11 bd d9 14 fd bd b3 5f 42 be
       -0.0809657 -0.035463702 -0.12357492 -0.18981819
000330 4c e3 00 be d7 fb d7 be 26 c5 09 3e 91 fc b6 3d
       -0.12586707 -0.42184326 0.13454112 0.08934892
000340 60 d5 61 3d 15 13 d6 be 17 4c 1c 3e 57 41 b7 3c
       0.05513513 -0.41811433 0.15263401 0.022370024
000350 3e bb 1e bf 14 54 e1 3e f6 73 ae 3e c2 80 9d be
       -0.6200446 0.4400946 0.34072846 -0.30762297
000360 4c d8 3a 3f 55 68 8c bd ef 88 41 3f b4 20 88 bd
       0.7298629 -0.06855837 0.7559957 -0.066468626
000370 3e 1d 5c bd db 20 5f 3e 7b e5 8a bf a3 6f 5d 3e
       -0.053738825 0.21789877 -1.0851282 0.21624617
000380 33 9c 69 3e e1 22 10 bf ef 53 1f 3c b9 85 17 3f
       0.22813492 -0.5630322 0.009724601 0.5918842
000390 18 9e 43 3d 20 0a 6e 3d 46 61 90 3d 3c ed 1d 3d
       0.04775819 0.058115125 0.070498034 0.038556322
0003a0 81 16 36 3d c3 4e 45 3d bd 05 6d 3d 4b 7a 12 bc
       0.044455055 0.048170816 0.0578668 -0.00894029
0003b0 9a 3a b7 3c e6 54 44 3c f5 d7 43 3d c8 cc d9 3c
       0.02236681 0.011983132 0.047813375 0.026586905
0003c0 49 b3 8d bd 58 86 ce 3c 7e 69 e2 bc d3 ea 6a 3b
       -0.069189616 0.025210544 -0.027638193 0.0035845533
0003d0 84 51 ba bb e5 55 61 3d 53 85 9a 3c 8d c2 b7 3c
       -0.005685987 0.055013556 0.018862402 0.022431636
0003e0 37 a8 9c 3c a4 2c 97 3b b8 fa df bb 2c c0 81 bd
       0.01912318 0.004613476 -0.006835308 -0.06335482
0003f0 34 2e 3a 3d de f6 a5 3b cb d8 9a bd cb 28 84 bd
       0.04545422 0.0050648293 -0.07560881 -0.06453093

layers.0.bias f4 [256]
000000 05 02 9a bf 93 76 b8 bd d8 95 6d 3e 9b 58 e2 be
       -1.2031866 -0.09006991 0.23201692 -0.44208226
000010 05 23 35 bf be aa 2f bf bb 62 09 be 75 4c b4 bf
       -0.7075656 -0.68619907 -0.13416569 -1.4085833
000020 d7 c0 a7 be 82 a6 58 bf e0 46 90 bf 55 ff b4 bf
       -0.32764313 -0.8462907 -1.1271629 -1.4140421
000030 4e c9 90 be d6 40 a6 3e f8 b2 1d bf b4 84 15 be
       -0.28278583 0.3247134 -0.6160121 -0.14601403
000040 26 7d b0 bf 73 02 0c bf 75 f6 bf bf 52 95 75 be
       -1.3788192 -0.5469124 -1.4997088 -0.23982742
000050 da 76 a4 be 5d 17 f9 be 92 ae 72 bf 43 d8 91 bf
       -0.32121927 -0.48650637 -0.94797623 -1.1394123
000060 4d 94 21 bf 66 d3 22 bf 3a 51 60 be ea 5e 3e bf
       -0.63116914 -0.6360382 -0.21905985 -0.7436358
000070 94 f1 aa bf 5a bf a6 be 98 b9 3a bf a5 be 6e bf
       -1.3354974 -0.32567865 -0.72939444 -0.9325965
000080 2b 51 6b be 0c bc d2 be a4 40 97 bc cf 20 c2 be
       -0.22980182 -0.41159093 -0.01846344 -0.37915656
000090 8e a2 92 bf 6a 11 e2 3e b4 33 9a be 46 0a af be
       -1.1455858 0.4415391 -0.3011757 -0.34187526
0000a0 78 06 2b bf ca 8b a9 3e 8c a1 25 be 09 ab ab bf
       -0.66806746 0.33114463 -0.16174906 -1.3411571
0000b0 3f 4c ac be 48 21 03 bf f0 0b 94 be b0 ce 7e be
       -0.3365192 -0.5122266 -0.28915358 -0.24883533
0000c0 3b fc 43 be b4 95 02 bf 07 d7 97 3f bf f1 e7 bc
       -0.19139187 -0.5100968 1.1862496 -0.028313516
0000d0 0b a0 03 bf de 47 60 bc c7 11 8c bf f5 c0 a3 bf
       -0.5141608 -0.0136890095 -1.0942925 -1.2793261
0000e0 e1 61 8f bf aa 3d b8 be f7 a2 87 bf 74 95 aa 3e
       -1.1201745 -0.35984546 -1.0596608 0.3331715
0000f0 5c 9b d1 3e 06 6e d3 bd 78 d5 7b bd ff c3 fc 3e
       0.40938842 -0.1032372 -0.061482877 0.49368283
000100 be 9b 96 bd 46 76 da be a5 28 80 bf f7 6d 83 bf
       -0.07353924 -0.4266836 -1.0012404 -1.0267934
000110 20 e0 17 bf 86 ea 12 be 10 d0 0d bf f9 3d 8b bf
       -0.5932636 -0.14347276 -0.55395603 -1.0878288
000120 70 77 8c bf d2 8b 88 3e 56 b6 b2 3c f7 7e f1 be
       -1.097395 0.26669174 0.02181546 -0.4716718
000130 80 29 d0 be e6 11 1e be 4a 90 ec be 6d 5e e6 bd
       -0.40656662 -0.15436515 -0.46203834 -0.11248479
000140 d3 56 04 bf e9 ed 5e bf d6 bd 4e bd f6 f9 8c be
       -0.51694983 -0.8708177 -0.05047401 -0.27534455
000150 6c b3 2e bf 80 ef 4e bf 73 96 9e be ca ff ed 3c
       -0.68242526 -0.808342 -0.3097416 0.029052634
000160 3f d1 ba be 67 3c 73 bf 0c c7 ac bf 7e 3a f2 be
       -0.36487767 -0.9501404 -1.3498244 -0.4731025
000170 e2 4f 85 3d 11 da 50 bf 3e a6 81 3e 33 27 61 bf
       0.06509377 -0.8158274 0.25322145 -0.8795044
000180 4e 78 76 be 7a f3 e4 be cb 38 e1 3e cc 3a 86 bf
       -0.2406933 -0.44717008 0.43988642 -1.0486693
000190 18 62 4a 3e ba e0 86 be 08 f6 85 3e 0f ea 95 be
       0.19763982 -0.26343328 0.2616427 -0.29280135
0001a0 ed b4 05 bf c7 05 09 bf 53 14 b3 bf d6 7b 79 be
       -0.52229196 -0.5352444 -1.3990577 -0.24363646
0001b0 e5 7c 91 bf 27 60 38 be 9f a2 eb bd db 71 3c bf
       -1.136624 -0.18005429 -0.11505627 -0.7361123
0001c0 01 1f 3d be 4f 72 79 be 16 84 b5 bd c6 b6 49 3e
       -0.18468858 -0.24360012 -0.08863084 0.19698629
0001d0 d7 9b c7 be 66 37 af bf 25 ee 71 be d0 66 12 bf
       -0.38986084 -1.3688781 -0.23626001 -0.5718813
0001e0 43 66 d1 bf f9 67 b5 be 67 24 42 bf 89 8c 40 bf
       -1.6359333 -0.35430887 -0.75836796 -0.7521444
0001f0 df 84 4c 3d 95 36 1f bf 35 39 44 3d 33 60 c6 3e
       0.049931403 -0.6219266 0.04790612 0.3874527
000200 5d 25 2b bf 41 af f9 3c f2 39 45 bf 93 18 c9 3c
       -0.66853887 0.030479075 -0.7704154 0.02454785
000210 6a 27 8d bf 04 88 a7 bf f6 4a 06 bf 7c 54 99 bf
       -1.1027653 -1.3088384 -0.5245813 -1.1978908
000220 62 b0 08 bf 04 63 2c bf 63 92 60 bf f0 c1 01 bf
       -0.5339414 -0.67338586 -0.8772337 -0.5068655
000230 68 f0 2b bf 50 63 da be 8b 66 7a bf c7 a3 66 bf
       -0.67163706 -0.42653894 -0.9781272 -0.90093654
000240 55 cd 5f 3d 01 8a 35 be 8e 1d fd bd 64 25 6f be
       0.05463918 -0.17728426 -0.12359153 -0.23354107
000250 de 28 d2 be df 05 ca be 43 9e 05 bf db 03 82 bf
       -0.41046804 -0.39457604 -0.52194613 -1.0157427
000260 40 46 99 bf 62 35 be be 8b d7 97 bf dd 04 a1 be
       -1.1974564 -0.37150103 -1.1862653 -0.31449023
000270 88 12 a3 be b5 d0 98 be 02 68 34 bf 62 16 14 bf
       -0.31850076 -0.2984673 -0.70471203 -0.57846653
000280 85 34 3a be c9 73 1c bf 7e b2 60 bd 21 ac 55 bf
       -0.18184097 -0.61114174 -0.054857723 -0.8346577
000290 d9 6d 5e bf 18 d6 2e 3e 68 48 56 bf 5e af c5 3e
       -0.86886364 0.17073858 -0.83704233 0.38610357
0002a0 89 ed af bf 25 32 ac bf 06 d7 47 bf d7 7b 7c bc
       -1.3744365 -1.3452803 -0.78062475 -0.015410385
0002b0 5e 22 e7 be d4 39 10 be dc b8 1c bf 06 7e fc be
       -0.45143408 -0.1408456 -0.61219573 -0.49314898
0002c0 38 9b b2 be cd 06 6c be 77 86 8d 3f 79 bb 88 bf
       -0.34884048 -0.2304947 1.105666 -1.0682212
0002d0 11 a8 8a be b5 35 f3 3c e0 a9 d1 be 3e d1 23 bf
       -0.2708135 0.029688695 -0.40949917 -0.63991153
0002e0 82 36 40 bf 11 70 75 bf d7 98 12 bf f0 47 9b be
       -0.7508317 -0.95874125 -0.57264465 -0.3032832
0002f0 ec 6c ce be 06 8b 73 bf 53 4e 04 bf ad ab 8b 3f
       -0.40317476 -0.9513401 -0.51682013 1.0911766
000300 db b1 bd be 42 75 af bf ae dd 8e be 69 f4 e6 be
       -0.37049755 -1.3707659 -0.27903503 -0.45108345
000310 49 3d ce bd 79 29 62 bf 18 e9 51 be e3 b1 40 bc
       -0.10070283 -0.8834453 -0.20499074 -0.0117611615
000320 5b be d2 3f 8d 1e ad be 67 d4 e0 bc 8f 70 6b be
       1.6464342 -0.3381237 -0.027445031 -0.22992156
000330 3e 48 73 be 5f 75 62 bf 15 be 8c 3e 9e 30 c1 bf
       -0.23758027 -0.88460344 0.2748877 -1.5092962
000340 ab d9 3e bf be 5a 0f bd af f9 79 be 70 a8 08 bf
       -0.74550885 -0.034998648 -0.24411653 -0.53382015
000350 58 01 3b be 34 b6 f9 be ed 0e 92 bf 01 76 ac be
       -0.18262231 -0.48771822 -1.1410805 -0.3368378
000360 a7 b4 9b 3b 60 aa 6f be 6d 9f 2c bf bc aa 5d be
       0.00475176 -0.23404837 -0.67430764 -0.21647161
000370 1d 7a ca bf 02 30 b6 3d e9 4e e4 be 22 00 df be
       -1.5818516 0.088958755 -0.44591454 -0.4355479
000380 84 cc f8 be ad 38 59 be 56 3c 09 3e 18 ca 83 bf
       -0.48593533 -0.21213026 0.13401923 -1.0296049
000390 e9 0a 26 be 04 21 34 bf 92 b9 06 bf 2e 39 27 bf
       -0.162151 -0.7036288 -0.5262691 -0.65321624
0003a0 de 60 eb be 63 36 b8 be 79 d7 b7 bf 7b 17 b2 bf
       -0.4597234 -0.35978994 -1.4362632 -1.3913416
0003b0 d2 12 3a bf cb b1 21 3e 33 b2 67 be 33 c5 9c bf
       -0.7268497 0.15790479 -0.22626571 -1.224768
0003c0 59 1a 80 bf 33 5c ef be bd a1 9a 3e db 93 19 bd
       -1.0008041 -0.4675003 0.30201522 -0.03749452
0003d0 82 f5 41 bd 85 85 36 bf 77 cc 05 bf be 3e 96 bf
       -0.047353275 -0.71297485 -0.52265114 -1.1737897
0003e0 91 f1 0d 3f 44 ec 23 bf e4 32 b5 be 60 93 f9 be
       0.55446726 -0.6403239 -0.3539039 -0.4874525
0003f0 26 99 67 bf 4c b9 28 bf d3 c6 df be 2d fc 20 be
       -0.9046806 -0.6590774 -0.43706378 -0.15721197

layers.2.weight f4 [128, 256]
000000 8a 7b 0a 3f 82 97 dc bd 7e be 5a be 1d f3 fe be
       0.54094756 -0.10771085 -0.2136173 -0.49794856
000010 3f 40 42 bf 16 65 2a 3f ba ac c1 3c 51 c3 81 3f
       -0.7587928 0.66560495 0.023641933 1.0137731
000020 d2 fb 85 3e c9 0c 9e be 0e 12 95 3d 8d 4d b1 3e
       0.26168686 -0.3086913 0.07278834 0.3462948
000030 e8 89 5b be 65 83 94 bd d0 e5 5f bf b1 41 5a bf
       -0.21439326 -0.07251624 -0.8746004 -0.8525649
000040 15 52 7d bf 25 9a ee 3e cc 59 da 3e 53 3f dd 3e
       -0.9895337 0.46601978 0.42646635 0.43212375
000050 5d 51 4c 3f e8 30 80 3f 1c 10 c4 be 11 1d 50 3d
       0.7981165 1.0014925 -0.3829354 0.05080897
000060 b0 c4 d0 be 38 d7 41 3f 7f 4d ec 3e d5 74 76 bf
       -0.4077506 0.7571902 0.46152875 -0.9627202
000070 3f a3 68 3f fa e9 84 be d0 71 bf be 7c e9 11 3e
       0.90874094 -0.2595976 -0.3739152 0.14249223
000080 2d 63 0c 3f cc 60 f4 3d 84 2d 92 3e 0b 42 11 3f
       0.5483883 0.11932525 0.2855035 0.567414
000090 aa 99 19 bf 89 2b 1a be ac 2e 1d bf f3 d8 39 bb
       -0.600001 -0.1505567 -0.6139934 -0.0028358072
0000a0 c6 80 aa bf e6 5c a7 3e e9 0e 34 be bf 35 c7 3f
       -1.3320549 0.32688063 -0.17583813 1.5563277
0000b0 c0 34 43 bf fa e0 17 3f 36 04 ce 3d bb 9a 2f bf
       -0.76252365 0.5932766 0.10059397 -0.68595475
0000c0 58 20 24 be 2f 6b f4 bf db 42 de bd 4e 55 6d bf
       -0.16027963 -1.909521 -0.108525954 -0.9270829
0000d0 a1 4c 4a bd ec b3 4b 3e 55 ae 1b 3d 96 c6 66 bf
       -0.049389485 0.19892853 0.038008053 -0.9014677
0000e0 16 62 d6 3f 97 fa b6 be 54 a6 db be df 4e 15 bf
       1.6748683 -0.3573806 -0.42900336 -0.5832347
0000f0 34 65 3f 3f 4a 5d dc bf e8 5e 3b 3d 68 80 54 be
       0.747638 -1.721597 0.045744807 -0.20752108
000100 0a 36 ac 3c e0 f7 b9 be f5 c5 8f bf df 4b 73 bd
       0.021021862 -0.36321926 -1.1232287 -0.05939853
000110 77 65 c8 bf c5 d1 b3 be 71 96 d4 bf 4d 25 45 be
       -1.5655965 -0.3512098 -1.6608411 -0.1925251
000120 b6 34 0d be 44 04 e9 3c 40 f8 63 3e 7a 15 cc bf
       -0.13789639 0.028444417 0.22262669 -1.5944054
000130 a3 4a 81 bf a4 d8 c8 3d 85 74 5f be b8 17 0e 3e
       -1.0100902 0.09806946 -0.21821792 0.13876235
000140 92 17 15 bf ee 8f f8 3e ae 37 45 3f 93 c9 09 3e
       -0.5823909 0.4854731 0.77038085 0.134558
000150 be 50 97 3e 8f d0 ab be 7e d1 43 3e 0b 1d e9 bd
       0.2955379 -0.33557555 0.19122884 -0.11382493
000160 de c0 53 3c bc fd 5b bf f8 4b 34 3f a7 cc 74 be
       0.012924401 -0.8593404 0.7042842 -0.23906194
000170 3e bd 8e bf e3 0c 91 bf 3c 95 f5 3e 18 29 dd be
       -1.1151502 -1.1332058 0.4796542 -0.43195415
000180 22 71 3a be b3 25 8b bd ec f7 31 3c 0b a6 91 be
       -0.18207219 -0.067943 0.010862332 -0.28446993
000190 cc 2e 6e bf 09 77 02 3e c8 05 8d 3e 7f 7e f9 3c
       -0.93040156 0.12740721 0.27543473 0.030455826
0001a0 56 f3 e6 be 92 1d 9c 3f 34 e1 2f bf b7 7e 99 3d
       -0.45107526 1.2196524 -0.6870301 0.07494872
0001b0 01 81 62 3f 76 d8 43 be 0b 3c c8 be c9 b8 eb bd
       0.88478094 -0.19125542 -0.3910831 -0.11509854
0001c0 cc 6b 5e 3e 58 50 5f 3e 59 63 f7 3e 08 f8 2c bf
       0.21720809 0.21807992 0.48317984 -0.67565966
0001d0 bb af 2a 3f a8 d5 a4 3e 45 e9 1e bf 90 da 41 bf
       0.66674393 0.32194257 -0.6207469 -0.75724125
0001e0 78 a8 70 3e 79 4c 32 bf 9e a4 90 be c9 2d 36 3e
       0.23501766 -0.6964794 -0.28250593 0.17790903
0001f0 64 ea a7 bf c9 a4 a8 bf 1c cf a1 3d c9 ba 0f be
       -1.3118405 -1.3175288 0.07900831 -0.14036097
000200 11 f0 e5 3e 46 59 9e bf 9f 12 0c bf 98 b9 03 be
       0.4490972 -1.2370994 -0.54715914 -0.12863767
000210 d3 ef 32 bf e0 b6 59 be c2 2e 44 be d9 c3 2b bf
       -0.6989719 -0.21261168 -0.19158462 -0.67095715
000220 18 fe 69 bf 48 ec 52 be 78 a6 55 3e ec f7 4b 3f
       -0.9140334 -0.20597947 0.20864284 0.79675174
000230 89 6a 3a 3f c7 d2 93 be db 61 be 3d b3 e9 a7 3e
       0.7281881 -0.28871748 0.09296008 0.32795486
000240 12 ff e3 be 00 89 78 be 98 32 73 be 7b 1c e0 3e
       -0.4453054 -0.24271011 -0.23749769 0.4377173
000250 f0 64 ad 3f bf 78 e4 bb 17 3e aa bf 5e 51 32 bf
       1.3546429 -0.006972402 -1.3300198 -0.69655406
000260 1d 20 b5 bf 72 d8 05 bf 52 ba ba be 2b cd 9b 3f
       -1.4150425 -0.52283394 -0.36470276 1.2171987
000270 6b 65 90 be a2 c2 24 3e c2 2f 28 be 3c 03 e5 3d
       -0.28202376 0.16089872 -0.16424468 0.111822575
000280 1e 4b ee 3e be 55 70 bf a9 b4 01 bf 8d 34 56 3d
       0.46541685 -0.9388083 -0.5066629 0.05229621
000290 ae 63 23 bf 9b e0 05 be f1 41 a0 bd 6a 6d 9f be
       -0.63823974 -0.13073961 -0.07825077 -0.31138164
0002a0 3e f2 a5 be f3 be 70 be d8 57 75 3f 11 fd f0 be
       -0.3241138 -0.23510341 0.95837164 -0.47068074
0002b0 11 f2 36 3f 34 0b 8f 3e 42 05 ba bf e5 c0 92 bf
       0.71463114 0.27938235 -1.4532855 -1.1465117
0002c0 35 36 6a 3e 3f 28 f9 bc 92 e2 04 3f fb 75 99 bd
       0.22872241 -0.030414699 0.5190822 -0.07493206
0002d0 77 1b 30 be 1f 12 f2 3d ef 1c 2b bf dd 30 8f be
       -0.17197977 0.118198626 -0.66841024 -0.27966967
0002e0 17 4c b8 bf 76 5f bc 3d 38 6a 9c bf 11 77 06 be
       -1.4398221 0.09197895 -1.2219915 -0.13131358
0002f0 5a 4e 27 bf 99 46 94 3f c9 ba e6 bd 83 67 7e bf
       -0.6535393 1.1584045 -0.11266095 -0.99376696
000300 18 bc 81 bf 10 9e b2 bf 02 d0 3b bf 0e 63 31 be
       -1.0135527 -1.3954487 -0.7336427 -0.17322943
000310 81 9a 18 bf ee 6f c3 be d2 8c ed 3e 75 aa 17 bf
       -0.59610754 -0.38171333 0.463965 -0.5924447
000320 ce 8c 0b be 9b bb 2c 3d 96 96 77 bf cf 77 fd be
       -0.13627931 0.042171102 -0.9671415 -0.4950547
000330 56 89 2f bf 67 63 b5 3e 4e e7 85 3e 80 76 be 3e
       -0.68568933 0.354274 0.26153034 0.37199783
000340 0a 13 89 bf 6d 3d cc bd 44 d4 50 bf f4 23 9a 3e
       -1.0708935 -0.099726535 -0.8157389 0.30105555
000350 8f c2 0d be 7f 25 a4 bc 82 47 0a bf 0d 6e 8e be
       -0.1384375 -0.02003741 -0.5401536 -0.27818337
000360 45 f6 fd 3e 28 da b3 be a2 69 d8 bf 04 79 a4 3d
       0.4960195 -0.35127378 -1.6907237 0.080308944
000370 74 e7 dc 3e 38 5c 81 be 10 2a e5 3e 7a e5 74 bf
       0.43145335 -0.2526567 0.44758654 -0.95662653
000380 94 57 c6 3e b6 23 01 40 a6 9c 62 bf 35 20 4c be
       0.38738692 2.0178046 -0.88520277 -0.19934161
000390 83 a2 e3 3d 27 82 b7 be 87 e9 67 3f 4c 33 78 3e
       0.11114981 -0.35841486 0.9059071 0.24238318
0003a0 ba 99 15 bf e8 cf e8 3e 29 a0 82 bf bb 93 1f be
       -0.58437693 0.4547112 -1.0205127 -0.15583698
0003b0 83 c7 a8 3e 8a 44 d1 bf f7 0a 72 3e 05 46 2a 3f
       0.32964715 -1.6349041 0.23636995 0.6651309
0003c0 bf d7 20 bf 65 46 67 3e ea c3 13 be c8 c3 09 3f
       -0.628292 0.22585447 -0.14430204 0.53814363
0003d0 df b5 a7 be af 62 d0 bf 61 19 58 bf 72 97 04 40
       -0.32755944 -1.6280116 -0.84413725 2.0717435
0003e0 6f 4f 69 bd 0e 1b 05 c0 20 1e 97 3d 56 dd dc bd
       -0.05696052 -2.0797763 0.07378793 -0.10784404
0003f0 4e 44 11 3e 5f 36 1f be 86 cc 44 3e 71 b5 b9 3e
       0.14186212 -0.15548085 0.19218644 0.3627124

layers.2.bias f4 [128]
000000 2a 80 3c 3e 6f a8 24 bf 6a 6d 6e bf 39 0a 15 bd
       0.18408266 -0.6431951 -0.931357 -0.036386702
000010 54 92 a7 bf 86 ea 21 3f 18 c1 63 be 7e a8 28 bc
       -1.3091531 0.6324848 -0.22241628 -0.010294078
000020 13 5a 97 bd 51 64 a4 bf df af 12 bf 34 6f 34 bf
       -0.07390227 -1.2843114 -0.5729961 -0.7048218
000030 d4 35 93 bc 91 17 08 bf 6e 02 94 bd cb 64 58 bd
       -0.017970003 -0.5316096 -0.07227026 -0.0528305
000040 9b d9 ce bf 1a 5c 6b 3e 38 77 39 be 09 63 e6 be
       -1.6160158 0.22984353 -0.18111885 -0.44997433
000050 4b 3a 97 bd 06 cf 1f bf 37 31 fc bf 68 0c ff bd
       -0.073841654 -0.6242527 -1.9702519 -0.12453538
000060 4d f7 d0 bf 00 e6 6f be 11 41 95 bd dc 58 dc 3d
       -1.632547 -0.23427582 -0.07287801 0.10759136
000070 c7 9f a9 bd ea 62 92 bf 45 99 13 bf 7f 9c 8f bf
       -0.08282428 -1.1436436 -0.57655746 -1.1219634
000080 c6 a0 2f c0 99 9b 14 be 28 ab 80 3c a9 20 cb bf
       -2.7441878 -0.14512481 0.015706614 -1.5869342
000090 2a fd eb bf 1b 45 eb bb 1e 1c 5d bf fd 72 4a 3f
       -1.8436635 -0.007179869 -0.8637103 0.7908171
0000a0 88 9d f5 bf a4 be 20 bd 3e 1f 17 bf 92 a7 c3 bd
       -1.91887 -0.03924431 -0.59032047 -0.09553446
0000b0 06 2b 0f bd 64 1c b8 bf 21 c3 3c be 18 68 09 c0
       -0.03495314 -1.4383664 -0.18433811 -2.1469784
0000c0 84 64 15 bd 70 8d 0a 3f b8 29 c1 3d ee d3 75 bf
       -0.036472812 0.54122066 0.09431785 -0.96026504
0000d0 05 1b 9b be 03 13 88 bf 6c 36 f8 be 92 b8 5f bf
       -0.30294052 -1.0630802 -0.4847902 -0.87391007
0000e0 b4 6e 32 bf 75 6d 5b bd 29 84 60 be 7c 8a ca be
       -0.6970017 -0.053571183 -0.21925415 -0.3955878
0000f0 54 99 79 bf 19 f8 45 bf 73 96 d5 bf 9b de 02 bf
       -0.97499585 -0.7733169 -1.6686538 -0.5112092
000100 0a b7 97 bf f7 4e 6e be f9 cb 11 c0 87 9a cf bf
       -1.1852734 -0.2327231 -2.2780745 -1.6219033
000110 cb c3 67 bf 47 fa 84 bf 00 60 fa bc d0 36 72 bf
       -0.9053313 -1.0388879 -0.030563354 -0.9461489
000120 c2 4a 17 be 54 45 9d bd f8 9c 20 bf 8c 55 d5 3d
       -0.14774612 -0.07679239 -0.62739515 0.104167074
000130 14 25 05 3e 81 e2 cb be d1 8c ed be 26 a2 ef 3e
       0.13002425 -0.39821246 -0.46396497 0.46803397
000140 3c 26 9f 3e bb de 9d 3e 4a 39 1c be 0a 75 9d be
       0.31083858 0.30833992 -0.15256229 -0.30753356
000150 84 ae c4 bf f6 81 0f c0 da 2f a6 bd de 1f 81 3e
       -1.5365758 -2.2423072 -0.08114596 0.25219625
000160 3f b4 32 bf f1 97 ef bf 30 21 b9 bf 21 fb 45 bd
       -0.69806284 -1.8718244 -1.4463253 -0.0483352
000170 51 46 c8 bd b2 42 bb bd 10 64 bf bf d1 84 a4 bf
       -0.09779037 -0.091435805 -1.4952412 -1.2853032
000180 06 43 98 bd b4 8e 99 3e bb 38 39 bf 62 31 3a bf
       -0.07434659 0.29991686 -0.7235219 -0.727316
000190 79 59 3e 3e ef 19 ae bd 3f fb e6 3d 6c d1 59 bf
       0.18588819 -0.0850104 0.1127839 -0.8508518
0001a0 d7 04 b9 bd d0 7c 7e be 0c 5c 0e bf f5 48 39 3f
       -0.09034126 -0.248523 -0.556092 0.7237695
0001b0 4a 99 81 3d 69 76 c7 3e 66 1b 89 bf 20 2a 25 be
       0.06328066 0.38957527 -1.0711486 -0.1612935
0001c0 8e 82 2d bd dd 23 67 3a 9d 91 aa bf f3 d4 86 3e
       -0.042360835 0.0008817295 -1.3325688 0.26334342
0001d0 3c 06 b3 be 1e 93 e4 be 91 b8 79 bc 3e 01 3e bf
       -0.34965694 -0.44643492 -0.015241758 -0.74220645
0001e0 7e c2 5e 3e a3 88 83 bc e9 ec a0 3e f4 e0 34 bd
       0.2175388 -0.016056364 0.31430748 -0.044159845
0001f0 66 40 bf bd 41 72 7c 3e d8 bd ae bf 1e 4a 5e be
       -0.09338455 0.2465296 -1.3651686 -0.21707961

layers.4.weight f4 [32, 128]
000000 9a 60 9f be 75 74 0b bf c9 3f f3 bc 2f 7f 8d 3d
       -0.3112839 -0.54474574 -0.029693501 0.06909024
000010 1e 54 25 3e 5a f6 6a be 30 31 12 3e e4 fc 85 be
       0.1614537 -0.22945538 0.14276576 -0.26169503
000020 98 3d 30 3e 32 b4 7d 3e f2 dd 69 be 60 4e cd be
       0.17210996 0.2477577 -0.22838572 -0.40098858
000030 a0 10 cb bd 26 be 02 be 23 45 4b 3b f4 ce 9a 3d
       -0.0991528 -0.12767848 0.003101655 0.075590044
000040 5e c6 04 be 80 0e 37 be 51 6c 18 3d 62 5a 66 3e
       -0.12966296 -0.17876625 0.037212674 0.22495416
000050 9b 93 88 3d 1c 2e 3b 3f 26 be 1f 3e 03 29 c5 bd
       0.066687785 0.7311723 0.1559988 -0.09626963
000060 c2 7f b8 3d 92 e6 0c 3e db dc 9d bc 50 bc a4 3d
       0.09008743 0.1375983 -0.019270351 0.0804373
000070 03 90 13 3d a7 80 05 bf 1d 9d eb bd 68 3f b2 3e
       0.036026012 -0.5214943 -0.11504576 0.34814
000080 99 aa 46 3e 01 ab 40 be bb 01 c5 be 6c 8d c8 3e
       0.19401015 -0.18815233 -0.38477883 0.39170396
000090 f9 ec a1 bd 03 77 84 3c aa 3a 8a be 4c 60 87 bd
       -0.07906527 0.01617003 -0.26997882 -0.06610164
0000a0 3d ec 5c 3e d7 e8 92 be ff e2 41 3e cd 5c 0e bd
       0.21574493 -0.28693268 0.18934248 -0.03475647
0000b0 19 1e fb bd 45 be 8b 3d 80 7d 07 3b c6 5b 61 3e
       -0.122616 0.068234004 0.002067417 0.22007665
0000c0 a5 7f 6b bd 1a 90 a3 be 0f 91 4b be 13 0c fa 3d
       -0.05749478 -0.31945878 -0.19879554 0.12209334
0000d0 6d f0 80 3c 5f c8 ce 3d 6a 68 f7 3d b7 48 88 3e
       0.015739644 0.100968115 0.12080462 0.26617977
0000e0 ca a3 1c 3e ac b8 8d 3d 0a dd 41 be b4 44 8d bd
       0.15296856 0.06919989 -0.18931976 -0.0689787
0000f0 04 1a 36 3e e6 1e 15 bd 65 24 48 3e 87 3c d5 bd
       0.17783362 -0.03640642 0.19545133 -0.10411935
000100 2f dc 15 3e 4c 8e 21 be a3 82 0b 3e b6 17 d5 3e
       0.14634775 -0.15776938 0.13624053 0.41619653
000110 b2 cb 19 3e d7 bc 18 3e f1 9a 6b 3e 58 2a bc be
       0.1501911 0.14915787 0.23008324 -0.36751056
000120 15 87 eb be 09 6c 49 bd 78 80 1b 3e 5f a0 e8 be
       -0.46001497 -0.049175296 0.15185726 -0.45434853
000130 65 ca 8a be 31 1e 75 3e d2 d6 83 bd 83 86 03 be
       -0.2710754 0.23937298 -0.06437458 -0.12844281
000140 fa b2 26 bf b3 e2 c9 be 48 e5 e7 3d 35 b2 f9 bd
       -0.65116847 -0.3943077 0.11323029 -0.121921934
000150 4c 78 9a 3e 85 6b 9a 3c 4c e7 26 bd 61 c7 4e be
       0.30169904 0.018850097 -0.040747926 -0.20193245
000160 ef 18 23 3e 07 34 9a 3e eb 09 36 3e 3f aa 97 be
       0.1592748 0.3011782 0.17777221 -0.29622075
000170 20 db 60 3d fe 33 68 3d d7 d4 80 3e 11 b2 bc 3d
       0.054896474 0.05669021 0.25162384 0.09213651
000180 3f c4 99 bf 9a ef b3 be 2d c3 53 3e 5c c0 a3 bf
       -1.2013015 -0.3514374 0.20679922 -1.2793078
000190 33 2d ad bd f8 99 94 bd 26 3e ec be 1f b0 4c 3e
       -0.08455887 -0.0725593 -0.46141165 0.1998906
0001a0 c6 68 9d be c3 4d ab be 83 1b 02 3d d5 22 c2 3d
       -0.30743998 -0.33457765 0.03176452 0.094793
0001b0 84 dd dc be 4c 75 8b be b3 fd 3a 3e fc 9b 0e be
       -0.43137753 -0.27237928 0.18260841 -0.13926691
0001c0 5c 09 32 3d 7d 12 af be 41 c1 2d 3e 80 14 61 be
       0.043465957 -0.34193793 0.16968252 -0.21980476
0001d0 4e 71 68 bd 4b 14 70 be 44 6c c8 3d be 67 08 3e
       -0.05674868 -0.23445241 0.09786275 0.13320825
0001e0 43 3c 0f 3e cc 2b 41 be 4b f2 bf 3d 29 bc 6f 3d
       0.13987832 -0.18864363 0.093723856 0.058529053
0001f0 2e 14 3b bd c9 46 f1 bd c6 65 0f 3e 1b 6d 0e 3d
       -0.04567354 -0.11781079 0.14003667 0.03477202
000200 52 80 d7 3d 39 f8 a4 3e 86 a5 b0 3e 2d fd ed bc
       0.10522522 0.3222063 0.34501284 -0.029051388
000210 b5 2d 86 3e db 6d 43 3e c2 4a a7 3e d4 81 7a bf
       0.26206747 0.19084875 0.32674223 -0.9785435
000220 be 37 96 bf fc 43 c2 3e 8d 60 bb 3d ac 27 b4 3e
       -1.1735761 0.37942493 0.09149275 0.35186517
000230 b3 b5 19 bf 35 f2 c1 bd e1 6a 39 bb 11 3c a9 be
       -0.60042876 -0.094700254 -0.0028292465 -0.3305364
000240 7c 8e 0b bf a8 d5 d8 bc 08 26 00 bd 2c cc f0 be
       -0.5451429 -0.026469067 -0.03128627 -0.4703077
000250 3b 1c 8d 3d ca 7b 4e 3f f1 cb 98 bd 39 72 74 bf
       0.0689015 0.8065764 -0.07460774 -0.9548679
000260 ed 9d c1 bf 4a 01 15 bf fc 1a 91 bd 24 b9 83 bb
       -1.512632 -0.5820509 -0.07085225 -0.004019873
000270 6f 5a b6 ba 3b c8 37 3e b2 3f 91 3e 63 be 0f 3c
       -0.0013912449 0.17947476 0.28368908 0.008773419
000280 34 90 66 bf 8c 8a 48 3e b1 ba ef be d7 95 b3 3e
       -0.90063787 0.19584101 -0.46822122 0.35075256
000290 ed 3d c1 3e 67 08 e9 3b 94 3d f0 bb 7f 07 4b be
       0.37742558 0.0071115973 -0.0073315594 -0.19827078
0002a0 8a a5 e5 3e 73 6c 28 bf 9f 66 93 3e b8 00 85 3b
       0.4485286 -0.6579048 0.2878923 0.0040589236
0002b0 47 56 8a bf 5a bf 4c 3d f7 a9 f1 b9 05 72 d9 bd
       -1.080758 0.049987175 -0.00046093736 -0.106174506
0002c0 f9 b2 e8 bc 19 c4 88 bf a3 e4 94 be f1 75 8b be
       -0.028405653 -1.0684844 -0.29080686 -0.2723842
0002d0 f1 81 45 3e d2 a3 9a bd 2a de ad 3d ef 7e fb 3e
       0.1928785 -0.075507775 0.0848964 0.4912028
0002e0 65 cf c5 bf 5c 15 8b 3c 70 d7 90 bc a1 ae f3 3e
       -1.5453917 0.016977958 -0.017680854 0.4759417
0002f0 ce a4 42 be fd c7 4f be 18 96 93 bf 9e f3 64 be
       -0.1900818 -0.20291133 -1.153018 -0.22358558
000300 c5 ec 92 bd 85 d4 2b 3d be fc 7a be e1 2c 2f be
       -0.071740665 0.04195072 -0.24510476 -0.17106964
000310 d5 1c 1e be 38 ba 66 3d 15 05 29 3e 71 63 16 3f
       -0.15440686 0.056329936 0.16505845 0.58745486
000320 f7 31 d4 3e 4c 18 33 3d 62 3b 3b be f3 fd 62 3c
       0.4144437 0.043724343 -0.18284371 0.0138544915
000330 3a 99 a2 3d ee 37 ee 3e bc e5 2c bd 50 0b 98 be
       0.07939382 0.46527046 -0.04221128 -0.2969613
000340 99 57 9a 3e 31 f6 cf 3e 2e 61 86 be 95 b5 bc be
       0.30144957 0.40617517 -0.26246017 -0.36857286
000350 4b 1d 91 3e 98 e4 ba 3e fb 39 0d bd cd 2a 8d 3e
       0.2834266 0.36502528 -0.034479123 0.27571717
000360 32 8e df be 51 32 41 3e 65 57 69 be 89 62 19 3e
       -0.43663174 0.1886685 -0.22787245 0.14978994
000370 1b cd 0b bd 43 78 3c 3d 81 d4 4c 3e 4a 60 c0 3d
       -0.03413115 0.046013128 0.20002939 0.09393366
000380 3f 73 74 be 02 b9 13 bd 12 08 0b bc b0 40 b1 bc
       -0.23872088 -0.03606511 -0.008485811 -0.02163729
000390 79 6a 40 be d2 5f 4d 3d b0 99 1b 3e d8 a2 17 bf
       -0.18790616 0.05014021 0.15195346 -0.59232855
0003a0 2b e0 e2 3b a8 9e 20 c0 97 8d af be ef f2 0e be
       0.0069236956 -2.5096836 -0.34287712 -0.1395986
0003b0 2f c2 aa bd 87 b7 12 be f0 24 06 be c8 65 55 3e
       -0.08337819 -0.14327823 -0.13100028 0.20839608
0003c0 ca 32 85 3c 85 48 81 3e cd ef dd be 83 0d 81 bd
       0.01625957 0.2525064 -0.43347016 -0.06301405
0003d0 b2 69 c6 bd c8 24 98 3e 8d ec 10 be 36 e7 0c c0
       -0.096881285 0.29715562 -0.14152737 -2.201612
0003e0 8a 57 24 3e 7a 79 cd bd 47 3e 47 bf 69 02 01 3d
       0.16049019 -0.100329354 -0.778294 0.03149644
0003f0 0f 12 66 3d 35 9d 8f 3b a4 6d 17 bf 3d 02 bd bc
       0.056169566 0.004382754 -0.59151673 -0.023072356

layers.4.bias f4 [32]
000000 32 c3 c2 3d 13 bc 4e bf e8 6f b3 3d 8f e1 ad 3c
       0.09509887 -0.8075573 0.08761579 0.021225719
000010 02 98 38 3c b7 19 92 3c 12 19 a8 3c 4b 58 bb 3c
       0.01126671 0.017834527 0.020519767 0.02286925
000020 d4 21 d4 bf cb 3b 93 3d a3 01 88 bf 5b 4c c4 3d
       -1.6572824 0.07189139 -1.06255 0.09584876
000030 7e f2 9a bf 97 5e 85 3d ef 4a 8c 3d 89 68 a6 bf
       -1.2105253 0.06512182 0.0685023 -1.3000652
000040 82 ca c9 3c 70 b6 bd 3d 2d 66 df bf bf 15 38 bf
       0.024632696 0.09263313 -1.7453057 -0.7190818
000050 5b a7 0e bf a0 b1 9e bf 0d f8 c4 3d 57 ca a3 3d
       -0.55724114 -1.2397957 0.096176244 0.07997578
000060 26 7a aa 3d ad ba aa be b1 e3 a8 3d 6a 29 aa bf
       0.08324079 -0.33345547 0.08246554 -1.3293889
000070 df c1 87 bf 15 da 82 3d ba 16 cb bf 84 94 ae 3c
       -1.060604 0.06389252 -1.5866311 0.021311052

layers.7.weight f4 [1, 32]
000000 98 5e ae 3b db 97 80 bb a5 c7 92 3b 58 5e 42 bb
       0.005321335 -0.0039243526 0.004479366 -0.0029658284
000010 37 77 6b bb 67 80 45 bb a7 49 61 bb db ae 22 bb
       -0.0035929212 -0.0030136348 -0.0034376176 -0.002482346
000020 bb d0 0c bc 77 2d d4 3b e0 0a ba bb 55 26 c6 3b
       -0.008594687 0.0064751464 -0.005677566 0.00604705
000030 36 2f 8e 3c 18 ad c3 3b 22 6b d3 3b f2 40 b1 3c
       0.017356496 0.005971562 0.00645198 0.021637414
000040 f6 79 74 bb 3f ca be 3b c3 0c fa 3c 07 b2 5d bc
       -0.003730414 0.0058224495 0.030523663 -0.013531215
000050 41 75 ad bb 7f b6 66 3d be e0 a2 3b 19 cb 6e 3b
       -0.005293519 0.056326386 0.004970639 0.0036436974
000060 69 e8 b8 3b 1a a1 8f bc e1 17 9c 3b aa cd a8 3c
       0.00564294 -0.017532874 0.004763589 0.02060588
000070 e9 4f 96 bb fb fa 53 3c 65 e3 8e 3c eb ac 51 bb
       -0.0045871628 0.012938256 0.017442415 -0.0031993936
