Theises/InstagramAnalytics-Python/prediction/models/best_model_0.pt (torch, 370767 bytes, 7 tensors)

layers.0.weight f4 [256, 214]
0.048571166 0.028176788 -0.04634832 0.062721 -0.078749426 0.0052272948 -0.057497714 0.0051292805
-0.00852294 0.03718406 0.052531574 -0.037815936 -0.015275433 -0.038337428 0.020812927 0.06010183
-0.003304881 -0.024003247 -0.0029095814 -0.053234663 0.06298239 -0.052295174 0.00089462264 0.004807954
0.01385914 -0.012525787 -0.010321109 0.010700564 0.009826413 -0.0013182545 0.061078727 0.04524751
0.06291071 0.05796976 -0.0060493746 0.03673639 -0.013141349 0.017900683 0.040970657 0.03816982
0.06460535 0.0025597038 0.038056407 -0.00029210257 0.046699483 0.02530943 -0.056445014 -0.052273113
-0.055571783 -0.06726618 0.018560795 0.04890518 0.039366603 -0.003742178 -0.006907195 0.014241167
0.016812913 -0.06722319 -0.03218848 0.017850652 0.021741137 0.03410192 -0.039009914 -0.052586414
0.026797693 -0.039258078 -0.050660737 -0.010767272 -0.036032386 0.04944939 -0.03918674 0.041444764
0.042125918 0.057466492 -0.0522575 0.027970161 -0.06773064 0.014642945 -0.062605746 0.05469064
-0.05561295 0.0013621093 -0.042398736 -0.042392503 0.038028367 -0.009269374 -0.057026193 -0.061556444
0.032142036 -0.039456163 -0.0071525658 0.050839987 -0.04582724 -0.047032695 0.00643804 -0.027454048
0.05287164 0.034010094 0.057649132 0.029273996 0.018098256 0.04643682 -0.0015721234 0.0128665725
-0.03748292 -0.010060097 0.028463416 -0.06892395 -0.04559756 0.033816565 -0.030703733 -0.0323163
0.044020906 -0.037802495 0.009377311 0.023339923 0.029092861 -0.06387289 0.004803641 -0.06406369
-0.021198485 -0.04332601 -0.047058538 0.014867336 -0.0034721235 0.022157153 -0.04762544 0.01380779
-0.0074744597 -0.038167063 0.049450547 0.06633534 -0.02812498 -0.036839396 -0.03150354 -0.048673157
0.01518886 -0.0642287 -0.046902332 -0.05860844 -0.043493804 -0.058289282 0.037459776 -0.029105145
0.031226484 -0.03169735 0.06113392 0.023473823 -0.0021568558 0.021198183 0.060677078 -0.02903921
0.00540386 -0.003041947 -0.029925836 0.009832066 0.03419623 -0.00918314 0.01083258 0.011412828
0.043665443 0.05838701 0.045495097 0.04192857 -0.035102744 -0.02335807 0.043938875 0.034634225
-0.053216107 -0.03182838 -0.04488408 -0.0037294615 -0.011811389 -0.0031554713 -0.05446254 -0.011022203
0.04314037 0.0027138356 0.01671046 -0.03607057 -0.02987434 -0.017482292 -0.008314424 0.008480537
0.058556963 -0.010003938 -0.069493696 0.0072351675 0.006161836 -0.0098567065 -0.05674949 -0.020168219
-0.0738034 -0.03877059 -0.061631694 0.046097003 -0.046150845 -0.0016669587 0.02147133 -0.027562965
0.053534366 -0.07599449 0.019630471 0.0383301 -0.008635642 -0.009720906 0.041346073 -0.0011172309
0.0073892986 0.0064835935 -0.061436307 -0.0475238 0.015455181 0.0025591475 -0.06284454 -0.021506187
-0.034224838 -0.010473109 -0.02437223 0.012904964 -0.03837771 0.063566424 0.045162737 0.065425515
0.009296816 -0.03637841 0.013779182 0.041318424 -0.046321314 0.04774029 -0.018860923 0.016436104
0.035937276 -0.035828922 0.025847156 0.0029964158 0.04497942 -0.059882853 0.025223901 -0.053315762
0.014879417 -0.01873099 -0.028586872 0.013234425 -0.057978954 0.03098005 -0.05047409 0.053164408
-0.033909224 0.04718236 0.05863925 0.008561579 0.029337382 -0.05325612 -0.041091427 -0.039951235
00000000: 8ff2 463d 02d3 e63c bcd7 3dbd de73 803d
00000010: 6147 a1bd ba49 ab3b b982 6bbd 8613 a83b
00000020: cda3 0bbc 504e 183d 592b 573d e2e4 1abd
00000030: cf45 7abc b507 1dbd df7f aa3c 562d 763d
00000040: b496 58bb 75a2 c4bc adae 3ebb 970c 5abd
00000050: e9fc 803d 7733 56bd 1c85 6a3a 0b8c 9d3b
00000060: 7211 633c f538 4dbc de19 29bc 6b51 2f3c
00000070: f7fe 203c 48c9 acba b02d 7a3d 7455 393d
00000080: 55d7 803d b371 6d3d d539 c6bb e678 163d
00000090: d04e 57bc 74a4 923c d9d0 273d f557 1c3d
000000a0: cf4f 843d b4c0 273b 09e1 1b3d 5825 99b9
000000b0: f547 3f3d b955 cf3c e332 67bd 551c 56bd
000000c0: 3d9f 63bd dac2 89bd cf0c 983c cc50 483d
000000d0: e03e 213d 543f 75bb c055 e2bb c953 693c
000000e0: 3cbb 893c 50ac 89bd 11d8 03bd 883b 923c
000000f0: 781a b23c 74ae 0b3d dcc8 1fbd da64 57bd
00000100: d686 db3c 14cd 20bd a281 4fbd 3669 30bc
00000110: b296 13bd 728b 4a3d 4682 20bd fcc1 293d
00000120: 3a8c 2c3d fc61 6b3d f60b 56bd ae21 e53c
00000130: 5db6 8abd f6e8 6f3c 7137 80bd 4b03 603d
00000140: 68ca 63bd ce88 b23a 4caa 2dbd c3a3 2dbd
00000150: a2c3 1b3d 93de 17bc 4c94 69bd 9c22 7cbd
00000160: 5ea7 033d c99c 21bd 1260 eabb 973d 503d
00000170: 58b5 3bbd 5ba5 40bd 32f6 d23b 50e7 e0bc
00000180: ef8f 583d 2b4e 0b3d 7f21 6c3d 05d0 ef3c
00000190: cb42 943c 8934 3e3d b50f ceba 51ce 523c
000001a0: b187 19bd 1bd3 24bc 1c2c e93c 0028 8dbd
000001b0: 82c4 3abd 3d83 0a3d 6586 fbbc 195e 04bd
000001c0: 444f 343d cad6 1abd 4ba3 193c 5e33 bf3c
000001d0: 2754 ee3c cacf 82bd dc67 9d3b d333 83bd
000001e0: 72a8 adbc 9d76 31bd 74c0 40bd 2096 733c
000001f0: 918c 63bb eb82 b53c e512 43bd 123a 623c
00000200: 50ec f4bb 1155 1cbd a88c 4a3d d3da 873d
00000210: 5c66 e6bc e8e4 16bd db09 01bd 815d 47bd
00000220: b2da 783c 568a 83bd a91c 40bd 670f 70bd
00000230: 8f26 32bd bec0 6ebd 6c6f 193d ea6d eebc
00000240: afce ff3c 15d5 01bd 9067 7a3d 2d4c c03c
00000250: 095a 0dbb d0a7 ad3c 8788 783d a3e3 edbc
00000260: dd12 b13b 675b 47bb 0727 f5bc ac16 213c
00000270: 5911 0c3d e174 16bc 227b 313c dffc 3a3c
00000280: 89da 323d 3827 6f3d 1159 3a3d 4bbd 2b3d
00000290: e5c7 0fbd 6c59 bfbc 40f9 333d 9edc 0d3d
000002a0: 22f9 59bd 7a5e 02bd 5ed8 37bd fb69 74bb
000002b0: 8e84 41bc 06cc 4ebb 1d14 5fbd 7896 34bc
000002c0: f5b3 303d 9bda 313b 60e4 883c bcbe 13bd
000002d0: 08bb f4bc 0637 8fbc 3939 08bc f3f1 0a3c
000002e0: 6dd9 6f3d 8fe7 23bc b652 8ebd fc14 ed3b
000002f0: 3ae9 c93b 067e 21bc 2772 68bd d237 a5bc
00000300: 3d26 97bd e9cd 1ebd 8471 7cbd 36d0 3c3d
00000310: ab08 3dbd da7d daba a5e4 af3c bacb e1bc
00000320: da46 5b3d 00a3 9bbd 15d0 a03c 0600 1d3d
00000330: 827c 0dbc 6f44 1fbc 805a 293d 0c70 92ba
00000340: ee21 f23b 5374 d43b a3a4 7bbd 51a8 42bd
00000350: ba37 7d3c 5fb7 273b a3b4 80bd be2d b0bc
00000360: 582f 0cbd 6797 2bbc 45a8 c7bc 586f 533c
00000370: f231 1dbd 1d2f 823d 90fc 383d d0fd 853d
00000380: ac51 183c 8701 15bd 14c2 613c 823d 293d
00000390: 6bbb 3dbd 538b 433d 3982 9abc 02a5 863c
000003a0: f732 133d 59c1 12bd 6abd d33c 845f 443b
000003b0: 573c 383d b947 75bd 5ba2 ce3c a161 5abd
000003c0: ccc8 733c bc71 99bc 042f eabc 34d5 583c
000003d0: 577b 6dbd e0c9 fd3c ebbd 4ebd ecc2 593d
000003e0: 66e4 0abd 4a42 413d b62f 703d dd45 0c3c
000003f0: f354 f03c 1723 5abd 7c4f 28bd e8a3 23bd

layers.0.bias f4 [256]
-0.06962528 -0.0111379195 -0.024177099 0.06172794 -0.020268701 0.059620325 -0.049121153 -0.025192395
0.05700709 -0.011636338 -0.03666843 -0.071694024 0.05066248 0.004632484 -0.05082552 -0.032569263
0.029223606 0.09163974 -0.008765822 -0.01191178 -0.018452113 0.015988233 0.06915236 0.049369246
-0.055055853 -0.048244637 0.013821054 0.076644875 0.025283257 -0.056768883 0.018121364 -0.030929856
-0.05858445 0.014807417 0.05707928 0.0077869035 -0.017645933 -0.057660684 -0.045993224 0.00012262113
0.00029399776 -0.0018588287 0.08199295 -0.042480826 0.029265618 0.035769515 -0.03405466 0.06966864
-0.019840473 0.0044912533 0.011874158 0.008003298 -0.07461944 -0.064857185 -0.016172009 0.06893098
0.0117783 0.027204823 -0.036904544 -0.07356276 0.035479963 -0.019782986 -0.075804666 -0.045707274
0.081716694 -0.0406212 -0.0028785716 -0.02362038 -0.0006120115 0.07053783 0.0521999 -0.014752526
-0.004877187 0.059442475 0.05087514 0.045012765 -0.07121831 0.031679183 -0.050057936 0.07293501
-0.0012241979 0.061065517 -0.040394764 -0.0039348397 0.03090167 -0.060262438 -0.036296155 0.07594155
-0.0037118662 -0.0040651425 -0.017361758 -0.0025086012 0.06318255 0.009947395 -0.060421035 -0.03640917
-0.0065986756 -0.040730264 -0.053338274 0.056675926 -0.03639971 0.021812856 0.034039 -0.021682376
-0.02200981 0.05655566 -0.0105926795 -0.064172894 -0.048259396 -0.045165673 -0.00081964047 -0.0008866427
0.048101824 -0.056319095 -0.0195269 0.029545063 -0.02786666 0.0042275046 -0.025276886 -0.031649213
0.0047925115 0.04982264 0.062072 0.051469337 -0.0014510631 0.05203168 0.020517325 0.06361457
-0.031800218 0.019410418 -0.0031852997 -0.059003323 -0.0015680355 0.041712847 0.032787837 -0.013421002
0.012690197 -0.055352483 -0.022805415 -0.0313516 -0.0077294633 -0.060467064 0.014024455 -0.0165412
0.007124206 0.026793424 0.050064858 0.033727825 -0.0540384 -0.02119261 0.04041557 0.06561159
-0.0012120062 0.036286972 -0.036785167 0.013801898 0.089973934 -0.04565682 -0.022949161 0.031837005
-0.0032493337 0.009564454 0.024209885 -0.03979568 -0.00025800057 0.033408087 0.017831704 -0.025982345
-0.055853423 -0.041359562 -0.040060796 -0.04899761 0.006719112 0.06493341 0.0297742 -0.008298065
0.064001255 -0.029026207 -0.019135106 0.06688776 0.04703488 0.06489237 0.054373723 0.013787373
0.060873654 -0.019863596 -0.019198956 -0.051588546 0.055440005 0.05891898 0.072254434 0.022020882
-0.06184485 0.034449432 0.05163022 -0.010371838 -0.07135386 0.016317636 0.0032459588 0.023984866
0.023480842 -0.004103677 0.016545506 -0.039937627 -0.0021701443 -0.0040904474 -0.024083707 0.01667847
0.0018847283 -0.019147435 -0.0118819 -0.028947497 0.06332712 -0.036427997 0.034800615 -0.0659345
0.018065758 -0.06987667 -0.053145703 -0.038233448 0.06405642 0.07742157 -0.053551916 0.017252244
0.06415372 -0.012117515 0.04473925 -0.045714606 0.029732822 -0.043647684 -0.009145523 0.037118006
0.059465893 -0.05671747 0.06604264 -0.06038382 -0.063442685 -0.051405862 -0.04043582 0.07786324
0.016155813 -0.01247421 0.022277799 0.0019144791 0.082798325 -0.0029060303 -0.012216281 -0.053379085
-0.04669669 0.01534708 -0.03885841 -0.007999136 0.024725 -0.025095193 -0.01000668 -0.06764724
00000000: b397 8ebd d27b 36bc 0d0f c6bc 70d6 7c3d
00000010: 8c0a a6bc 7134 743d 4333 49bd 4860 cebc
00000020: 4480 693d 57a6 3ebc a331 16bd 51d4 92bd
00000030: 7683 4f3d 18cc 973b 6c2e 50bd 5967 05bd
00000040: 5866 ef3c 9ead bb3d 869e 0fbc a029 43bc
00000050: e328 97bc c1f9 823c c19f 8d3d 6837 4a3d
00000060: 3f82 61bd 2b9c 45bd b471 623c fdf7 9c3d
00000070: d51e cf3c 7d86 68bd 4173 943c 9c60 fdbc
00000080: 40f6 6fbd cf9a 723c f7cb 693d 4829 ff3b
00000090: 348e 90bc 9c2d 6cbd 6463 3cbd dc93 0039
000000a0: b623 9a39 f1a3 f3ba ebeb a73d 6000 2ebd
000000b0: 73be ef3c 0e83 123d e67c 0bbd 6fae 8e3d
000000c0: 7d88 a2bc 5d2b 933b d48b 423c 4420 033c
000000d0: 14d2 98bd d8d3 84bd 297b 84bc b02b 8d3d
000000e0: c5f9 403c a6dc de3c 3829 17bd 13a8 96bd
000000f0: 7053 113d ee0f a2bc 7a3f 9bbd 8d37 3bbd
00000100: 155b a73d 6a62 26bd 6ba6 3cbb 877f c1bc
00000110: 666f 20ba 2376 903d 90cf 553d 94b4 71bc
00000120: cfd0 9fbb f479 733d 7362 503d 4e5f 383d
00000130: e8da 91bd 08c2 013d 8d09 4dbd f35e 953d
00000140: 4475 a0ba d61f 7a3d fb74 25bd d4ef 80bb
00000150: 8025 fd3c bfd5 76bd 47ab 14bd 3e87 9b3d
00000160: c842 73bb e334 85bb 3f3a 8ebc 5867 24bb
00000170: da65 813d 66fa 223c 0c7c 77bd c821 15bd
00000180: b439 d8bb c7d4 26bd 3c79 5abd 0425 683d
00000190: dd17 15bd e0b0 b23c 7a6c 0b3d 3d9f b1bc
000001a0: eb4d b4bc e8a6 673d eb8c 2dbc 146d 83bd
000001b0: a5ab 45bd a4ff 38bd 24dd 56ba 966d 68ba
000001c0: 6b06 453d daae 66bd e1f6 9fbc 7d08 f23c
000001d0: 9f48 e4bc e186 8a3b 7911 cfbc 9ba2 01bd
000001e0: 800a 9d3b d312 4c3d 363f 7e3d 83d1 523d
000001f0: 9931 beba 2c1f 553d f313 a83c 5b48 823d
00000200: f240 02bd 9902 9f3c 76c0 50bb 78ad 71bd
00000210: 8a86 cdba 17db 2a3d 8a4c 063d c3e3 5bbc
00000220: 8bea 4f3c 49b9 62bd 6cd2 babc 896a 00bd
00000230: 7047 fdbb 50ac 77bd d4c6 653c 6981 87bc
00000240: 2c72 e93b e27d db3c cf10 4d3d 3026 0a3d
00000250: 5f57 5dbd 209c adbc cc8a 253d 5f5f 863d
00000260: 2edc 9eba a6a1 143d 0bac 16bd 5b21 623c
00000270: 4144 b83d a502 3bbd e1ff bbbc 8567 023d
00000280: c6f2 54bb 3ab4 1c3c cf53 c63c cc00 23bd
00000290: 4044 87b9 ebd6 083d cb13 923c edd8 d4bc
000002a0: 8fc6 64bd a568 29bd ca16 24bd b8b1 48bd
000002b0: ff2b dc3b cffb 843d 06e9 f33c 9bf4 07bc
000002c0: 1713 833d 5ec8 edbc 3ac1 9cbc 73fc 883d
000002d0: a5a7 403d 4ae6 843d fbb6 5e3d 6fe4 613c
000002e0: a756 793d fbb8 a2bc 2147 9dbc 834e 53bd
000002f0: 0f15 633d 0755 713d 22fa 933d 2365 b43c
00000300: 0751 7dbd d91a 0d3d 367a 533d a4ee 29bc
00000310: f921 92bd 90ac 853c 27ba 543b e97b c43c
00000320: e55a c03c 2378 86bb 718a 873c a395 23bd
00000330: fb38 0ebb 2909 86bb 324b c5bc 49a1 883c
00000340: fd08 f73a 15db 9cbc 4dac 42bc 4d23 edbc
00000350: a6b1 813d 8635 15bd 178b 0e3d ab08 87bd
00000360: a4fe 933c 801b 8fbd 4faf 59bd ad9a 1cbd
00000370: 0330 833d 338f 9e3d 4159 5bbd 9454 8d3c
00000380: 0763 833d 8b88 46bc 8140 373d 3d3f 3bbd
00000390: 3f92 f33c eac7 32bd 1bd7 15bc 0d09 183d
000003a0: 8292 733d 9450 68bd 5d41 873d 0655 77bd
000003b0: 3dee 81bd f48e 52bd 08a0 25bd c376 9f3d
000003c0: 3259 843c a160 4cbc ee7f b63c 42ef fa3a
000003d0: 2b92 a93d 1973 3ebb cc26 48bc 07a4 5abd
000003e0: 0745 3fbd 5272 7b3c ff29 1fbd cf0e 03bc
000003f0: 158c ca3c 6f94 cdbc 0ff3 23bc a38a 8abd

layers.2.weight f4 [128, 256]
-0.038680363 0.013278086 -0.017126482 0.041135505 0.057786714 -0.030750837 -0.027409786 0.009135835
-0.01698532 0.0010469122 -0.043340232 0.024461465 -0.042673137 0.03024613 -0.045090217 0.040700566
-0.00060339976 0.057398662 0.028976217 0.007269405 -0.026476094 -0.05041166 0.054370333 -0.059730504
0.031542383 0.036129322 -0.034489747 -0.020985581 -0.0030777524 -0.03049428 0.0155329425 0.042149056
-0.03367982 0.052182503 -0.05298424 -0.027096745 0.04265328 0.047954928 -0.030304063 0.039253708
-0.0004087033 0.0458482 0.012259428 0.039088607 0.03738222 -0.011359687 -0.010821318 -0.0401172
0.03399284 0.06061383 0.051747613 -0.002768479 -0.056240518 0.0085751545 -0.01967961 -0.025405103
-0.05814444 -0.06359006 0.039829075 0.058958348 -0.052716035 0.04195582 0.0019607581 -0.061745986
-0.0053755813 0.039696626 -0.043198172 -0.06165362 -0.038606543 -0.030340234 -0.031800304 -0.016513944
-0.025384465 -0.042618126 0.06250601 -0.060393892 -0.037102345 0.017554425 -0.036089834 -0.029445909
0.05319269 0.022951482 -0.029925326 0.0051997537 -0.016866267 -0.0045032054 -0.021155363 0.04117552
-0.05026084 0.04291213 -0.010635385 0.016240813 -0.014083544 -0.040212113 0.035113208 -0.070401244
-0.031571906 -0.06867908 -0.02633208 -0.0019005056 0.036432605 -0.050785888 -0.048984766 -0.03254222
0.07066396 0.020717168 -0.053921927 -0.0044328542 0.043713823 0.030976754 0.011229457 -0.040448546
0.05222192 -0.06622553 -0.033387918 -0.03549284 0.015460813 -0.0049270894 -0.028662043 0.026768243
-0.032888435 0.020684935 0.0041698846 -0.063424885 -0.00040376736 0.016493991 0.034307074 -0.013831428
0.032670356 -0.002877595 0.037509456 -0.034271754 0.0076844944 0.011481633 0.026801184 0.039186165
0.028170584 -0.06695667 0.0003168461 0.05794665 -0.059141904 0.0142115485 -0.011510444 -0.00711157
0.015571038 0.036188204 -0.021042163 -0.0029968892 0.03046779 0.020365443 0.0063352175 0.05827724
-0.064728476 0.014927325 -0.013386991 -0.022679485 -0.006189683 0.018586874 -0.021929441 -0.061027884
0.060121533 -0.028695779 -0.045569584 -0.046975672 -0.02370913 -0.06836468 0.011522224 0.025818039
0.04952585 0.02114078 0.011427004 -0.031586412 -0.05498696 -0.036181267 0.02746999 0.037155904
-0.038888868 -0.0275916 -0.00310949 -0.032538224 0.026488546 -0.049308255 0.016108735 0.017848138
-0.021530733 0.04737962 -0.011950186 0.030843422 -0.060502823 -0.03904202 -0.034888238 -0.03542384
-0.0021613718 -0.0016894646 -0.04565324 0.026165875 0.007945214 0.06046646 -0.012568378 -0.041013293
-0.0012402749 0.00088274374 -0.0057239286 0.025689535 0.032710213 0.0008407807 -0.06977322 0.03712698
-0.053748596 0.003127742 -0.033731468 -0.06353764 0.013136946 0.00559227 -0.0044912198 0.003060389
0.001119969 0.020603297 0.028462445 -0.009651352 0.040866267 -0.052334033 0.053964924 -0.045392826
-0.044511408 0.043602977 0.06346117 -0.04165823 -0.03989216 0.0056744535 -0.047514636 -0.02553434
0.04625186 -0.020152137 -0.05919436 -0.062050648 0.03407777 -0.056732196 0.052161 0.012426579
-0.014304187 -0.058966026 -0.0069863955 -0.015094633 -0.023015177 0.056313828 -0.069259256 0.018409844
0.010144322 0.022508588 0.008252724 0.02564664 -0.036709137 0.06833555 0.016186872 -0.037520315
00000000: 4d6f 1ebd 548c 593c d64c 8cbc b47d 283d
00000010: c3b1 6c3d 2ee9 fbbc 7d8a e0bc 78ae 153c
00000020: cc24 8bbc 8b38 893a 8785 31bd 6963 c83c
00000030: 07ca 2ebd bbc6 f73c 85b0 38bd a3b5 263d
00000040: 792d 1eba dc1a 6b3d 885f ed3c 3034 ee3b
00000050: 65e4 d8bc 757c 4ebd 6db3 5e3d f9a7 74bd
00000060: 9632 013d 57fc 133d 1f45 0dbd f4e9 abbc
00000070: 1eb4 49bb 24cf f9bc e27d 7e3c 7da4 2c3d
00000080: daf3 09bd 52bd 553d 0106 59bd fef9 ddbc
00000090: 35b5 2e3d 636c 443d 3a40 f8bc 7fc8 203d
000000a0: 3a47 d6b9 52cb 3b3d c5db 483c 601b 203d
000000b0: 191e 193d fb1d 3abc e64b 31bc ef51 24bd
000000c0: 143c 0b3d 3546 783d 4ef5 533d 5f6f 35bb
000000d0: 755c 66bd ce7e 0c3c 2237 a1bc 5d1e d0bc
000000e0: dd28 6ebd 813b 82bd d023 233d 4f7e 713d
000000f0: c5ec 57bd ded9 2b3d 1080 003b 5ce9 7cbd
00000100: a525 b0bb ee98 223d 91f0 30bd 8288 7cbd
00000110: e521 1ebd 158c f8bc 0941 02bd 4048 87bc
00000120: 15f3 cfbc 5890 2ebd 2703 803d 965f 77bd
00000130: a1f8 17bd 4cce 8f3c efd2 13bd 8c38 f1bc
00000140: 94e0 593d bf04 bc3c f525 f5bc b262 aa3b
00000150: 202b 8abc a08f 93bb 034e adbc a9a7 283d
00000160: 50de 4dbd a1c4 2f3d 0a40 2ebc 740b 853c
00000170: aabe 66bc 75b5 24bd ded2 0f3d 872e 90bd
00000180: 8b51 01bd 9ea7 8cbd 60b6 d7bc 631a f9ba
00000190: 5b3a 153d dd04 50bd 40a4 48bd fe4a 05bd
000001a0: 44b8 903d 0db7 a93c 3ddd 5cbd 7a41 91bb
000001b0: 440d 333d f6c2 fd3c c2fb 373c 60ad 25bd
000001c0: a7e6 553d 40a1 87bd c5c1 08bd f160 11bd
000001d0: 5a4f 7d3c 6c73 a1bb a9cc eabc 1349 db3c
000001e0: 06b6 06bd 7473 a93c 87a3 883b e8e4 81bd
000001f0: bdb0 d3b9 681e 873c 9385 0c3d 379d 62bc
00000200: 5ad1 053d 0896 3cbb 84a3 193d 8a60 0cbd
00000210: 36ce fb3b 761d 3c3c 288e db3c ac81 203d
00000220: ffc5 e63c 9420 89bd 5d1e a639 7759 6d3d
00000230: c83e 72bd 8ed7 683c 4d96 3cbc 2c08 e9bb
00000240: ab1d 7f3c 153a 143d 9d60 acbc 7567 44bb
00000250: 9697 f93c 6ed5 a63c a897 cf3b 1db4 6e3d
00000260: 5d90 84bd bd91 743c 1c55 5bbc 54ca b9bc
00000270: d3d2 cabb 8043 983c 5fa5 b3bc 60f8 79bd
00000280: ff41 763d 6913 ebbc 2ca7 3abd 9069 40bd
00000290: a639 c2bc c802 8cbd b6c7 3c3c 5a80 d33c
000002a0: 9edb 4a3d 6e2f ad3c 5438 3b3c c160 01bd
000002b0: 023a 61bd cf32 14bd bf08 e13c ca30 183d
000002c0: ef49 1fbd c707 e2bc 96c8 4bbb cd46 05bd
000002d0: 82fe d83c 74f7 49bd 77f6 833c 4236 923c
000002e0: 3861 b0bc 2211 423d b7ca 43bc 58ab fc3c
000002f0: cfd1 77bd 86ea 1fbd f8e6 0ebd 9718 11bd
00000300: cda5 0dbb 0671 ddba e4fe 3abd d159 d63c
00000310: a52c 023c aeab 773d 99eb 4dbc 8efd 27bd
00000320: b890 a2ba ee67 673a cb8f bbbb dc72 d23c
00000330: 25fb 053d d667 5c3a 43e5 8ebd 7612 183d
00000340: 7d27 5cbd cefa 4c3b 022a 0abd 0620 82bd
00000350: 583c 573c 5c3f b73b 152b 93bb cf90 483b
00000360: eccb 923a 3fc8 a83c 132a e93c b420 1ebc
00000370: 6363 273d 365c 56bd 530a 5d3d d4ed 39bd
00000380: 9851 36bd 0999 323d eef7 813d d2a1 2abd
00000390: f665 23bd c4f0 b93b b59e 42bd 642d d1bc
000003a0: 9772 3d3d 1816 a5bc c975 72bd d228 7ebd
000003b0: 2295 0b3d 0560 68bd c6a6 553d da98 4b3c
000003c0: 1c5c 6abc 5c86 71bd 22ee e4bb 7b4f 77bc
000003d0: 538a bcbc 54a9 663d ccd7 8dbd 3ed0 963c
000003e0: 5f34 263c ee63 b83c 6f36 073c e718 d23c
000003f0: 525c 16bd 82f3 8b3d 559a 843c e7ae 19bd

layers.2.bias f4 [128]
0.043606758 -0.059810374 -0.029357843 -0.030249355 0.0024110668 0.003890582 -0.0124876425 0.005123147
-0.011701641 0.036030106 -0.044835676 0.0003998217 -0.009079874 -0.034884185 -0.060427323 0.008024335
0.026688471 -0.035931777 0.03588613 -0.055639397 -0.017835004 -0.021605184 0.0054357955 0.033241343
-0.046362747 0.014741187 -0.049197372 -0.021806765 -0.0013188969 0.061802372 -0.031741906 0.028832562
-0.046602726 0.060158547 0.00365563 0.028649678 -0.053579606 -0.035493463 0.042574316 0.0059857117
0.010785408 -0.037669327 -0.045273628 -0.051566754 -0.0025237682 -0.06389988 0.011843388 -0.014020918
-0.06166522 -0.01879826 0.03250588 0.05632825 -0.011806101 -0.014512658 0.023464791 -0.0077767665
-0.012147164 -0.034869544 -0.034757476 -0.044449177 -0.046891715 0.038021617 -0.05912798 -0.03183787
6.501655e-05 -0.03563675 -0.019531803 0.0023588163 0.033882733 0.031288613 -0.021161944 0.08791101
0.0053071356 -0.012412262 0.07835252 -0.049604714 0.0018374578 -0.061917864 -0.05476594 0.045505658
-0.0077851275 -0.019140093 0.036609065 0.031384684 -0.006219252 -0.042585406 0.025930896 -0.01066135
-0.030183764 -0.015040002 0.05055221 -0.040004432 0.05051841 0.066556215 0.043748498 -0.033819117
-0.06095475 -0.04226716 0.04030174 -5.16846e-05 -0.032507032 0.010513415 0.07064638 0.042780705
0.07286955 0.017195754 0.0522338 -0.02083693 -0.023616225 0.03695267 0.010071055 0.057075337
-0.028436664 0.03279943 0.057699084 -0.049546923 0.015940862 0.002524034 -0.05579131 -0.050386183
-0.012124985 -0.037127163 -0.024224874 -0.0052137924 0.026564527 -0.029304607 -0.04714569 -0.024938654
00000000: 009d 323d b9fb 74bd dc7f f0bc 7fcd f7bc
00000010: fd02 1e3b 22f9 7e3b f898 4cbc 12e0 a73b
00000020: 3db8 3fbc 4e94 133d 9da5 37bd 299f d139
00000030: c0c3 14bc b8e2 0ebd a482 77bd 8078 033c
00000040: c8a1 da3c 332d 13bd 56fd 123d 23e6 63bd
00000050: b71a 92bc 5bfd b0bc c21e b23b 1328 083d
00000060: dde6 3dbd 0585 713c 2f83 49bd 1aa4 b2bc
00000070: d6de acba 7c24 7d3d cd03 02bd 4432 ec3c
00000080: 80e2 3ebd cf68 763d 4b93 6f3b bbb2 ea3c
00000090: 4a76 5bbd 9861 11bd 6862 2e3d ca23 c43b
000000a0: 48b5 303c 274b 1abd d770 39bd a937 53bd
000000b0: ce65 25bb f1dd 82bd c50a 423c feb7 65bc
000000c0: ab94 7cbd cffe 99bc e324 053d 73b8 663d
000000d0: 606e 41bc 80c6 6dbc 3c39 c03c 3fd4 febb
000000e0: e604 47bc 5ed3 0ebd db5d 0ebd 5710 36bd
000000f0: 8711 40bd 8ebc 1b3d 2e30 72bd 6d68 02bd
00000100: 7f59 8838 d7f7 11bd 2901 a0bc 5f96 1a3b
00000110: 9fc8 0a3d 7d28 003d d05b adbc b00a b43d
00000120: 7be7 ad3b cd5c 4bbc 4977 a03d 502e 4bbd
00000130: dad6 f03a 969d 7dbd 4052 60bd 2464 3a3d
00000140: 621a ffbb afcb 9cbc 63f3 153d 3a8d 003d
00000150: deca cbbb 096e 2ebd 086d d43c f1ac 2ebc
00000160: f143 f7bc 576a 76bc d60f 4f3d b0db 23bd
00000170: 64ec 4e3d a04e 883d a031 333d ea85 0abd
00000180: b0ab 79bd 5420 2dbd 7013 253d ebc7 58b8
00000190: 1826 05bd 7540 2c3c 0daf 903d d23a 2f3d
000001a0: a13c 953d 1cde 8c3c 1cf3 553d 36b2 aabc
000001b0: d076 c1bc af5b 173d 1101 253c d4c7 693d
000001c0: 02f4 e8bc b258 063d e055 6c3d b7f1 4abd
000001d0: 6996 823c 436a 253b 6e85 64bd be61 4ebd
000001e0: e0a7 46bc a712 18bd 3e73 c6bc 76d8 aabb
000001f0: da9d d93c 3710 f0bc d71b 41bd 264c ccbc

layers.4.weight f4 [32, 128]
-0.0495641 -0.0074520935 0.04756022 -0.0075883185 0.039352834 0.05768276 -0.0157085 0.0044818115
-0.007458965 -0.084905125 -0.035241056 0.083126634 0.0810801 -0.06057208 -0.04445079 -0.08950467
0.06995073 0.04476693 -0.044737075 -0.03293529 0.0632641 0.08318763 -0.07443598 0.039093487
-0.052443035 -0.06943527 0.053225074 -0.017072996 0.058627 -0.018052887 -0.07352628 -0.026097635
-0.008217687 -0.03235561 -0.016312037 -0.08138064 0.07376276 -0.08063185 0.026325174 0.044814494
0.012745162 0.0761349 -0.054219346 -0.08480746 0.0638118 -0.026872221 -0.078954995 0.08659025
-0.008300427 0.023061557 -0.022717815 -0.0050547537 0.08303401 0.036673024 -0.068795845 -0.0762446
-0.022878272 -0.06063916 0.0016267314 0.048932478 0.087741405 -0.023804305 0.0014811505 0.027369995
0.02912826 0.048646297 -0.04783693 0.08314769 -0.02644545 0.079048716 0.005861499 0.028886268
-0.08130227 0.062833495 0.04953754 -0.003711896 0.055961203 -0.024929246 0.025019128 0.0063516493
0.03084242 0.024635645 -0.026965516 0.036468595 -0.016346939 -0.0014574433 -0.08656627 0.045393556
-0.008206465 -0.00788754 -0.004149676 -0.07847391 -0.005183312 0.07302166 0.041632764 -0.011697447
0.012707759 0.017598215 0.06931981 -0.024227355 0.01226971 0.015391216 0.058073096 -0.03234777
-0.07754004 -0.05071627 0.014496837 0.026883367 -0.008063979 -0.026732102 0.039559707 -0.07653371
-0.025769616 0.038678486 -0.022792356 0.05800223 0.08455704 0.047708623 -0.06852753 0.07244735
0.058957886 -0.056567993 -0.08533267 -0.004685597 -0.030701397 -0.08275772 0.0037832072 0.0017139894
-0.017489655 -0.053866208 -0.012459177 -0.024577294 -0.065834545 -0.08036322 -0.033687063 -0.00087610644
-0.06297241 0.019756068 0.0694792 -0.04482732 -0.08724911 -0.016480511 -0.0005539866 0.05980688
0.016898667 0.03271493 -0.015756095 -0.056042083 0.04813036 -0.017732447 -0.030158937 -0.008748105
-0.011206511 -0.019324357 -0.025484968 -0.04214172 0.04804907 0.049782112 0.06328249 -0.024659364
-0.00079447805 -0.045003768 0.029969132 -0.021732926 0.048453514 -0.080573626 0.03998433 0.018011643
0.02132088 0.04875039 -0.077009864 0.06708245 -0.0081579015 0.051556014 0.022645235 -0.08188695
0.017963398 0.082391985 -0.024747089 -0.0051059616 -0.049399763 -0.020478 -0.025717407 -0.036182508
0.024119899 -0.08393886 0.02801229 0.08487485 0.081707865 -0.014454314 0.009840034 0.02662372
0.07321681 0.08840331 0.016330268 -0.016418217 -0.045495775 -0.04921471 0.06497383 -0.0004863753
0.07181225 -0.021212017 0.02596013 0.008085432 0.018542582 -0.03213671 0.030356543 -0.017811915
0.044199437 0.060238115 0.040632535 -0.08285568 0.0054442217 -0.07584254 0.056506712 -0.07174239
0.072838455 0.050736938 -0.00727731 -0.008019265 0.009917478 0.036081027 -0.06518876 0.03590726
-0.073271826 -0.081962556 -0.01047154 -0.032813396 0.032588884 0.051436882 -0.05195904 -0.08687719
0.03292214 0.073696375 -0.06548119 -0.08792157 0.01135928 0.063787065 0.017800286 -0.08490395
0.06612937 -0.027796993 0.021589587 -0.071942925 0.013447906 -0.03869065 -0.025750708 0.051881243
-0.07281353 0.044120174 -0.02170648 -0.008178402 -0.062091224 0.047792923 -0.0680455 0.05741205
00000000: ba03 4bbd b130 f4bb 81ce 423d 6ea7 f8bb
00000010: 7030 213d c244 6c3d 1daf 80bc 29dc 923b
00000020: 556a f4bb bde2 adbd ed58 10bd 4c3e aa3d
00000030: 530d a63d 6e1a 78bd 0812 36bd 394e b7bd
00000040: 5442 8f3d 875d 373d 393e 37bd 28e7 06bd
00000050: 9c90 813d 475e aa3d e471 98bd 7e20 203d
00000060: 82ce 56bd 1434 8ebd 8902 5a3d abdc 8bbc
00000070: dd22 703d a6e3 93bc f294 96bd b5ca d5bc
00000080: 7aa3 06bc 5187 04bd d2a0 85bc e5aa a6bd
00000090: ee10 973d 5022 a5bd e4a7 d73c 678f 373d
000000a0: 15d1 503c 9dec 9b3d 1b15 5ebd 89af adbd
000000b0: c3af 823d 2223 dcbc 28b3 a1bd 3b56 b13d
000000c0: 84fe 07bc 97eb bc3c b61a babc 59a2 a5bb
000000d0: bc0d aa3d 7436 163d d6e4 8cbd 2126 9cbd
000000e0: 376b bbbc c560 78bd 0c38 d53a 6c6d 483d
000000f0: c4b1 b33d 3f01 c3bc 2a23 c23a 0a37 e03c
00000100: 649e ee3c 5741 473d a8f0 43bd 5649 aa3d
00000110: 21a4 d8bc 4be4 a13d d111 c03b e5a2 ec3c
00000120: ce81 a6bd d9ae 803d e0e7 4a3d 4843 73bb
00000130: 9337 653d 6b38 ccbc eaf4 cc3c 7f21 d03b
00000140: 3ea9 fc3c b1d0 c93c c9e6 dcbc 1860 153d
00000150: 04ea 85bc af07 bfba a849 b1bd 98ee 393d
00000160: 6974 06bc be3a 01bc 01fa 87bb eeb6 a0bd
00000170: c6d8 a9bb 618c 953d 1e87 2a3d a6a6 3fbc
00000180: 3434 503c 222a 903c 8bf7 8d3d 7278 c6bc
00000190: e506 493c 702b 7c3c 0ede 6d3d 187f 04bd
000001a0: 50cd 9ebd ddbb 4fbd 2484 6d3c 823a dc3c
000001b0: c81e 04bc 48fd dabc 5c09 223d b5bd 9cbd
000001c0: cd1a d3bc 556d 1e3d 09b7 babc bf93 6d3d
000001d0: 3e2c ad3d 1e6a 433d 2958 8cbd 475f 943d
000001e0: d37d 713d d7b3 67bd e5c2 aebd a389 99bb
000001f0: 7f81 fbbc e17c a9bd afef 773b f1a7 e03a
00000200: 7746 8fbc d0a2 5cbd 9321 4cbc 5256 c9bc
00000210: 43d4 86bd 7995 a4bd 72fb 09bd 82aa 65ba
00000220: aef7 80bd 7ad7 a13c 1c4b 8e3d da9c 37bd
00000230: a9af b2bd 2302 87bc 6939 11ba 0ff8 743d
00000240: 136f 8a3c 1700 063d ed12 81bc 628c 65bd
00000250: 5724 453d a343 91bc e00f f7bc 3654 0fbc
00000260: 849b 37bc 1d4e 9ebc dac5 d0bc cc9c 2cbd
00000270: 1acf 443d 54e8 4b3d 409a 813d 6f02 cabc
00000280: 8544 50ba df55 38bd d381 f53c 4009 b2bc
00000290: 3177 463d c903 a5bd 9cc6 233d 278d 933c
000002a0: 20a9 ae3c 7dae 473d 59b7 9dbd 8662 893d
000002b0: b8a8 05bc 662c 533d 8082 b93c 58b4 a7bd
000002c0: fa27 933c 21bd a83d 68ba cabc e94f a7bb
000002d0: 6857 4abd 7bc1 a7bc 50ad d2bc 1c34 14bd
000002e0: 1897 c53c 23e8 abbd 087a e53c ded2 ad3d
000002f0: 7456 a73d c9d1 6cbc 1838 213c fd19 da3c
00000300: b2f2 953d cb0c b53d 0ec7 853c 7f7f 86bc
00000310: c759 3abd 5d95 49bd 0011 853d 3000 ffb9
00000320: 4d12 933d d3c4 adbc 57aa d43c c378 043c
00000330: 9de6 973c c8a1 03bd 49ae f83c 4bea 91bc
00000340: 780a 353d 3ebc 763d 4d6e 263d 3db0 a9bd
00000350: 7165 b23b 5553 9bbd 9573 673d aded 92bd
00000360: 542c 953d 89d1 4f3d 8076 eebb 3c63 03bc
00000370: eb7c 223c b3c9 133d af81 85bd 7e13 133d
00000380: 8a0f 96bd fcdb a7bd d290 2bbc 5767 06bd
00000390: ec7b 053d 7baf 523d 01d3 54bd abec b1bd
000003a0: 5ed9 063d 20ee 963d 011b 86bd 3910 b4bd
000003b0: 461c 3a3c cba2 823d e8d1 913c 1fe2 adbd
000003c0: d66e 873d 85b6 e3bc a5dc b03c d056 93bd
000003d0: 9b54 5c3c 167a 1ebd 26f3 d2bc 6d81 543d
000003e0: 431f 95bd 5bb7 343d cad1 b1bc b4fe 05bc
000003f0: 5e53 7ebd 83c2 433d 705b 8bbd e628 6b3d

layers.4.bias f4 [32]
-0.07842245 -0.078674346 0.011472962 -0.06339196 0.047576793 -0.051912386 -0.051813394 0.0751823
0.018447801 -0.012926677 0.023225732 0.05321188 0.05745836 -0.0015578677 0.013806042 -0.08672678
-0.076536864 0.015339467 -0.01753573 0.037881125 0.076135285 -0.048493423 0.06893769 -0.056484997
0.010114825 -0.010368719 0.055765793 -0.027575094 -0.07985057 0.06457144 0.056252204 -0.080404736
00000000: f39b a0bd 0420 a1bd 17f9 3b3c a5d3 81bd
00000010: e2df 423d 15a2 54bd 483a 54bd 2df9 993d
00000020: d81f 973c 6aca 53bc e443 be3c b3f4 593d
00000030: 7559 6b3d 5e31 ccba bd32 623c cf9d b1bd
00000040: 5cbf 9cbd 6352 7b3c 17a7 8fbc 3d29 1b3d
00000050: d1ec 9b3d 0aa1 46bd 342f 8d3d d05c 67bd
00000060: a7b8 253c 8fe1 29bc ac6a 643d 2ae5 e1bc
00000070: b288 a3bd 083e 843d b668 663d 3dab a4bd

layers.7.weight f4 [1, 32]
-0.033356052 -0.038989753 0.08656299 0.094953954 0.07566976 0.07924471 -0.12171241 -0.02626169
0.12726948 -0.014803593 0.016210837 -0.14582258 0.14524822 -0.049108353 0.017568592 -0.122492015
-0.009812858 -0.14658025 -0.055560324 0.021308932 -0.13429578 -0.08254692 -0.1601736 0.028222723
0.14789698 -0.13027655 -0.045547925 -0.0002488811 -0.014256393 0.09179386 0.07093158 -0.16436891
00000000: 5ba0 08bd b8b3 1fbd f047 b13d 3877 c23d
00000010: bff8 9a3d 0d4b a23d 5b44 f9bd c122 d7bc
00000020: ee52 023e c58a 72bc 97cc 843c 8452 15be
00000030: f3bb 143e d725 49bd 02ec 8f3c 18dd fabd
00000040: 1cc6 20bc 2219 16be 3993 63bd 1290 ae3c
00000050: d584 09be 5c0e a9bd 8c04 24be 5733 e73c
00000060: 4e72 173e 3767 05be 7690 3abd 417c 82b9
00000070: a593 69bc 6bfe bb3d 9444 913d 5350 28be
