Theises/InstagramAnalytics-Python/prediction/models/best_model_4.pt (torch, 370767 bytes, 7 tensors)

layers.0.weight f4 [256, 214]
0.042575166 0.062885396 0.2968767 -0.17416789 -0.6931534 -0.18510546 0.18466654 -0.058296278
0.07867478 0.32845768 -0.30420738 0.012774217 0.045987446 0.34251317 -0.04687824 0.05506261
0.016502025 0.028704755 0.03781899 -0.017016046 -0.03771176 -0.05069361 0.057646573 -0.0500233
0.060084112 -0.031736713 -0.048543315 0.06723491 0.054795276 0.027512992 -0.0066600386 -0.038083408
-0.043103117 -0.028508954 -0.014197057 -0.06798726 0.045188766 -0.04555465 -0.06285043 -0.06307573
0.008770475 -0.010608351 0.047767162 -0.0069253705 0.03203831 -0.011306148 -0.049167987 0.030385956
-0.014710059 -0.044082444 -0.015474955 -0.059473153 0.03270823 0.008715071 -0.0071265036 -0.060747076
-0.0389027 -0.010051367 -0.038512472 0.06497958 0.027568627 -0.055264868 0.013934061 -0.019239394
-0.06609127 0.015740491 0.063532226 -0.009376087 0.06585871 -0.0055040075 0.041435167 -0.007430661
-0.055187188 -0.028335322 0.0019524283 -0.04132051 -0.026291076 0.021468583 -0.036129206 -0.035801023
0.041402172 -0.035355113 0.026047166 -0.033627562 -0.04844704 -0.045975167 -0.033437684 -0.068816006
-0.01074907 0.02006902 0.049194075 0.019540513 0.019151563 0.058696315 -0.026180396 -0.009456453
-0.06595461 -0.032401204 0.05397286 0.0058424897 -0.06438238 0.057890944 -0.038836308 -0.071885474
0.0037350715 0.046455298 0.0014204467 -0.0115106115 -0.01890551 -0.058796283 0.030633152 -0.056188665
0.0013149041 -0.06696411 -0.05025142 0.016117672 0.030170798 -0.040838096 0.017952165 -0.011268189
-0.044244368 0.046494946 0.012953201 0.022741357 -0.022383077 -0.01610732 0.06155856 -0.0113452645
-0.053917605 -0.062828556 -0.003935015 -0.032887444 0.0041989065 -0.011270647 -0.032789633 -0.050150253
0.01236807 -0.04753175 0.015548348 0.020272462 0.012779551 0.047678582 -0.0038835232 0.0075562773
-0.07739852 0.008972375 -0.052882418 -0.018313 0.0075823604 0.004923891 -0.004401879 -0.06730313
-0.061275847 0.022575496 -0.013729597 -0.041165594 0.015543754 -0.017193297 -0.005497481 -0.002976583
-0.019952543 0.0025245624 -0.0603802 -0.015902627 -0.00853843 0.020483369 -0.05829469 -0.016380949
0.023237625 -0.041944396 0.0017188359 0.02479343 -0.088032804 -0.069042556 0.036195938 -0.0034917013
-0.056696426 -0.025782863 -0.023942968 -0.0007325471 -0.0743104 0.021107933 -0.025302095 -0.071104065
-0.04369049 0.009852931 0.0003434293 -0.05400063 -0.012960108 0.014073739 -0.08086211 -0.102499805
-0.002519823 -0.02890467 -0.03908951 0.01476253 -0.0019558256 -0.07017982 -0.03070802 -0.014997374
-0.07215867 -0.02665666 -0.114767894 -0.1840374 -0.08297958 -0.059321992 -0.1208463 -0.15837944
-0.09285986 -0.2466905 -0.11263575 -0.22909534 -0.7818544 0.36960295 0.28239036 -0.15512182
0.2214333 -0.052716993 0.1966192 -0.10566038 -0.34753725 -0.12842192 -0.86720127 0.21187577
0.03246615 -0.24228859 0.009724601 0.13906756 0.050882336 0.061239243 0.07359572 0.041654173
0.048586957 0.052045707 0.061983585 -0.0048234747 0.026483605 0.016067803 0.05127889 0.030052386
-0.06500925 0.02939094 -0.023932306 0.0071164444 -0.0021540946 0.05854546 0.022912942 0.026746785
0.023438334 0.00892867 -0.0025201216 -0.05903953 0.04976942 0.009380002 -0.071293786 -0.060215663
00000000: 4c63 2e3d 0fca 803d 3900 983e 1159 32be
00000010: 8072 31bf 498c 3dbe 3a19 3d3e 14c8 6ebd
00000020: 3e20 a13d 9b2b a83e 12c1 9bbe f34a 513c
00000030: 555d 3c3d e35d af3e 6603 40bd 5589 613d
00000040: 412f 873c 3c26 eb3c 16e8 1a3d 3c65 8bbc
00000050: a577 1abd 1aa4 4fbd d01e 6c3d 3be5 4cbd
00000060: c21a 763d 5bfe 01bd 5bd5 46bd 75b2 893d
00000070: 0371 603d ed62 e13c 743c dabb 59fd 1bbd
00000080: e58c 30bd 9c8b e9bc c69a 68bc e83c 8bbd
00000090: db17 393d 8397 3abd bab7 80bd d92d 81bd
000000a0: 0ab2 0f3c a6ce 2dbc 80a7 433d 38ee e2bb
000000b0: 9a3a 033d 6c3d 39bc 5f64 49bd f8eb f83c
000000c0: 7602 71bc cb8f 34bd aa8a 7dbc 1f9a 73bd
000000d0: 11f9 053d a8c9 0e3c 7285 e9bb edd1 78bd
000000e0: 7058 1fbd 7dae 24bc 41bf 1dbd 0414 853d
000000f0: 9ad7 e13c 6a5d 62bd b04b 643c ef9b 9dbc
00000100: dc5a 87bd 34f2 803c 2f1d 823d 299e 19bc
00000110: eee0 863d f65a b4bb ecb7 293d e77c f3bb
00000120: f60b 62bd 7a1f e8bc 9fe8 ff3a b23f 29bd
00000130: 6260 d7bc e2de af3c 38fc 13bd 18a4 12bd
00000140: 5395 293d 86d0 10bd de60 d53c 0ebd 09bd
00000150: 6770 46bd 7550 3cbd f4f5 08bd 68ef 8cbd
00000160: de1c 30bc c967 a43c ba7f 493d 6d13 a03c
00000170: bde3 9c3c 8c6b 703d 4578 d6bc 3def 1abc
00000180: 3613 87bd 20b7 04bd a512 5d3d 5b72 bf3b
00000190: e9da 83bd 0e1f 6d3d d212 1fbd b138 93bd
000001a0: 1ac8 743b e947 3e3d 482e ba3a 0197 3cbc
000001b0: badf 9abc 5fd4 70bd 60f2 fa3c 1626 66bd
000001c0: dc58 ac3a 7b24 89bd 6fd4 4dbd 3509 843c
000001d0: c028 f73c d945 27bd 6b10 933c 369e 38bc
000001e0: 9539 35bd 7c71 3e3d aa39 543c 154c ba3c
000001f0: b75c b7bc 80f3 83bc d424 7c3d 7de1 39bc
00000200: b5d8 5cbd 42ac 80bd 4cf1 80bb fcb4 06bd
00000210: fb96 893b 85a8 38bc 6c4e 06bd 5a6a 4dbd
00000220: 72a3 4a3c a7b0 42bd 80be 7e3c 6f12 a63c
00000230: 5261 513c 9e4a 433d b582 7ebb a69a f73b
00000240: 1e83 9ebd de00 133c 3c9b 58bd 2505 96bc
00000250: 7375 f83b 9758 a13b a33d 90bb 39d6 89bd
00000260: 62fc 7abd 3ff0 b83c 1bf2 60bc 419d 28bd
00000270: 3bab 7e3c f5d8 8cbc 3724 b4bb c712 43bb
00000280: 8473 a3bc 2173 253b 3b51 77bd 3a46 82bc
00000290: c5e4 0bbc bdcc a73c 6ac6 6ebd 5731 86bc
000002a0: d55c be3c e3cd 2bbd 904a e13a 971b cb3c
000002b0: 8b4a b4bd 2f66 8dbd 3142 143d 07d5 64bb
000002c0: 833a 68bd 9536 d3bc 0b24 c4bc 6708 40ba
000002d0: 0d30 98bd 8bea ac3c 5746 cfbc 029f 91bd
000002e0: cdf4 32bd 306e 213c 4d0e b439 c42f 5dbd
000002f0: a256 54bc 8a95 663c 099b a5bd 6beb d1bd
00000300: 9d23 25bb 7dc9 ecbc 521c 20bd 8ade 713c
00000310: 4f2d 00bb 70ba 8fbd 638f fbbc 8cb7 75bc
00000320: edc7 93bd 115f dabc 6e0b ebbd 4d74 3cbe
00000330: 33f1 a9bd 9efb 72bd 447e f7bd 382e 22be
00000340: 4f2d bebd 6f9c 7cbe 92ad e6bd f897 6abe
00000350: 9c27 48bf 993c bd3e 7895 903e 41d8 1ebe
00000360: 69bf 623e c6ed 57bd 8b56 493e 7864 d8bd
00000370: 67f0 b1be 0981 03be e700 5ebf f6f5 583e
00000380: 3afb 043d 801a 78be ef53 1f3c ba67 0e3e
00000390: ff69 503d 00d6 7a3d 5ab9 963d 919d 2a3d
000003a0: 1e03 473d e12d 553d 80e2 7d3d 3d0e 9ebb
000003b0: 25f4 d83c a0a0 833c d009 523d 6c30 f63c
000003c0: 9223 85bd 45c5 f03c af0d c4bc 1031 e93b
000003d0: b62b 0dbb 5dcd 6f3d ecb3 bb3c 131c db3c
000003e0: c001 c03c 8e49 123c a028 25bb 6fd3 71bd
000003f0: 05db 4b3d 94ae 193c 7a02 92bd b3a4 76bd

layers.0.bias f4 [256]
-0.30805844 0.0065651615 0.13871604 -0.23533952 -0.18139197 -0.20977983 -0.047789767 -0.3886125
-0.16933255 -0.20205404 -0.57348686 -0.29320222 -0.07137752 -0.05140732 -0.16675267 0.081974685
-0.24634872 -0.16001262 -0.380087 -0.170587 0.01314156 -0.3048927 -0.17659815 -0.4373313
-0.29220304 -0.26435298 -0.13623004 -0.077075884 -0.3676155 -0.15884437 -0.24557032 -0.30640313
-0.13733543 -0.03266036 -0.0567566 -0.22475034 -0.3106102 0.06294593 -0.15932697 -0.1469265
-0.32118163 0.16706374 -0.09691956 -0.4632592 -0.19920978 -0.2135002 -0.10193686 -0.14044204
-0.18973531 -0.2531889 0.7264278 0.0654756 -0.26373535 -0.033522375 -0.23085846 -0.43375072
-0.2276468 -0.17805447 -0.007659728 0.06957938 0.292667 -0.14533323 -0.061482877 0.4698525
-0.07353924 -0.29692906 -0.20847729 -0.34029323 -0.25180554 0.0036060668 -0.070990615 -0.44231617
-0.30870524 0.033684313 0.06046566 -0.018801266 -0.0003347771 -0.11475337 -0.11198629 -0.10942574
-0.23054521 -0.44282785 -0.0058255447 -0.23782401 -0.25430462 -0.100060835 -0.07116432 0.20669058
-0.2625044 -0.44546872 -0.30888444 -0.19604976 0.051532455 -0.28382683 0.058325823 -0.3862142
0.0011701904 -0.18181914 0.025056086 -0.5528869 0.06130927 -0.15337953 0.007104595 -0.18110707
-0.18486418 -0.31859893 -0.42042068 -0.13705496 -0.5951114 -0.038603783 -0.2515034 -0.1664309
-0.10467938 -0.19362386 -0.20559636 -0.10428428 0.002338301 -0.51647437 -0.19337401 -0.2946031
-0.42728883 -0.2960685 -0.32889163 -0.4088033 0.034899056 -0.14691448 -0.050650813 0.18663344
-0.12846464 0.10885799 -0.20122077 -0.026744293 -0.17758825 -0.3019943 -0.35437843 -0.38431388
0.07000123 0.03910012 -0.38427147 -0.27822548 -0.22927064 -0.067407355 -0.37178117 -0.34709907
0.11326327 -0.111847006 -0.10469177 -0.055371236 -0.14077659 -0.18409002 -0.33128276 -0.28033993
-0.44214424 -0.016083853 -0.2400464 -0.40663874 -0.07525784 -0.2290614 -0.31915835 -0.124625795
-0.09740433 0.116667755 -0.03684124 -0.1281779 -0.1740547 0.011072919 -0.35797065 -0.03599928
-0.3074775 -0.41529298 -0.3630635 0.040208288 -0.2807564 -0.1178882 -0.341804 -0.3151995
-0.24515596 -0.16241084 0.5464629 -0.47217953 -0.15916121 -0.04545587 -0.24173538 -0.36550158
-0.34778848 -0.4048634 -0.21684735 -0.00015356275 -0.21974091 -0.17145997 -0.253901 0.42559773
-0.14041753 -0.4637122 -0.15712027 -0.22085336 -0.034636077 -0.42690954 -0.15932803 -0.06693689
0.3005863 -0.047727246 -0.01869775 -0.36369345 -0.08288431 -0.48469567 -0.027573256 -0.44480795
-0.46906775 -0.028576462 -0.11908273 -0.13174976 -0.0061115907 -0.21022485 -0.30856186 0.14910233
-0.013861854 -0.105864614 -0.37654063 0.0544047 -0.70438045 0.071738645 -0.25369906 -0.24159631
-0.18304361 -0.11868844 0.16717044 -0.29709092 -0.12398612 -0.48654908 -0.22585498 -0.35802382
-0.08388626 -0.2325005 -0.5255586 -0.35947594 -0.16118316 0.08726106 -0.19980964 -0.49567223
-0.39956564 -0.12657517 0.06060068 0.32493016 0.051258363 -0.3155591 -0.35749108 -0.5900499
0.10620461 -0.35954434 -0.2566259 -0.21781176 -0.371126 -0.20012005 -0.14988384 -0.08379382
00000000: d6b9 9dbe 9120 d73b 940b 0e3e d8fc 70be
00000010: d1be 39be 86d0 56be 34bf 43bd 38f8 c6be
00000020: 8365 2dbe 41e7 4ebe 09d0 12bf 9a1e 96be
00000030: 612e 92bd 7b90 52bd 36c1 2abe 58e2 a73d
00000040: d742 7cbe 59da 23be c39a c2be 5cae 2ebe
00000050: b34f 573c e51a 9cbe 25d6 34be e3e9 dfbe
00000060: a39b 95be 4659 87be e37f 0bbe f6d9 9dbd
00000070: 1938 bcbe 19a8 22be c976 7bbe dfe0 9cbe
00000080: a9a1 0cbe dfc6 05bd 9c79 68bd f424 66be
00000090: 4d08 9fbe cce9 803d 9c26 23be e773 16be
000000a0: eb71 a4be c212 2b3e c37d c6bd 4f30 edbe
000000b0: a6fd 4bbe cc9f 5abe 46c4 d0bd 0ad0 0fbe
000000c0: f949 42be faa1 81be 2cf7 393f 1218 863d
000000d0: 5208 87be c24e 09bd 2966 6cbe 9314 debe
000000e0: 3e1c 69be e953 36be 75fe fabb a27f 8e3d
000000f0: 73d8 953e 3cd2 14be 78d5 7bbd 8290 f03e
00000100: be9b 96bd 1607 98be 127b 55be ea3a aebe
00000110: a8ec 80be c353 6c3b 8763 91bd 4477 e2be
00000120: 9d0e 9ebe 90f8 093d d7aa 773d 1d05 9abc
00000130: 0685 afb9 d103 ebbd 1159 e5bd 9a1a e0bd
00000140: 0b14 6cbe 55ba e2be 36e4 bebb 2388 73be
00000150: 3734 82be b2ec ccbd 99be 91bd b2a6 533e
00000160: fa66 86be 7a14 e4be 1a26 9ebe 45c1 48be
00000170: b213 533d c051 91be 0fe7 6e3d debd c5be
00000180: 1361 993a cc2e 3abe 6c42 cd3c ff89 0dbf
00000190: 6e1f 7b3d 860f 1dbe aacd e83b 2274 39be
000001a0: 094d 3dbe 661f a3be 6141 d7be 2358 0cbe
000001b0: 3959 18bf 001f 1ebd 0ec5 80be dd6c 2abe
000001c0: 2562 d6bd 5545 46be da87 52be ff92 d5bd
000001d0: 2e3e 193b aa37 04bf d603 46be 38d6 96be
000001e0: 9ac5 dabe 4a96 97be 7c64 a8be ab4e d1be
000001f0: 50f2 0e3d c070 16be 3a77 4fbd d61c 3f3e
00000200: 3c8c 03be f0f0 de3d d10c 4ebe d916 dbbc
00000210: b2d9 35be ff9e 9abe 1771 b5be cac4 c4be
00000220: ce5c 8f3d 7327 203d 3bbf c4be 9273 8ebe
00000230: ecc5 6abe de0c 8abd 1a5a bebe f8b6 b1be
00000240: 93f6 e73d 0b10 e5bd a468 d6bd f3cc 62bd
00000250: bd27 10be 1882 3cbe e59d a9be b788 8fbe
00000260: bb60 e2be 49c2 83bc b9ce 75be f432 d0be
00000270: c820 9abd 128f 6abe b968 a3be cf3b ffbd
00000280: ec7b c7bd 81ef ee3d d7e6 16bd 1141 03be
00000290: 653b 32be 306b 353c ee47 b7be fb73 13bd
000002a0: b16d 9dbe 48a1 d4be 76e3 b9be 72b1 243d
000002b0: 4ebf 8fbe 5e6f f1bd ef00 afbe d461 a1be
000002c0: 2a0a 7bbe 074f 26be fee4 0b3f 84c1 f1be
000002d0: 28fb 22be ef2f 3abd 7b89 77be 0623 bbbe
000002e0: 5511 b2be 414a cfbe 3b0d 5ebe b005 21b9
000002f0: c303 61be 3493 2fbe 50ff 81be f2e7 d93e
00000300: 9dc9 0fbe af6b edbe 23e4 20be 6227 62be
00000310: 8fde 0dbd e393 dabe e326 23be 3516 89bd
00000320: 73e6 993e a57d 43bd 062c 99bc 0736 babe
00000330: 40bf a9bd 082a f8be 4fe1 e1bc debd e3be
00000340: a629 f0be 2f19 eabc a5e1 f3bd 69e9 06be
00000350: bd43 c8bb 2f45 57be d2fb 9dbe 48ae 183e
00000360: d41c 63bc 8ccf d8bd efc9 c0be 76d7 5e3d
00000370: 4752 34bf b6eb 923d d8e4 81be 0665 77be
00000380: c96f 3bbe ed12 f3bd ba2e 2b3e 4d1c 98be
00000390: 6fec fdbd f61c f9be 8746 67be e64e b7be
000003a0: 8fcc abbd 9c14 6ebe 028b 06bf 3b0d b8be
000003b0: 330d 25be edb5 b23d e69a 4cbe c0c8 fdbe
000003c0: de93 ccbe ec9c 01be 6b38 783d 3f5d a63e
000003d0: 4af4 513d f690 a1be 1209 b7be 830d 17bf
000003e0: cd81 d93d 3216 b8be 7864 83be 0c0a 5fbe
000003f0: 3a04 bebe 45ec 4cbe 267b 19be 189c abbd

layers.2.weight f4 [128, 256]
0.20509383 0.13265574 -0.054075226 -0.09920671 -0.4158931 0.5726513 -0.092596136 0.030287372
0.037590463 -0.2979051 0.20966135 0.2588826 -0.06622538 -0.0076547004 -0.21620749 -0.5059407
-0.83402836 0.12277483 0.2787644 0.37132636 0.35975754 0.5472897 -0.004373794 0.34541413
-0.13697448 0.39243162 0.19002566 -0.32516894 0.3441314 0.040486317 -0.19485195 0.20431079
0.09300668 0.123660885 0.26032287 0.47236785 0.10106107 -0.1761511 0.04825903 0.14492774
-0.54926205 0.091662176 -0.0696541 1.2257905 -0.23341775 0.28871062 -0.045197606 -0.40991125
-0.102477215 -0.9646231 -0.07712834 -0.60849965 0.027085908 0.15762022 -0.16185203 0.16910635
0.3232945 -0.110410936 -0.6815263 -0.16882999 0.08156403 -0.5592551 0.045744807 0.038261794
0.021021862 -0.12862556 -0.23715034 -0.04408409 -0.63631076 0.019324254 -0.44905722 -0.37136415
0.27480048 0.09768763 0.29423904 -0.65939933 0.41374898 0.20893732 -0.29707927 0.048051704
0.17061542 0.23634335 0.30566645 -0.14394267 0.3362489 -0.14637782 0.18899213 -0.08837335
0.03565904 -0.3592199 -0.1229481 -0.17669187 -0.3023799 -0.6713288 0.33981508 -0.12230435
0.019742638 -0.00011172283 -0.06231943 -0.23614311 -0.5711622 0.17514665 0.2759678 0.026272211
0.16605288 0.30258635 0.060985956 0.17508909 0.43922585 -0.029680116 -0.2598338 -0.31760296
0.090442784 0.08196833 0.023809383 -0.40038708 0.13242233 -0.07668073 -0.30382785 -0.2978227
0.20236665 -0.3562091 0.061338317 0.16588913 -0.9529954 -0.5565536 0.083693236 -0.0890904
0.2692629 -0.4840869 -0.28433162 -0.039720185 0.10856557 -0.24176356 0.23608713 -0.14184344
-0.4062052 -0.26621664 0.1770199 0.23788226 0.27093235 0.21043117 0.2527108 0.42312106
-0.32428566 -0.016537007 -0.068900965 0.35555103 0.77415824 0.23241399 -0.105848156 -0.059948638
-0.87699264 -0.57852453 0.4424457 -0.03693459 0.15387748 -0.0022427712 -0.20926623 -0.0031519358
-0.08945741 -0.7274502 0.05034407 0.087779224 -0.46459007 -0.14917819 0.198453 -0.18566407
-0.6292693 -0.11902829 0.30591032 -0.21724525 0.34723863 0.13890189 -0.6951157 -0.83355653
0.09259539 -0.016197821 0.3921904 0.3070019 0.07214826 0.051954783 0.06466282 -0.3462118
-0.38661364 0.115541674 -0.07064875 -0.21129036 -0.28242582 0.4319715 0.17887925 -0.39898232
-0.4187185 -0.5459801 -0.82099617 0.044354685 -0.17536104 -0.12780963 0.19636324 -0.36396125
-0.30508286 -0.017497387 -0.5332049 -0.078317374 -0.5845457 0.17246708 0.06808619 -0.022760157
-0.54214585 -0.10102148 -0.55718803 0.57371026 -0.3738003 0.19427949 -0.16069447 0.07878748
0.34225997 -0.2168594 -0.8219808 -0.09062537 0.47155806 0.012271293 0.31185126 0.21534666
0.3847027 0.8601624 -0.16122785 -0.37356412 0.20463742 -0.17879885 0.6563161 0.18462116
0.012291518 0.3215256 -0.1731212 -0.36354333 0.063632675 -0.557088 0.090852395 -0.05055042
-0.16493532 0.408572 -0.105296984 0.4699763 -0.34771672 -0.90785456 -0.666165 0.55021447
-0.1568542 -0.29317605 -0.075595796 0.087681055 -0.007345744 -0.073755816 0.20992109 0.27648735
00000000: 1e04 523e e8d6 073e fc7d 5dbd e32c cbbd
00000010: f1ef d4be 4799 123f 0ba3 bdbd 391d f83c
00000020: 75f8 193d 0487 98be 77b1 563e 438c 843e
00000030: 2ca1 87bd 48d4 fabb 7f65 5dbe 5485 01bf
00000040: e282 55bf 5f71 fb3d 35ba 8e3e 7d1e be3e
00000050: 2432 b83e 2e1b 0c3f 0b52 8fbb 1fda b03e
00000060: 0a43 0cbe ccec c83e 1696 423e 8b7c a6be
00000070: fe31 b03e fbd4 253d 4587 47be d936 513e
00000080: 497a be3d eb41 fd3d 0a49 853e 33da f13e
00000090: 1bf9 ce3d f460 34be 43ab 453d f067 143e
000000a0: 709c 0cbf 61b9 bb3d cfa6 8ebd b4e6 9c3f
000000b0: 1005 6fbe e1d1 933e 2021 39bd e3df d1be
000000c0: 93df d1bd 8af1 76bf 77f5 9dbd a2c6 1bbf
000000d0: 44e3 dd3c 3267 213e 8abc 25be 372a 2d3e
000000e0: db86 a53e 211f e2bd 8278 2ebf c5e1 2cbe
000000f0: 0b0b a73d 582b 0fbf e85e 3b3d 66b8 1c3d
00000100: 0a36 ac3c 6bb6 03be 8ad7 72be 8591 34bd
00000110: 43e5 22bf e64d 9e3c d4ea e5be 7123 bebe
00000120: a6b2 8c3e 7410 c83d 80a6 963e 65ce 28bf
00000130: e8d6 d33e aaf3 553e c61a 98be ddd1 443d
00000140: cfb5 2e3e fe03 723e 5080 9c3e b565 13be
00000150: d128 ac3e 11e4 15be 2787 413e 16fd b4bd
00000160: 370f 123d aceb b7be 37cc fbbd b7ee 34be
00000170: 8ad1 9abe 34dc 2bbf 3efc ad3e b47a fabd
00000180: 50bb a13c bd4c eab8 a942 7fbd 80cf 71be
00000190: b037 12bf a559 333e a74b 8d3e d238 d73c
000001a0: c409 2a3e 99ec 9a3e 69cc 793d 8e4a 333e
000001b0: 36e2 e03e b723 f3bc f008 85be db9c a2be
000001c0: 113a b93d 03df a73d e50b c33c 89ff ccbe
000001d0: b899 073e c90a 9dbd 538f 9bbe 387c 98be
000001e0: 3439 4f3e 0a61 b6be e33d 7b3d d7de 293e
000001f0: 82f7 73bf 4c7a 0ebf 5c67 ab3d 0775 b6bd
00000200: d4dc 893e 3dda f7be ea93 91be a2b1 22bd
00000210: a057 de3d de90 77be d3c0 713e 683f 11be
00000220: 21fa cfbe 8c4d 88be b444 353e 6897 733e
00000230: a5b7 8a3e 457b 573e 4f63 813e 53a3 d83e
00000240: c508 a6be 9e78 87bc f31b 8dbd c90a b63e
00000250: 3c2f 463f effd 6d3e ebc6 d8bd b48c 75bd
00000260: 9782 60bf 2f1a 14bf 3e88 e23e ba48 17bd
00000270: 0f92 1d3e 75fb 12bb e349 56be b590 4ebb
00000280: 7235 b7bd 2d3a 3abf 9535 4e3d 98c5 b33d
00000290: c0de edbe 2bc2 18be 4337 4b3e b91e 3ebe
000002a0: cb17 21bf 1bc5 f3bd 47a0 9c3e 8a75 5ebe
000002b0: 43c9 b13e 4c3c 0e3e 1af3 31bf f663 55bf
000002c0: a7a2 bd3d 4bb1 84bc 2ecd c83e 5a2f 9d3e
000002d0: 78c2 933d 8ace 543d f16d 843d ac42 b1be
000002e0: 39f2 c5be 1da1 ec3d 4bb0 90bd 805c 58be
000002f0: 1e9a 90be 5e2b dd3e 1f2c 373e 6947 ccbe
00000300: 4562 d6be 5ac5 0bbf ce2c 52bf 42ad 353d
00000310: d891 33be 87e0 02be 7213 493e 2159 babe
00000320: d233 9cbe ae56 8fbc 1e80 08bf dc64 a0bd
00000330: c9a4 15bf 369b 303e c670 8b3d 8273 babc
00000340: 12ca 0abf 5ae4 cebd e0a3 0ebf adde 123f
00000350: c162 bfbe 34f1 463e 178d 24be 555b a13d
00000360: b33c af3e 6410 5ebe 556d 52bf cb99 b9bd
00000370: 0f70 f13e 890d 493c f8aa 9f3e d683 5c3e
00000380: c1f7 c43e 9a33 5c3f ea18 25be cc43 bfbe
00000390: 798c 513e 0c17 37be 5504 283f 540d 3d3e
000003a0: 5d62 493c 019f a43e af46 31be 5a22 babe
000003b0: d951 823d 529d 0ebf d210 ba3d f50d 4fbd
000003c0: cee4 28be 5930 d13e f2a5 d7bd bca0 f03e
000003d0: ed07 b2be 2869 68bf ca89 2abf dbda 0c3f
000003e0: 639e 20be 2c1b 96be f8d1 9abd 2092 b33d
000003f0: 91b4 f0bb 4a0d 97bd 8ef5 563e c08f 8d3e

layers.2.bias f4 [128]
-0.28063187 -0.4172613 -0.3322167 -0.038208194 -0.47014531 0.10267334 -0.14651948 -0.22152165
-0.07248616 -0.5084256 -0.25679028 -0.5320349 -0.204806 -0.15529224 -0.07227026 -0.052056678
-0.5752774 -0.019582747 -0.015525718 -0.029974097 -0.073841654 -0.10947497 -0.7132692 -0.042320203
-0.51590735 -0.05481332 -0.07287801 -0.044843618 -0.076776035 -0.38353765 -0.04559064 -0.25878096
-0.87674713 -0.054931313 -0.064704366 -0.4913871 -0.62833714 -0.0045560542 -0.25570226 0.13939579
-0.50573903 -0.16307299 -0.2488206 -0.09553446 -0.0014001117 -0.64880514 -0.11429679 -0.63335854
-0.033359043 0.22293231 -0.2414645 -0.41103208 -0.24978055 -0.37113053 -0.06076936 -0.23858915
-0.31585804 -0.050429724 -0.0036455353 -0.13220577 -0.31860188 -0.14949042 -0.47718906 -0.19465202
-0.27055722 -0.1861335 -0.84435767 -0.57805437 -0.34238786 -0.32780734 -0.047020026 -0.3120083
-0.17003644 -0.060004756 -0.2817969 -0.10533948 0.035483953 0.061438195 -0.04627748 0.18819167
-0.04639811 -0.068283714 0.044636115 -0.44068292 -0.41378403 -0.648148 -0.07653843 0.037020087
-0.30612266 -0.77572215 -0.37649623 0.0282509 -0.094689466 -0.08841331 -0.5394503 -0.51229227
-0.029396163 0.030707063 -0.30340376 -0.33722842 -0.06944609 -0.082564756 -0.029535769 -0.45800212
-0.03628342 -0.11804787 -0.11262063 0.33381152 -0.060862564 0.25304413 -0.41234145 -0.0928366
-0.042360835 -0.13204436 -0.5332198 0.016116653 0.10779716 -0.06600853 0.113216214 -0.24575475
0.12600166 -0.07436186 0.07436612 -0.039213326 -0.0908045 -0.012786211 -0.47025687 0.054854475
00000000: fbae 8fbe 46a3 d5be 4f18 aabe 3280 1cbd
00000010: e3b6 f0be 6646 d23d 3409 16be 92d6 62be
00000020: a073 94bd 2e28 02bf 047a 83be 7033 08bf
00000030: aab8 51be ee04 1fbe 6e02 94bd 6239 55bd
00000040: 6145 13bf ff6b a0bc 955f 7ebc 3d8c f5bc
00000050: 4b3a 97bd 6a34 e0bd cf98 36bf f357 2dbd
00000060: 8112 04bf ef83 60bd 1141 95bd f1ad 37bd
00000070: c13c 9dbd 0c5f c4be 40bd 3abd f07e 84be
00000080: 8072 60bf a8ff 60bd b983 84bd 1797 fbbe
00000090: b4da 20bf f44a 95bb 68eb 82be c5bd 0e3e
000000a0: 1d78 01bf 9bfc 26be d4ca 7ebe 92a7 c3bd
000000b0: f483 b7ba 1818 26bf 6f14 eabd c923 22bf
000000c0: 7ea3 08bd 5e48 643e 7842 77be cc72 d2be
000000d0: 79c6 7fbe d204 bebe 4be9 78bd b750 74be
000000e0: 25b8 a1be 668f 4ebd efe9 6ebb f360 07be
000000f0: c91f a3be 0414 19be 2052 f4be dc52 47be
00000100: 7a86 8abe c899 3ebe d327 58bf 5ffb 13bf
00000110: 764d afbe 5dd6 a7be 1298 40bd 8dbf 9fbe
00000120: 081e 2ebe 8cc7 75bd af47 90be 3abc d7bd
00000130: 9f57 113d 9ea6 7b3d 748d 3dbd 51b5 403e
00000140: f20b 3ebd 55d8 8bbd 5cd4 363d 31a1 e1be
00000150: 80db d3be 07ed 25bf 2ec0 9cbd 60a2 173d
00000160: 1cbc 9cbe ba95 46bf 1dc4 c0be 6e6e e73c
00000170: 8dec c1bd 0a12 b5bd 6a19 0abf 9625 03bf
00000180: 39d0 f0bc 618d fb3c bd57 9bbe 34a9 acbe
00000190: c039 8ebd b617 a9bd fff4 f1bc 417f eabe
000001a0: ec9d 14bd 15c3 f1bd a5a5 e6bd 58e9 aa3e
000001b0: 064b 79bd 008f 813e 6b1e d3be 1e21 bebd
000001c0: 8e82 2dbd a336 07be 1881 08bf 1207 843c
000001d0: c2c4 dc3d 7b2f 87bd e7dd e73d 22a7 7bbe
000001e0: 9406 013e 084b 98bd 444d 983d 279e 20bd
000001f0: b6f7 b9bd 427d 51bc 82c5 f0be 16af 603d

layers.4.weight f4 [32, 128]
-0.34287563 -0.3487481 -0.026565038 0.0713081 0.26977977 -0.21542683 0.19003054 -0.44576398
0.29006147 0.34139797 -0.2863797 -0.42208445 -0.12012515 -0.13813342 0.003101655 0.087366395
-0.06813514 -0.2767134 -0.011721515 0.077764094 0.066687785 -0.05975086 0.4153457 -0.13058323
0.060408328 0.036732305 -0.019270351 0.07299774 0.036026012 -0.5963013 -0.1656255 0.13553049
0.4277639 -0.18986915 -0.56842446 0.5192413 -0.029382633 0.018799555 -0.23506476 -0.049512498
0.43493146 -0.6409474 0.20569703 -0.03475647 -0.21532877 -0.04033641 -0.014374743 0.36136207
-0.059677493 -0.42662564 -0.2989779 0.23312218 0.058849115 0.12679884 0.18487903 0.3238308
0.13275893 0.06919989 -0.22560398 -0.05959764 0.2616614 -0.07015578 0.22141102 -0.09620571
0.113510884 -0.16360879 0.40932667 0.49363104 0.21373746 0.13787937 0.20516466 -0.508485
-0.41387364 -0.06975191 0.13445447 -0.39382106 -0.297307 0.34220108 -0.09116554 -0.1545723
-0.51762575 -0.040966827 0.15195116 -0.22114122 0.32566234 0.20640637 -0.035040706 -0.18962066
0.16428523 0.47097823 0.24100527 -0.24617143 0.05734825 0.05669021 0.42702642 0.110124715
-0.55313385 -0.23458166 0.27141345 -0.77648 -0.11519287 -0.0725593 -0.36423692 0.24832985
-0.3065976 -0.35639787 0.077294804 0.0819432 -0.34533486 -0.09707788 0.21857479 -0.09258694
0.043465957 -0.8121619 0.25767854 -0.10952284 -0.02843039 -0.34311494 0.14732543 0.25590202
0.17226914 -0.4356705 0.043295637 0.06345999 -0.04567354 -0.11765957 0.25756752 0.030627195
0.20584613 0.33101195 0.15272191 -0.5183362 0.1697949 0.16080034 0.24647944 -0.41432634
-0.24559012 0.25277743 0.14189789 -0.13478892 -0.15103771 -0.19471861 -0.0028292465 -0.22908776
-0.40151498 0.089708425 0.056096774 0.057262283 0.0689015 0.076313704 -0.4621602 -0.71831715
-0.07227337 -0.013974935 -0.07085225 -0.09935168 -0.0013912449 0.14172208 0.2337967 0.19777532
-0.2634686 -0.11217217 -0.36715853 -0.15811871 -0.058788523 0.0071115973 -0.21525766 -0.09915982
0.22376701 -0.120383054 0.1795083 0.0040589236 -0.4829804 -0.101255834 0.013529255 -0.036267586
-0.028405653 -0.48206398 0.23283686 -0.2474826 0.12345179 -0.44807696 0.22668692 0.04111042
-0.8219707 0.016977958 0.13455166 0.39996168 -0.21523184 -0.1768898 -0.00767817 -0.37442514
-0.23567966 0.11570924 -0.034545958 -0.05533819 -0.092134446 -0.06719609 0.18053344 0.50560915
0.032179236 0.056332354 -0.14798485 0.25567964 0.23962486 -0.3799852 0.004115394 -0.13746528
-0.03562593 0.03783456 -0.2060036 -0.04614436 0.37202638 0.26220542 -0.034479123 -0.3211548
-0.30750927 0.23293403 -0.0005682951 0.15604404 -0.03413115 0.046013128 -0.18519622 0.17975307
-0.0855409 0.06402926 -0.55855286 0.18193044 -0.11574317 0.05014021 0.08244868 -0.19162542
0.08745842 -0.39579597 -0.21922337 -0.05014326 0.034477256 0.055081557 0.058835987 3.439393e-05
0.01625957 0.015951045 -0.25356138 0.013130292 -0.10980197 0.0748301 -0.059642304 -1.2686793
0.11798802 0.082264535 -0.8061558 0.03149644 0.056169566 0.023877181 -0.23667361 -0.07518852
00000000: 658d afbe 1c8f b2be ec9e d9bc fb09 923d
00000010: 9320 8a3e da98 5cbe 5e97 423e 2d3b e4be
00000020: f082 943e b7cb ae3e 5ca0 92be 741b d8be
00000030: 2d04 f6bd d972 0dbe 2345 4b3b 27ed b23d
00000040: 708a 8bbd 61ad 8dbe 990b 40bc c842 9f3d
00000050: 9b93 883d 51bd 74bd 31a8 d43e 9cb7 05be
00000060: b96e 773d 9d74 163d dbdc 9dbc d77f 953d
00000070: 0390 133d 34a7 18bf bb99 29be 81c8 0a3e
00000080: df03 db3e 0f6d 42be 4484 11bf ffec 043f
00000090: d9b3 f0bc 8601 9a3c d1b4 70be 9ecd 4abd
000000a0: 56af de3e 2115 24bf 3ea2 523e cd5c 0ebd
000000b0: 257f 5cbe cb37 25bd 0b84 6bbc 7304 b93e
000000c0: 6370 74bd ad6e dabe a213 99be 95b7 6e3e
000000d0: c50b 713d 8ed7 013e ee50 3d3e 27cd a53e
000000e0: f5f1 073e acb8 8d3d bb04 67be a81c 74bd
000000f0: 7cf8 853e d5ad 8fbd 92b9 623e 8007 c5bd
00000100: 6578 e83d 1089 27be 4493 d13e 35bd fc3e
00000110: fedd 5a3e 4030 0d3e af16 523e 132c 02bf
00000120: 3fe7 d3be 17da 8ebd 6fae 093e eaa2 c9be
00000130: a038 98be fb34 af3e 00b5 babd 3348 1ebe
00000140: 1f83 04bf d5cc 27bd 1699 1b3e d872 62be
00000150: 37bd a63e 315c 533e d886 0fbd eb2b 42be
00000160: 633a 283e 0f24 f13e 16ca 763e 5d14 7cbe
00000170: 00e6 6a3d fe33 683d 35a3 da3e 1189 e13d
00000180: 2e9a 0dbf 2d36 70be b4f6 8a3e 65c7 46bf
00000190: 3dea ebbd f899 94bd 437d babe 2e4a 7e3e
000001a0: 5cfa 9cbe c879 b6be bd4c 9e3d d6d1 a73d
000001b0: bbcf b0be c4d0 c6bd 12d2 5f3e 399e bdbd
000001c0: 5c09 323d d8e9 4fbf 71ee 833e 834d e0bd
000001d0: d9e6 e8bc c3ac afbe 7adc 163e 9705 833e
000001e0: 5267 303e 3410 dfbe c456 313d 50f7 813d
000001f0: 2e14 3bbd 80f7 f0bd e4df 833e e2e5 fa3c
00000200: 54c9 523e 667a a93e 2263 1c3e aeb1 04bf
00000210: b7de 2d3e d8a8 243e 1b65 7c3e 9522 d4be
00000220: fa7b 7bbe 0b6c 813e ae4d 113e 1b06 0abe
00000230: a1a9 1abe 5164 47be e16a 39bb fb95 6abe
00000240: 5f93 cdbe 0db9 b73d bbc5 653d db8b 6a3d
00000250: 3b1c 8d3d 5c4a 9c3d 43a0 ecbe a2e3 37bf
00000260: 1004 94bd 20f7 64bc fc1a 91bd e578 cbbd
00000270: 6f5a b6ba 981f 113e 6768 6f3e 9d85 4a3e
00000280: 5be5 86be 86ba e5bd 34fc bbbe dfe9 21be
00000290: 3ccc 70bd 6708 e93b 816c 5cbe 4e14 cbbd
000002a0: 2e23 653e 648b f6bd 06d1 373e b800 853b
000002b0: 3549 f7be 385f cfbd cfa9 5d3c 528d 14bd
000002c0: f9b2 e8bc 17d1 f6be c96c 6e3e 146c 7dbe
000002d0: 4bd4 fc3d 586a e5be 9e20 683e 6663 283d
000002e0: ac6c 52bf 5c15 8b3c e9c7 093e c7c7 cc3e
000002f0: bc65 5cbe 9a22 35be 2999 fbbb a7b4 bfbe
00000300: 0256 71be f7f8 ec3d 1080 0dbd 4caa 62bd
00000310: fcb0 bcbd 1b9e 89bd c2dd 383e 9a6f 013f
00000320: 60ce 033d c1bc 663d 5789 17be 71e8 823e
00000330: 3860 753e 6c8d c2be 6dda 863b b3c3 0cbe
00000340: 7fec 11bd 69f8 1a3d 9cf2 52be de01 3dbd
00000350: 3e7a be3e ca3f 863e fb39 0dbd 676e a4be
00000360: db71 9dbe 4286 6e3e a3f9 14ba 02ca 1f3e
00000370: 1bcd 0bbd 4378 3c3d 14a4 3dbe 3011 383e
00000380: 1130 afbd c621 833d 52fd 0ebf f94b 3a3e
00000390: c10a edbd d25f 4d3d dbda a83d 7439 44be
000003a0: 661d b33d c5a5 cabe 177c 60be 0563 4dbd
000003b0: 0638 0d3d 339d 613d 01fe 703d 3342 1038
000003c0: ca32 853c c4ab 823c ccd2 81be 7020 573c
000003d0: dbdf e0bd 8640 993d 7d4b 74bd 1564 a2bf
000003e0: b4a3 f13d 4f7a a83d 3a60 4ebf 6902 013d
000003f0: 0f12 663d 149a c33c 915a 72be 70fc 99bd

layers.4.bias f4 [32]
0.08805971 -0.20256987 0.052363854 0.0038226275 0.003002945 0.0024842236 0.0059326137 0.007587553
-0.32988673 0.039568875 -0.39316598 0.08385903 -0.28066382 0.027980173 0.028589625 -0.30057427
0.0048381938 0.072939284 -0.52505475 -0.25608096 -0.23925716 -0.39187157 0.09279183 0.038305327
0.053061917 -0.087715015 0.065157406 -0.3178337 -0.46670717 -0.29816878 -0.43689525 0.009008028
00000000: a658 b43d 7a6e 4fbe 7b7b 563d 0c85 7a3b
00000010: 0fcd 443b 5bce 223b 5f66 c23b 02a1 f83b
00000020: eae6 a8be f912 223d 0d4d c9be 48be ab3d
00000030: 2bb3 8fbe ad36 e53c ca34 ea3c dfe4 99be
00000040: b689 9e3b 3161 953d fd69 06bf 0b1d 83be
00000050: d4ff 74be 64a3 c8be a509 be3d 0ce6 1c3d
00000060: 7457 593d eea3 b3bd 3f71 853d 19bb a2be
00000070: 3ef4 eebe 94a9 98be bcb0 dfbe 6896 133c

layers.7.weight f4 [1, 32]
0.007371693 -0.010374076 0.005861289 -0.0038469208 -0.0038707373 -0.004740578 -0.0033488115 -0.0049023917
-0.015918214 0.011255265 -0.013913497 0.007918039 0.040699374 0.015308862 0.011995292 0.06658029
-0.0045474945 0.00825917 0.089536466 -0.048796643 -0.013175277 0.078586444 0.006694506 0.007155188
0.009462203 -0.05012893 0.0063019455 0.0937075 -0.012634247 0.04681905 0.025507748 -0.0039980914
00000000: 3e8e f13b 07f8 29bc 0e10 c03b 9f1c 7cbb
00000010: 32ac 7dbb da56 9bbb bc77 5bbb 3ea4 a0bb
00000020: ea66 82bc 0168 383c 70f5 63bc aaba 013c
00000030: 63b4 263d 05d2 7a3c e787 443c 3f5b 883d
00000040: 2603 95bb 7851 073c e55e b73d fdde 47bd
00000050: 1edd 57bc eef1 a03d 965d db3b 1176 ea3b
00000060: 5b07 1b3c fe53 4dbd 8d80 ce3b b8e9 bf3d
00000070: dfff 4ebc 55c5 3f3d a0f5 d03c 6c02 83bb
