Theises/InstagramAnalytics-Python/prediction/models/best_model_2.pt (torch, 370767 bytes, 7 tensors)

layers.0.weight f4 [256, 214]
00000000: 1ea7 c0bd 198e e43d be60 503e a089 bbbe
00000010: 00ed 9ebe 62e2 10be 4c7c db3c b044 84be
00000020: 72b0 963d 33a5 403e bbb2 90be dbb4 da3c
00000030: 555d 3c3d ab3e 443e 6603 40bd 5589 613d
00000040: 412f 873c 3c26 eb3c 16e8 1a3d 3c65 8bbc
00000050: a577 1abd 1aa4 4fbd d01e 6c3d 3be5 4cbd
00000060: c21a 763d 5bfe 01bd 5bd5 46bd 75b2 893d
00000070: 0371 603d ed62 e13c 743c dabb 59fd 1bbd
00000080: e58c 30bd 9c8b e9bc c69a 68bc e83c 8bbd
00000090: db17 393d 8397 3abd bab7 80bd d92d 81bd
000000a0: 0ab2 0f3c a6ce 2dbc 80a7 433d 38ee e2bb
000000b0: 9a3a 033d 6c3d 39bc 5f64 49bd f8eb f83c
000000c0: 7602 71bc cb8f 34bd aa8a 7dbc 1f9a 73bd
000000d0: 11f9 053d a8c9 0e3c 7285 e9bb edd1 78bd
000000e0: 7058 1fbd 7dae 24bc 41bf 1dbd 0414 853d
000000f0: 9ad7 e13c 6a5d 62bd b04b 643c ef9b 9dbc
00000100: dc5a 87bd 34f2 803c 2f1d 823d 299e 19bc
00000110: eee0 863d f65a b4bb ecb7 293d e77c f3bb
00000120: f60b 62bd 7a1f e8bc 9fe8 ff3a b23f 29bd
00000130: 6260 d7bc e2de af3c 38fc 13bd 18a4 12bd
00000140: 5395 293d 86d0 10bd de60 d53c 0ebd 09bd
00000150: 6770 46bd 7550 3cbd f4f5 08bd 9c3d 93bd
00000160: 8f8e 62bc f02e 8b3c 54e3 3c3d 94da 863c
00000170: e4aa 833c 26cf 633d 1eb1 efbc ee60 4dbc
00000180: 6a61 8dbd 8353 11bd 3f76 503d e41d 353b
00000190: 1d29 8abd a882 603d 38af 2bbd e586 99bd
000001a0: 0b05 2c3a 83ab 313d 765f d9ba b208 6fbc
000001b0: 9218 b4bc c570 7dbd 82b9 e13c 7cc2 72bd
000001c0: e234 e7ba af72 8fbd d570 5abd b7a0 553c
000001d0: e2ef dd3c 3fe2 33bd 1caf 733c e70f 6bbc
000001e0: fbd5 41bd 16d5 313d f9c7 213c 3c13 a13c
000001f0: 9095 d0bc 562c 9dbc 6e88 6f3d 2e53 6cbc
00000200: 1b75 69bd 74fa 86bd b4d4 e5bb 5f51 13bd
00000210: 38ce 923a 361a 6bbc cfea 12bd c006 5abd
00000220: c131 183c 0d4d 4fbd c94c 4c3c 96d9 8c3c
00000230: a1ef 1e3c 38ae 363d c424 e4bb 39b7 923b
00000240: 52d1 a4bd 571e c13b a237 65bd fe3d afbc
00000250: 0792 933b aad4 f13a 1121 f5bb 6d24 90bd
00000260: 66cc 83bd 66b7 9f3c e4b1 89bc a739 35bd
00000270: 8539 4c3c cc11 a6bc d483 0cbc cb6c c6bb
00000280: 5cac bcbc e74e 11ba d1f6 81bd 107f 9bbc
00000290: 7756 3ebc e493 8e3c d062 7bbd 2e6a 9fbc
000002a0: fc23 a53c 496a 38bd 3043 b2ba bee2 b13c
000002b0: bf98 babd 63b4 93bd cba5 073d eb4d d7bb
000002c0: e9d6 74bd 6e6f ecbc e45c ddbc e6c8 79bb
000002d0: 417e 9ebd b2b1 933c 307f e8bc 36ed 97bd
000002e0: 3391 3fbd fef8 dd3b 0e45 33bb 2acc 69bd
000002f0: 2764 83bc d523 343c 3de9 abbd 9f39 d8bd
00000300: 3775 b7bb 2701 03bd b8b8 2cbd 5c96 7f3c
00000310: e198 92ba 6c03 8ebd 30b3 f4bc 5eff 67bc
00000320: ec10 92bd f582 d3bc 7154 e9bd 9098 3bbe
00000330: 353a a8bd 928d 6fbd 47c7 f5bd 7b52 21be
00000340: 5176 bcbd 4760 7dbe 0736 e8bd c242 04be
00000350: ed3c 03bf 8647 613e 6532 513e 137c 11be
00000360: 7c49 1e3e 18f6 64bc 546e 2a3e 1063 36bd
00000370: 11b5 bfbe af20 93be c1b1 9cbe 9166 423e
00000380: 7604 ab3d ce75 b83c ef53 1f3c 9586 263e
00000390: ab57 5d3d d6e1 833d 3030 9d3d c684 443d
000003a0: 53ea 603d 1615 6f3d dae4 8b3d e2ae c43a
000003b0: 4d61 063d 166f b73c 05f1 6b3d 6cff 143d
000003c0: ef5f 70bd d849 123d 393f 90bc 8535 5c3c
000003d0: 25a4 883b 4ada 843d 6282 ef3c 4475 073d
000003e0: 36d0 f33c 8be6 793c 5f4b 793b 3aec 57bd
000003f0: 3ac2 653d c8a5 803c e00e 85bd 7ebd 5cbd
-0.09406875 0.111599155 0.20349404 -0.36628437 -0.31040192 -0.14148858 0.026792668 -0.25833654
0.07357873 0.18813019 -0.2826136 0.026697567 0.045987446 0.19164531 -0.04687824 0.05506261
0.016502025 0.028704755 0.03781899 -0.017016046 -0.03771176 -0.05069361 0.057646573 -0.0500233
0.060084112 -0.031736713 -0.048543315 0.06723491 0.054795276 0.027512992 -0.0066600386 -0.038083408
-0.043103117 -0.028508954 -0.014197057 -0.06798726 0.045188766 -0.04555465 -0.06285043 -0.06307573
0.008770475 -0.010608351 0.047767162 -0.0069253705 0.03203831 -0.011306148 -0.049167987 0.030385956
-0.014710059 -0.044082444 -0.015474955 -0.059473153 0.03270823 0.008715071 -0.0071265036 -0.060747076
-0.0389027 -0.010051367 -0.038512472 0.06497958 0.027568627 -0.055264868 0.013934061 -0.019239394
-0.06609127 0.015740491 0.063532226 -0.009376087 0.06585871 -0.0055040075 0.041435167 -0.007430661
-0.055187188 -0.028335322 0.0019524283 -0.04132051 -0.026291076 0.021468583 -0.036129206 -0.035801023
0.041402172 -0.035355113 0.026047166 -0.033627562 -0.04844704 -0.045975167 -0.033437684 -0.071894854
-0.013827934 0.016990155 0.046115234 0.016461648 0.016072698 0.055617474 -0.02925926 -0.012535317
-0.06903346 -0.035480034 0.05089402 0.0027636224 -0.06746123 0.054812104 -0.04191515 -0.07496432
0.0006562031 0.043376457 -0.0016584236 -0.0145894755 -0.021984372 -0.061875124 0.027554277 -0.059267506
-0.0017639662 -0.07004296 -0.05333026 0.013038806 0.027091924 -0.043916937 0.014873292 -0.014347053
-0.04732321 0.043416105 0.009874337 0.019662492 -0.025461942 -0.01918618 0.05847972 -0.014424128
-0.056996446 -0.06590739 -0.0070138816 -0.035966273 0.0011200374 -0.014349511 -0.035868462 -0.053229094
0.009289206 -0.05061059 0.012469479 0.017193597 0.009700687 0.04459974 -0.0069623906 0.0044774082
-0.08047737 0.0058935094 -0.05596126 -0.021391865 0.004503492 0.001845022 -0.0074807485 -0.07038198
-0.0643547 0.01949663 -0.016808458 -0.044244435 0.012464886 -0.020272158 -0.008576352 -0.0060554496
-0.023031406 -0.00055430684 -0.063459046 -0.018981487 -0.0116172945 0.017404504 -0.06137353 -0.01945981
0.02015876 -0.045023236 -0.0013600346 0.021714564 -0.09111165 -0.072121404 0.033117097 -0.006570568
-0.059775267 -0.028861728 -0.027021833 -0.003811413 -0.07738925 0.018029068 -0.02838096 -0.07418291
-0.046769332 0.006774067 -0.0027354392 -0.05707947 -0.016038967 0.010994871 -0.08394096 -0.10557865
-0.00559869 -0.03198352 -0.04216835 0.015599813 -0.0011184477 -0.069342464 -0.0298706 -0.014160005
-0.07132134 -0.025819281 -0.11393059 -0.18319917 -0.08214227 -0.05848462 -0.120009 -0.1575412
-0.092022546 -0.24743758 -0.1133843 -0.12916091 -0.5126484 0.2199994 0.2042938 -0.14207487
0.1545772 -0.013974689 0.1664365 -0.044528067 -0.3744283 -0.28735873 -0.30604365 0.18984438
0.0835046 0.022517111 0.009724601 0.16262276 0.054038685 0.06439559 0.07675207 0.047978185
0.05491097 0.05836972 0.06830759 0.0015005732 0.032807637 0.022391837 0.0576029 0.0363764
-0.05868524 0.035714954 -0.017608272 0.013440494 0.004169958 0.06486948 0.029236976 0.033070818
0.029762369 0.01525272 0.003803931 -0.052715518 0.056093432 0.01570405 -0.06496978 -0.05389165

layers.0.bias f4 [256]
00000000: 8765 08be 42b7 8b3d 2523 ba3d 9945 20be
00000010: 7b0f 43bd b7b1 8dbd 5aad 63bb e8d0 c4bc
00000020: 7081 f7bd e7d6 42bd 4bf8 94be b88f c7bd
00000030: 33ed 51bd 0f4b 8cbd cbb3 f8bd 1f20 9f3d
00000040: d3cf 85bd c9b0 04be 90bd febd 462f cebd
00000050: bb31 923d 586d 26be 9155 efbb f2e6 58be
00000060: d83b ecbd 7c60 0cbe 4a06 e4bd 8f4a 8ab9
00000070: ee59 03be cf38 31bd 16b5 24be 12c7 55be
00000080: 4f91 6dbd 50ff 9b3b 3e46 cabb e811 08be
00000090: 74a9 52bd d888 0e3c 92d1 1dbe 01ca d8bc
000000a0: c67b 1bbe 389e d53d d8fa 88bd 5ae2 2abe
000000b0: 78b5 11be 9e98 4ebd 8f3a 413d 020b 00be
000000c0: da7f 14be dd7e 18be 6e5f b53e 3e21 9c3d
000000d0: d071 febd 6949 24bd 50b4 7abc 2a82 5abe
000000e0: 7ea1 9abd 26f6 95bd 31e3 5e3e 5b06 24bc
000000f0: a890 353e e94a 11be 78d5 7bbd bf74 763e
00000100: be9b 96bd 699d 32be 7df7 15bc 3794 11be
00000110: ad73 d6bd 1760 433d 68d4 183d 7e07 2abe
00000120: c2da a0bd 8726 e13b 6cdf a2bc 0edb d8bc
00000130: a36e b43d 7f03 b0bd 4ead a9bd a376 75bd
00000140: a83b d8bd 47db 97be 91c6 57bc b4c2 06be
00000150: 7bba 0cbe b191 a33c d4e1 a8bd 7564 3c3e
00000160: 2568 41be e3dd 48be 0482 adbd f73d b6bc
00000170: 0193 0c3c 0084 10be a2c1 9bbd 3bb7 54be
00000180: f83d c53c 3681 38bd c10c 90bd d05e 64be
00000190: c2c1 2d3c bebe bdbd afcf 1cbd 379b 1cbe
000001a0: b771 9bbd b10f 1bbe c2b3 eabd 4f50 6dbd
000001b0: 62b7 95be 8ea1 943c 38db 53be 316f 47bd
000001c0: 403a 9cbd 97b1 33be 7391 02be fd7e f8bd
000001d0: 75d0 033c cde5 4abe 62e7 edbd 0596 0abe
000001e0: 4513 08be d9a1 0bbe 31e9 e5bd d211 56be
000001f0: 2814 2c3d 9d7c 89bd 5aa6 17bd 09d7 e13d
00000200: 68e8 8c3c 6d1e 6e3d 84dc 7ebd 19fd 1cbd
00000210: 35b2 43bd 8fa2 eabd 251b 62be 0166 f4bd
00000220: b626 a43d f1b3 163d 4cdd f7bd eb0d 2cbe
00000230: 9218 d2bd 3d5a 3fbd 1c49 4bbe 0b51 29be
00000240: 9ad7 e93d 44f1 57bd 41bb e8bc 1978 e0bc
00000250: b77c 20bd 7e15 eebd 2a85 00be 1edd 7dbd
00000260: a4fe 4ebe ab73 b13d 6f70 8ebd acbb 59be
00000270: 2533 04bb c3dd fbbd 1128 6fbe a59e b2bd
00000280: 3751 d5bd 95c8 353e 3e79 aabc ce6b a9bd
00000290: 0c50 913c 8cf7 b0bc f6d7 6ebe 9adb 04bd
000002a0: 5090 afbd 4b6f debd b644 2fbe 49b9 e33d
000002b0: 0a5a 42be f034 e9bd bffa 34be f9be f0bd
000002c0: 484d dbbd 6890 1dbe 915e 913e 66e5 31be
000002d0: 9ff8 aabd 39b0 83bd 273d 3bbe f2ce 5fbe
000002e0: 97a2 0bbe 478b 8bbe fe90 aebd fb09 f03c
000002f0: c0af 26be 9527 8cbd 588e 8ebd fbb5 533e
00000300: add0 81bd 45fe 1abe 0732 85bd 95df 32be
00000310: 2ef4 eb3a f228 8ebe 259c d4bd dc8c 18bd
00000320: c957 103e d773 4c3c 409a b339 72bd 81be
00000330: 5a75 9abd e3fd 8dbe c643 96bd fa24 f9bd
00000340: b009 87be 69ef 323d e525 02be ef3f 44bc
00000350: 672e 77bd 2e89 1cbe 9ce0 1fbe ce69 f03d
00000360: e8c5 0fbd cb5e 08bc a150 59be 60e2 8d3d
00000370: 3d13 acbe 5d58 073c 358f a1bd 54a1 2ebe
00000380: 3bed 10be 384d 78bd c28d b13d 8fee 14be
00000390: 45df debd f1af 87be d4b2 0cbe e39b 9fbe
000003a0: cddc 94bb a5a3 09be fda5 77be dc22 c6bd
000003b0: 448e 82bd 809e 033d dedc acbd 37fb 12be
000003c0: 13e3 68be 0744 63bd 35fd 57bc db87 2d3e
000003d0: 6792 12bc 2150 18be 1e89 58be f682 96be
000003e0: 5b46 363c c2dc 1fbe 098d 3cbe bf75 0fbe
000003f0: d264 69be 341c e5bd 0259 b3bd 4a4e 7fbd
-0.1331998 0.06822063 0.090887345 -0.1565155 -0.047622185 -0.06918662 -0.0034740777 -0.024025396
-0.12085235 -0.047568228 -0.29095683 -0.09744209 -0.0512516 -0.06850254 -0.12143668 0.077697985
-0.0653378 -0.12958063 -0.124385 -0.100676104 0.071383916 -0.16252649 -0.0073039015 -0.21181849
-0.11534852 -0.13708681 -0.11134012 -0.00026376962 -0.12827274 -0.043267068 -0.16084704 -0.2087672
-0.057999905 0.00476066 -0.0061729243 -0.1328808 -0.051431134 0.008699618 -0.15411976 -0.02646351
-0.15183935 0.104305685 -0.0668847 -0.16687909 -0.14229381 -0.050438516 0.047174986 -0.12504199
-0.14501897 -0.14892145 0.3542437 0.07623528 -0.12424052 -0.040109072 -0.015301779 -0.21338716
-0.075503334 -0.0732234 0.21766354 -0.010011281 0.17730963 -0.14188732 -0.061482877 0.24067973
-0.07353924 -0.1744286 -0.009153244 -0.14216696 -0.10471282 0.04769906 0.03731194 -0.1660442
-0.07854225 0.006871048 -0.019881926 -0.02647164 0.08810165 -0.08594417 -0.08285008 -0.059927594
-0.105582535 -0.29659483 -0.0131699005 -0.13160211 -0.13743012 0.019966932 -0.08246198 0.18397696
-0.18887384 -0.19615893 -0.08472064 -0.022246344 0.00857997 -0.14112854 -0.07605292 -0.20773022
0.0240774 -0.0450451 -0.070336826 -0.22301793 0.0106052775 -0.09264897 -0.038284 -0.15293585
-0.07590049 -0.15142705 -0.11460067 -0.057937916 -0.29241472 0.018143442 -0.20689094 -0.048690025
-0.07628298 -0.17548214 -0.12750797 -0.12133596 0.0080453055 -0.19814225 -0.116163984 -0.1353379
-0.132886 -0.13635959 -0.11226118 -0.20905235 0.04201141 -0.06713221 -0.03702388 0.11027343
0.017200664 0.058134485 -0.06222202 -0.03832731 -0.047777373 -0.11456787 -0.22080667 -0.11933518
0.08015196 0.0367927 -0.12102756 -0.16802184 -0.10258593 -0.046716917 -0.19852108 -0.16534822
0.11418076 -0.052720323 -0.028409602 -0.027401017 -0.039181437 -0.11625193 -0.12550798 -0.061978452
-0.20214325 0.0866464 -0.06955039 -0.21262997 -0.0020172086 -0.12298157 -0.23355128 -0.08721665
-0.10415881 0.17752297 -0.020809766 -0.08272515 0.017738365 -0.021602415 -0.2332457 -0.03243599
-0.08572447 -0.10861071 -0.17116055 0.11119325 -0.1897966 -0.1138705 -0.17673777 -0.11755175
-0.107080996 -0.15387118 0.2839246 -0.17372665 -0.08348202 -0.06430096 -0.18285047 -0.21856287
-0.13636242 -0.27254698 -0.08523749 0.029301634 -0.16277981 -0.06843487 -0.06960744 0.20674889
-0.0633863 -0.15136059 -0.065036826 -0.17468102 0.0018001848 -0.27765614 -0.10381345 -0.03724371
0.14095987 0.01247879 0.00034256466 -0.25339848 -0.07541914 -0.27732763 -0.073371455 -0.12165256
-0.26374578 0.04368535 -0.12709768 -0.011978134 -0.060346987 -0.15286705 -0.15613025 0.11738931
-0.035100847 -0.008323382 -0.21222164 0.06927943 -0.33608428 0.008260814 -0.07888643 -0.1705373
-0.14152996 -0.060620517 0.08669616 -0.14544128 -0.10882429 -0.2650142 -0.13740093 -0.3117362
-0.004542923 -0.13441332 -0.24184413 -0.09674618 -0.06374791 0.03213358 -0.084405646 -0.14353643
-0.22742872 -0.055484798 -0.013182928 0.16946356 -0.008946038 -0.14874317 -0.21146056 -0.2939679
0.0111251725 -0.15611556 -0.18413176 -0.1400976 -0.22792366 -0.1118702 -0.08757211 -0.06233052

layers.2.weight f4 [128, 256]
00000000: 8737 aebd 15fd ca3d 840a a2bd 3e85 693d
00000010: 1f42 e13a 6d59 d13e caec d3bd 6524 d23d
00000020: ff8c 793d a616 85be c5ff 4d3e 4b9f ea3d
00000030: 2400 ee3d 06dd fbbc edc7 cfbd 2787 2fbe
00000040: b1ce 9bbe d18d 2b3e bb49 6e3d 51ee 8f3e
00000050: 30a0 0abd 2e19 943e 76ad 36be 3bbe 823e
00000060: 032e e23d 7ca7 933e 373d f73d a2ce 08be
00000070: 7f6e 893e 97b8 143e 16e7 d8bc 9933 533e
00000080: 689b 363d 8e08 373e 7a66 363e ee8b c93e
00000090: 33da a03d 293b d8bd cd41 9c3c aab8 053e
000000a0: bdbc d8be 8d9c 573e 1360 1abe 8808 863e
000000b0: 1513 aabd 4228 2e3e e4c1 8bbd b09c 82bd
000000c0: 8515 a5bb b081 e4be 553c 473d 9738 65be
000000d0: fb16 133e 2cfa f7bc a399 a1be 2eff 283e
000000e0: ef00 23be aa9e a0be 7d6d 543d 1653 cbbd
000000f0: 39a5 11ba 3c0c 88be e85e 3b3d 37dc 95bd
00000100: 0a36 ac3c 18c0 e8bd 6c56 bdbd 2d38 063d
00000110: c58b 87bd f977 45bd 1d6b d3be b929 50be
00000120: 9e82 8d3d 4d23 ef3d 066e 6a3e 55d8 07bf
00000130: 264b b83e f902 c73d c9c8 35be fd4c 3e3d
00000140: 8f2b a63e 5533 0f3e 7f18 763e 8d7f 07be
00000150: e058 443d 7bed 6abe c220 253e a41f 783d
00000160: ec2d c43d b727 88be df49 9a3d 271b 03be
00000170: 66e6 e5bd bd0e e0be 903f ac3d e691 1fbb
00000180: d6b4 17be d4b4 583d 3a24 85bd 9ca3 8bbc
00000190: 397f 89be 6dd0 a23d 2fcd 8b3d 44df ecbb
000001a0: 6e6c 863e dd84 c13d 813a 6a3d efe4 a6bc
000001b0: f63c b33c acc3 d2bc 2ced 82bd 3601 20be
000001c0: 40c6 d83d 8654 0ebd 468e a23c f04f 73be
000001d0: 0021 163e d018 05be 78f3 84be e239 8abe
000001e0: 38ec 1dbe 30d6 83be e087 043e f3ea 04bd
000001f0: 5e3d e4be 36cc a7be 86d8 3c3d 1755 32bd
00000200: 26df 3f3e 74ab e0be 0f11 1ebe 4994 94bd
00000210: 1442 893d 99fd 60be 4fea ae3e 2d5c f2bd
00000220: 43db 62be 9515 6ebd 5c09 283e c15e 833d
00000230: 72bd 50be 3dd3 de3d c933 0bbd 939d 0f3e
00000240: 9606 5bbe 4fd9 f33d a885 47be dbc3 e03d
00000250: 9425 a63d b8d9 723e 11bd 95bd da18 ea3a
00000260: 1e7b afbe e0a9 d3be 9a50 0fbd a7f0 fbbd
00000270: 083d 263e 0890 26be 543d fd3b 963e ff3d
00000280: a8ad efbd 2788 8fbe bd13 a6bd 7210 a23d
00000290: 0194 9abe c333 89bd e631 853b d180 9f3d
000002a0: 9f4d adbe d79e e9be 8271 5c3e abaa c6be
000002b0: fe22 a6bd 58f4 073e 5839 59be b2c6 a4be
000002c0: ae6b 46bd c3e6 c7bd 0423 d5bd 1410 4a3e
000002d0: c0bb 5a3d 1b1c f23d a3bc 283e b1d0 c7bd
000002e0: 52b7 343d 3916 e63d 59ce c7bc 934d 8abc
000002f0: 9a77 8abe abf9 3e3e 1278 633e d42b d23b
00000300: 1340 37be 8814 8fbe 1511 48be f9eb a73d
00000310: e889 ad3c c411 bcbe 6950 3c3e bfde 66be
00000320: f3be ddbd 1955 c7bd c91f a1be 5f4c 1e3d
00000330: aedc 98be 2d3c a43e 7776 213e 9146 69bd
00000340: 5472 9abe e7ea 21be c8e2 7bbe f28b 873e
00000350: 3566 a3bd 9cc5 cb3c 5497 8abe cfa3 1c3d
00000360: 7462 203e b2fb dcbd 7909 26bf cd80 f1bd
00000370: 1bcd db3e a025 b23b 6961 0a3e b231 4f3e
00000380: 5d61 873c 79ad 1f3f a34e 95bd 66b2 3cbe
00000390: e1af 6b3e d3fa 823c 888b a73e 42af 153e
000003a0: ffca 17bd c450 283c 3a90 3abd 208e 8dbe
000003b0: 0522 a0bd 6e43 86be e53c a23d b069 74bd
000003c0: 97bb f2bd 9dd9 a43e fa7a 12bd 5337 c33d
000003d0: ba00 39be 841c 23be c204 dbbe fb40 063e
000003e0: 6eb9 27be 8107 893c cdc8 4abc 290c 2ebd
000003f0: ee3e 49bd e5ce f03d d8a8 0a3e f520 183e
-0.08506685 0.09911553 -0.07912162 0.057011835 0.0017185843 0.4088854 -0.10347898 0.10260848
0.06092548 -0.25993842 0.201171 0.11456164 0.116211206 -0.03074504 -0.10145555 -0.171414
-0.3043113 0.16753317 0.058175784 0.28111508 -0.033844173 0.2892546 -0.17839608 0.2553576
0.11043932 0.28838718 0.12072223 -0.13360074 0.26842114 0.1452354 -0.026477378 0.20625152
0.0445818 0.17874357 0.17812529 0.3936457 0.07854118 -0.10558159 0.019074345 0.13058725
-0.42331496 0.21055813 -0.15075712 0.26178384 -0.08304421 0.17007545 -0.06824091 -0.06377542
-0.0050379657 -0.44630194 0.04864152 -0.22384869 0.14364235 -0.030270658 -0.31562528 0.16503593
-0.15918325 -0.3137105 0.05186223 -0.09927957 -0.0005555931 -0.26571834 0.045744807 -0.07317393
0.021021862 -0.11364764 -0.09244999 0.032768417 -0.06618456 -0.048210118 -0.41292658 -0.20328416
0.06909679 0.11676655 0.22893533 -0.5306447 0.35994834 0.09717364 -0.17752375 0.04646014
0.32455108 0.13984425 0.24032782 -0.1323225 0.04793632 -0.22942154 0.16125777 0.06057705
0.095790714 -0.265928 0.07533621 -0.12803327 -0.11225586 -0.43761244 0.08410561 -0.0024348437
-0.14815077 0.052906826 -0.0650105 -0.017045788 -0.26854876 0.0794991 0.06826245 -0.007228764
0.262546 0.0944917 0.0571847 -0.020372836 0.021879654 -0.02572807 -0.06392893 -0.15625462
0.10584688 -0.034748577 0.019843232 -0.23760962 0.14661026 -0.12997746 -0.25967002 -0.26997286
-0.15422142 -0.2574935 0.12942457 -0.032450628 -0.4457807 -0.32772988 0.04610493 -0.04353818
0.18737468 -0.43880808 -0.15436195 -0.07254846 0.067020565 -0.2197174 0.34163138 -0.118339874
-0.22153954 -0.05812605 0.1640982 0.06414557 -0.20384768 0.10880134 -0.033984933 0.14024954
-0.21389231 0.11906683 -0.1948458 0.109748565 0.08112636 0.23715866 -0.07311452 0.001786019
-0.34273618 -0.41340542 -0.034988977 -0.1230176 0.16234219 -0.16265881 0.007728258 0.12463109
-0.11703044 -0.28033563 -0.081092335 0.07913293 -0.30191043 -0.06699326 0.0040647862 0.07788242
-0.33848283 -0.45628998 0.21527675 -0.38802084 -0.08112143 0.13276803 -0.21213281 -0.32182842
-0.048442535 -0.09760811 -0.10407069 0.19732696 0.05340171 0.11821767 0.16478209 -0.097566016
0.04412014 0.112347074 -0.024390386 -0.016882693 -0.27044374 0.18649928 0.22213772 0.006413916
-0.17895536 -0.27945352 -0.19537766 0.08199305 0.021183923 -0.36732304 0.18390049 -0.22545908
-0.10827436 -0.09733028 -0.31469563 0.038647052 -0.29855865 0.3207716 0.15767847 -0.056952063
-0.3016535 -0.15812264 -0.24598229 0.26473957 -0.07978479 0.0248745 -0.2706858 0.038242158
0.15662557 -0.107901946 -0.64858204 -0.11792145 0.4292992 0.005436614 0.13513722 0.20233801
0.016525919 0.62374073 -0.072903894 -0.18427429 0.23016311 0.015988743 0.3272364 0.14617637
-0.037058827 0.010273162 -0.0455477 -0.27647495 -0.07818989 -0.2622332 0.07921771 -0.059671104
-0.11852186 0.32197276 -0.03576181 0.09532037 -0.18066683 -0.15928847 -0.42777067 0.13110726
-0.1637933 0.016727211 -0.012376976 -0.042492066 -0.04913228 0.11758212 0.13540971 0.14856322

layers.2.bias f4 [128]
00000000: bbfd 7abe bbb0 5fbe 1991 05be 042d da3c
00000010: 4194 2cbe 7914 2c3d 5b2e babd db9b 4cbe
00000020: 1815 8dbd b40a 62be 770a 4fbe 245d 96be
00000030: 4fc4 0bbe 5749 a9bc 89b7 8dbd 1f8f bebd
00000040: 973d 28be 446f 7cbd ba80 d2bc 32df 1cbd
00000050: b902 8cbd a399 ccbd 1fe3 5fbe 3df8 bdbc
00000060: e59f ebbd 6e6b 4abd 7950 79bd f8ba c73c
00000070: 0995 98bd 0e7e 27be 301f f03d 69f3 25bd
00000080: 04c4 31be 02cb fabd 83aa b9bd 87ed 28be
00000090: bc1c 61be 88d7 b9ba f0b9 42be 9a38 bf3b
000000a0: b0fa 0ebe e43f 1f3d 17aa f4bd 2bda b7bd
000000b0: 7c31 04bb 159b 4cbe 2e54 79bd 4cb9 32be
000000c0: 9bfa 08bd 9cdd a13d b2a4 3fbe d101 3abe
000000d0: c7f4 7dbd a0f0 44be 22e7 9abc b860 f6bc
000000e0: 4097 b6bd 72b5 12bd d932 e23c ce1d d8bd
000000f0: 0c59 60bd ad2e c8bc 2f0d 93bd a8ac f639
00000100: cc1b 07be dbef edbd ab5c 9ebe 6b1e 02be
00000110: da20 f6bd 5df4 d9bb 4318 0a3d daac c8bd
00000120: 6228 01be 8cc7 75bd b5bd 89bd 4fd0 8ebd
00000130: 708f c4bc a371 81bd fe30 b43d 87a5 a23d
00000140: fc68 d33c a46d 8dbd 3e42 5db9 4106 88be
00000150: e51d 9cbd c2b8 d4bd 2ec0 9cbd 7486 0abd
00000160: b8e7 51be 9a4c 77be 2b32 e7bd dd8d 623d
00000170: ebef b8bd 0412 b1bd 0879 43be eb73 5abe
00000180: 186e 56bd 5004 6abd cbdd 0fbe 7f9c f4bd
00000190: be3e 09bd 8be6 a7bd e3b4 a7bd 291d 68be
000001a0: 010a a43b 2b8a 663c 1ab5 60bd c7e6 cd3d
000001b0: 9e81 efbc 170c ae3d cecd 4bbe 276b 62bd
000001c0: 8e82 2dbd 84b5 3bbd ded0 66be a2ee 2a3d
000001d0: 55fb 283d cf32 b8bd e15a 9b3d 9f9a 57bd
000001e0: 7439 523d 86fd 95bc 60c6 8f3d c611 29bd
000001f0: b6f7 b9bd 5774 18bb 60c3 41be 4ec0 613d
-0.24510853 -0.21844761 -0.13043632 0.026632793 -0.1685343 0.04201171 -0.09090873 -0.19981329
-0.06888789 -0.22074395 -0.20218836 -0.29367936 -0.13649105 -0.020664854 -0.06919772 -0.09304642
-0.16429745 -0.06162955 -0.025696147 -0.038298793 -0.06836457 -0.099902414 -0.21863984 -0.023189658
-0.11505107 -0.04941886 -0.06086776 0.024381146 -0.07450301 -0.1635668 0.117246985 -0.040515337
-0.1735993 -0.12245752 -0.09065726 -0.1649686 -0.21983618 -0.0014178613 -0.19016242 0.005835605
-0.13962817 0.03887929 -0.119465046 -0.08977159 -0.0020171097 -0.19981034 -0.060871296 -0.17453498
-0.03344212 0.07903597 -0.1871517 -0.18164755 -0.062001016 -0.19232416 -0.01890904 -0.030075416
-0.089155674 -0.03581757 0.027612137 -0.1055256 -0.05477242 -0.02443632 -0.07180249 0.00047049415
-0.13194197 -0.116180144 -0.30930075 -0.12706916 -0.12017985 -0.006651445 0.033714544 -0.09798594
-0.12613061 -0.060004756 -0.06725637 -0.069733255 -0.023994178 -0.063205026 0.08798407 0.07941728
0.025806896 -0.06905678 -0.0002110088 -0.2656727 -0.076228894 -0.10386802 -0.07653843 -0.03381963
-0.2049855 -0.24150315 -0.11288866 0.055311073 -0.09030136 -0.08646014 -0.19089139 -0.21333282
-0.052351087 -0.05713302 -0.14049451 -0.11943912 -0.0335071 -0.081982695 -0.08188798 -0.22667374
0.0050060754 0.014071028 -0.054860212 0.10053783 -0.029236611 0.084984 -0.19902727 -0.05527797
-0.042360835 -0.045827404 -0.22540614 0.041731484 0.041255314 -0.08994066 0.07585693 -0.052637693
0.051324323 -0.018309366 0.07020259 -0.041276716 -0.0908045 -0.0023262703 -0.18922186 0.055115037

layers.4.weight f4 [32, 128]
00000000: a23c d0bd 5b26 99be c393 a7bd a4ef a53d
00000010: 13c2 883e cb83 54be 3b60 d33d 90fa a5be
00000020: 1863 693e fd47 ac3e f614 09be a332 c8be
00000030: edc1 f7bd 98cc f1bd 88d2 5f3b dce2 823d
00000040: b230 93bd e646 6ebe cb12 733b 654a a83d
00000050: 9b93 883d 51bd 74bd 1968 ab3e 9f44 71bd
00000060: 071a f73c 9d74 163d 12c6 81bc f5fc 983c
00000070: d584 133d 298f 8abe cf7f 3dbe ac94 42bd
00000080: 64cb d43e 7611 cbbd c899 dfbe cc11 ee3e
00000090: fc7e 90bd 8601 9a3c 1b2e c2bd bb6e 96ba
000000a0: 8029 da3e 264d 90be 1c83 bd3d cd5c 0ebd
000000b0: 8958 acbe c02a ffbd c6df c63c 1551 863e
000000c0: 6b1a 60bd e1af 7fbe a90c 70be bdd2 993e
000000d0: 22b9 f93d 7785 a03d 971b 143e 6e28 823e
000000e0: f27c d43d aa6f 443d 316f 96be 25cb e5bd
000000f0: d2c0 6c3e 7874 94bd a71a 5f3e 43a1 15bc
00000100: 46bd 0f3e 9e79 85bd d55d 863e 8994 e63e
00000110: af56 fe3c 1e2f 073d 2880 d43d 9326 3bbc
00000120: c063 3fbe 17da 8ebd 0e57 c93d c1bb 10be
00000130: e9dc 4bbe 2a23 883e d1ec 5ebd f402 f6bd
00000140: 6e2a 5bbe 1516 97bd 622d bf3d 0979 f3bd
00000150: 5271 aa3e df96 b33b d886 0fbd 9301 1abc
00000160: 2bf2 173e d56f ad3e bab0 9e3e b725 24be
00000170: 97b8 773d fe33 683d f3b6 813e 9a02 c03d
00000180: 5fcc 8ebe 5403 1cbe ce04 ab3d d865 b8be
00000190: 03c9 1ebd f899 94bd 29ba 66be 0f49 433e
000001a0: e991 bfbd de36 acbe bda2 543d ca42 a83d
000001b0: e3de 55be 420c 1fbd f04c 3d3e 7984 5b3c
000001c0: 5c09 323d d4fa a3be 3c9e 073e 49e2 ffbd
000001d0: 9f1c 463c ac34 87be 3799 953d e268 553e
000001e0: d60e d63d fbb4 43be 6a73 273c 50f7 813d
000001f0: 2e14 3bbd bd53 c2bd b305 803e 5397 03bd
00000200: fe40 4d3d d5bd 4d3e ea01 9ebd 3567 07bd
00000210: e29a dd3d 8571 d13d 9412 363e 09f4 c1be
00000220: c8d6 83be f08d 613d 66d7 1f3e f62d 1f3c
00000230: 1b1b 3dbe e0b6 b1be e16a 39bb 195b 2bbe
00000240: 7902 cfbd 025e 313d f6dd e3bc db8b 6a3d
00000250: 0091 893d 5c4a 9c3d 5043 0ebe d3c5 c6be
00000260: 021a 2f3b 20f7 64bc da2e 80bd aa31 7fbe
00000270: b057 41ba 3ed9 28be 0eee a43d 3eee cabd
00000280: 6e50 06be e464 b5bd b052 22bc 1805 ddbd
00000290: a3f6 bcbc 6708 e93b df6c 22be df24 1e3d
000002a0: e601 193d 5ffc 8d3d 33dd fa3d 3f5a e43b
000002b0: 4d01 813d 1174 9cbe b1e9 39be 4cd5 29be
000002c0: f9b2 e8bc 98f6 01be 1793 6f3d a1e0 90bd
000002d0: 6391 a8bd 9be2 b9bd a014 483e 6781 63be
000002e0: d921 85bd 03fe 9f3c f714 74be 3b4b 293e
000002f0: 1e9b d3bc 8aa2 16bd 2b49 5c3d a0d9 9ebd
00000300: 581c 54be dfa5 7e3d 1a30 113e daa4 a3bd
00000310: aec8 bbbd 92f7 a33d bc35 36bd e911 1d3d
00000320: a508 953c c1bc 663d 61c0 a8bd 9d1a 003b
00000330: 90bb 223e e19f 6c3c 1d48 c73c ad44 10be
00000340: ec51 0bbd d36c 173d 7447 68be 3c75 1f3e
00000350: 469e 0a3e 3bbd 313d fb39 0dbd f822 7bbe
00000360: 6071 f43d 7e5a 843d 96d0 98bc 58ed 153c
00000370: 2883 18bd 4378 3c3d 205e ab3d 5f5f c73d
00000380: 4d8e b4bd 98cd bf3b 1563 55be a7de 913d
00000390: 352e 61bd d25f 4d3d 5b75 86bb c7f0 2cbe
000003a0: 852a 4a3d d3f2 25be 8efc 833c 40fd 68bd
000003b0: 9dae a8bd 4897 893d 7027 3abd b194 8dbd
000003c0: ca32 853c 057e 41bc 001e 853c c489 e9bd
000003d0: a66d cf3c 7651 393d c8b2 043d 0f78 4d3d
000003e0: 7d6d 8b3d 2a8f d83c 5564 72be 6902 013d
000003f0: 0f12 663d 6995 38bd e9fb d53a 4421 b2bd
-0.10167815 -0.29912075 -0.0818248 0.081023484 0.26710567 -0.207534 0.10321089 -0.32417727
0.22791708 0.33648673 -0.13386902 -0.39101133 -0.12097535 -0.11806601 0.0034152586 0.06390926
-0.07187022 -0.23269233 0.003709006 0.08217315 0.066687785 -0.05975086 0.33477858 -0.058903333
0.030163778 0.036732305 -0.015841518 0.018675307 0.03601535 -0.27062348 -0.18505786 -0.047505066
0.41561425 -0.0991544 -0.43672013 0.46497953 -0.0705547 0.018799555 -0.0948145 -0.0011477092
0.42609787 -0.2818386 0.09253523 -0.03475647 -0.33661297 -0.12459326 0.024276625 0.26233736
-0.054712694 -0.24969436 -0.2344233 0.30043593 0.121935144 0.078379564 0.1446365 0.2542147
0.10375394 0.047958054 -0.29381707 -0.11220387 0.2312043 -0.07248777 0.21787511 -0.009132686
0.14037046 -0.06517337 0.26243463 0.45035198 0.031047193 0.03300392 0.10376006 -0.011422771
-0.18690395 -0.06975191 0.098310575 -0.14134122 -0.1990849 0.26589328 -0.054425064 -0.12012282
-0.21402904 -0.07377259 0.09334828 -0.1188832 0.33289582 0.0054806317 -0.035040706 -0.009399789
0.14838473 0.33874384 0.30994207 -0.16030012 0.060478773 0.05669021 0.25334892 0.09375496
-0.27890298 -0.15235645 0.08350526 -0.360152 -0.03876592 -0.0725593 -0.22531952 0.19070838
-0.09354002 -0.3363561 0.05191301 0.08215864 -0.20885806 -0.03883005 0.1848638 0.013398283
0.043465957 -0.32027304 0.13243955 -0.12494332 0.012091785 -0.26407373 0.07304614 0.20840791
0.104520485 -0.19112007 0.010220388 0.06345999 -0.04567354 -0.09488628 0.25004348 -0.032126736
0.05011081 0.20091946 -0.07715209 -0.03305741 0.10820557 0.1022673 0.17780524 -0.37881497
-0.25749803 0.055067003 0.15609512 0.009715548 -0.18467371 -0.34709835 -0.0028292465 -0.1673397
-0.101078935 0.043302543 -0.0278158 0.057262283 0.0671711 0.076313704 -0.13892865 -0.38822803
0.0026718383 -0.013974935 -0.06258936 -0.24921289 -0.0007375432 -0.16489121 0.08053218 -0.09908722
-0.13116619 -0.08857134 -0.00990741 -0.10791987 -0.023066824 0.0071115973 -0.15861844 0.03860938
0.037355326 0.069329016 0.12249222 0.006968766 0.06299076 -0.30557302 -0.18155552 -0.16585273
-0.028405653 -0.12691724 0.058489885 -0.070740946 -0.08230855 -0.09076425 0.19539118 -0.22217332
-0.065005966 0.019530302 -0.23836122 0.16532604 -0.025830802 -0.036776103 0.053780716 -0.077563524
-0.20713937 0.062169906 0.14178506 -0.07990427 -0.09169136 0.08006205 -0.04448484 0.03834716
0.018192599 0.056332354 -0.08239818 0.0019547113 0.15891862 0.014442415 0.024326378 -0.14088698
-0.034013674 0.036969017 -0.22683507 0.15572065 0.13536939 0.043393355 -0.034479123 -0.24525058
0.11935687 0.064625725 -0.018654149 0.009150825 -0.037234455 0.046013128 0.08367562 0.097349875
-0.08816204 0.005853366 -0.20838578 0.07122546 -0.054975707 0.05014021 -0.0041033453 -0.16888724
0.049356956 -0.16205911 0.016111638 -0.056882143 -0.0823643 0.06718308 -0.045447767 -0.06913126
0.01625957 -0.011809831 0.016249657 -0.1140323 0.02532084 0.045243703 0.03239706 0.050163325
0.068079926 0.026435453 -0.23671086 0.03149644 0.056169566 -0.045064364 0.0016325685 -0.08697751

layers.4.bias f4 [32]
00000000: 8b82 2a3d 0a2c 3ebd 6bfd 123d 3f63 fb3a
00000010: f53b f73b cbeb 183a 8e58 1e3b 75d4 8a3a
00000020: d3bb edbd 93db 8c3c 4c3c 12be fba9 493d
00000030: e645 f6bd d204 933c 90b5 163d 2b80 bdbd
00000040: 4b7e 64bb 9c65 133d 61ae 34be dc9f 0abe
00000050: 1bc1 f1bd 62b6 1cbe 88a2 173d a92d db3c
00000060: 9c3d 133d 65c7 55bd a22b fe3c 9aa4 02be
00000070: 85db 3cbe 573b 24be 085e 4cbe 9cd3 33bd
0.0416284 -0.046428718 0.03588621 0.0019179358 0.007544989 0.0005833476 0.002416167 0.0010591882
-0.1160809 0.017194545 -0.14280814 0.04923437 -0.12025051 0.017946634 0.036794245 -0.09252962
-0.0034865316 0.035985574 -0.17644645 -0.13537544 -0.1180441 -0.15303949 0.037020236 0.02675517
0.035947427 -0.05219211 0.031026665 -0.12758103 -0.18443115 -0.16038261 -0.19957745 -0.04390298

layers.7.weight f4 [1, 32]
00000000: 6a91 483c a20c b0bc 7d8c 563c 80ea 03bc
00000010: d59c 1bbc 9d47 01bc 5c88 dcbb b7c3 fcbb
00000020: 7a1e 01bd ec8f b63c eb9e 07bd 5e5f 693c
00000030: 6bc2 013e 1671 c23c e7ec b63c bdfd 283d
00000040: 5aef a5bb 6fde 733c b50b 1e3e a571 90bd
00000050: 674c fbbc bf8c b53d dfa6 833c 5dbf 5e3c
00000060: 4563 703c 258c 95bd 2fd7 6b3c 988d 123e
00000070: 8f30 b7bc 793f 233e a9e0 cf3d e947 bdbb
0.012241701 -0.021490399 0.013095018 -0.008051515 -0.009497841 -0.007890609 -0.0067301225 -0.0077137607
-0.031523205 0.022285424 -0.03311054 0.014243929 0.12671821 0.023735564 0.02232976 0.04125761
-0.0050639333 0.014884575 0.15434153 -0.07052926 -0.03067608 0.08864736 0.016070781 0.013595429
0.014672105 -0.07302121 0.0143945655 0.14311826 -0.022362022 0.15942182 0.101502724 -0.0057763946
