Theises/InstagramAnalytics-Python/prediction/models/best_model_6.pt (torch, 370767 bytes, 7 tensors)

layers.0.weight f4 [256, 214]
0.03896932 -0.01894981 2.4423678 2.2682474 -0.9331602 -0.16195501 2.4273634 2.2906022
2.375018 1.2019286 1.2135274 1.2172847 0.045987446 1.360543 -0.04687824 0.05506261
0.016502025 0.028704755 0.03781899 -0.017016046 -0.03771176 -0.05069361 0.057646573 -0.0500233
0.060084112 -0.031736713 -0.048543315 0.06723491 0.054795276 0.027512992 -0.0066600386 -0.038083408
-0.043103117 -0.028508954 -0.014197057 -0.06798726 0.045188766 -0.04555465 -0.06285043 -0.06307573
0.008770475 -0.010608351 0.047767162 -0.0069253705 0.03203831 -0.011306148 -0.049167987 0.030385956
-0.014710059 -0.044082444 -0.015474955 -0.059473153 0.03270823 0.008715071 -0.0071265036 -0.060747076
-0.0389027 -0.010051367 -0.038512472 0.06497958 0.027568627 -0.055264868 0.013934061 -0.019239394
-0.06609127 0.015740491 0.063532226 -0.009376087 0.06585871 -0.0055040075 0.041435167 -0.007430661
-0.055187188 -0.028335322 0.0019524283 -0.04132051 -0.026291076 0.021468583 -0.036129206 -0.035801023
0.027236545 -0.049520683 0.011881596 -0.0477931 -0.06261261 -0.060140733 -0.04760323 -0.08298142
-0.024914607 0.005903542 0.035028506 0.0053750393 0.004986083 0.044530746 -0.040345933 -0.02362194
-0.08012003 -0.04656675 0.039807294 -0.0083230175 -0.078547776 0.043725375 -0.053001877 -0.08605088
-0.010430432 0.032289732 -0.01274505 -0.025676146 -0.033071015 -0.07296172 0.016467568 -0.07035415
-0.012850593 -0.08112952 -0.06441696 0.001952165 0.01600521 -0.05500366 0.0037866705 -0.025433727
-0.058409933 0.032329377 -0.0012122975 0.00857582 -0.03654858 -0.030272868 0.047392976 -0.0255108
-0.06808307 -0.07699396 -0.018100468 -0.04705299 -0.009966595 -0.025436182 -0.04695518 -0.06431577
-0.0017974204 -0.061697315 0.0013828503 0.0061069853 -0.0013859528 0.033513013 -0.01804898 -0.0066092326
-0.09156394 -0.0051931394 -0.067047946 -0.0324785 -0.0065831477 -0.009241613 -0.018567337 -0.08146854
-0.07544118 0.008409952 -0.027895123 -0.05533116 0.0013782571 -0.031358782 -0.019662926 -0.017142037
-0.034118023 -0.011640939 -0.07454555 -0.03006817 -0.022703901 0.006317893 -0.07246013 -0.030546494
0.009072081 -0.05610996 -0.012446658 0.010627863 -0.10969435 -0.103692375 -0.015094412 -0.04961828
-0.1312263 -0.1193146 -0.18009834 0.033004064 -0.11417431 0.022394525 -0.15136017 -0.15610974
0.023102533 0.023841005 0.08756074 -0.056483485 -0.15293722 -0.20835792 0.054680753 -0.16355525
0.08545978 0.00823128 0.042902473 0.07969929 0.05842428 -0.041647624 0.05132774 0.052954864
-0.019870026 0.013437681 -0.068110086 -0.016273437 0.058145598 -0.32115513 0.027939796 0.0456195
-0.024227794 -0.5361893 0.24717066 -0.020434042 -0.9277794 0.7507296 0.5305792 -0.44769347
1.778303 1.2498583 1.9521868 0.42721805 0.85908514 0.8531255 -1.1452929 0.28183803
0.14944053 -0.4623606 0.009724601 0.49361143 0.04775819 0.058115125 0.070498034 0.038556322
0.044455055 0.048170816 0.0578668 -0.00894029 0.02236681 0.011983132 0.047813375 0.026586905
-0.069189616 0.025210544 -0.027638193 0.0035845533 -0.005685987 0.055013556 0.018862402 0.022431636
0.01912318 0.004613476 -0.006835308 -0.06335482 0.04545422 0.0050648293 -0.07560881 -0.06453093
00000000: 4b9e 1f3d a23c 9bbc c14f 1c40 f72a 1140
00000010: 96e3 6ebf 89d7 25be ec59 1b40 3a99 1240
00000020: 4b00 1840 ccd8 993f de54 9b3f fccf 9b3f
00000030: 555d 3c3d 4626 ae3f 6603 40bd 5589 613d
00000040: 412f 873c 3c26 eb3c 16e8 1a3d 3c65 8bbc
00000050: a577 1abd 1aa4 4fbd d01e 6c3d 3be5 4cbd
00000060: c21a 763d 5bfe 01bd 5bd5 46bd 75b2 893d
00000070: 0371 603d ed62 e13c 743c dabb 59fd 1bbd
00000080: e58c 30bd 9c8b e9bc c69a 68bc e83c 8bbd
00000090: db17 393d 8397 3abd bab7 80bd d92d 81bd
000000a0: 0ab2 0f3c a6ce 2dbc 80a7 433d 38ee e2bb
000000b0: 9a3a 033d 6c3d 39bc 5f64 49bd f8eb f83c
000000c0: 7602 71bc cb8f 34bd aa8a 7dbc 1f9a 73bd
000000d0: 11f9 053d a8c9 0e3c 7285 e9bb edd1 78bd
000000e0: 7058 1fbd 7dae 24bc 41bf 1dbd 0414 853d
000000f0: 9ad7 e13c 6a5d 62bd b04b 643c ef9b 9dbc
00000100: dc5a 87bd 34f2 803c 2f1d 823d 299e 19bc
00000110: eee0 863d f65a b4bb ecb7 293d e77c f3bb
00000120: f60b 62bd 7a1f e8bc 9fe8 ff3a b23f 29bd
00000130: 6260 d7bc e2de af3c 38fc 13bd 18a4 12bd
00000140: 2d1f df3c 33d6 4abd 07ab 423c b3c2 43bd
00000150: 0a3b 80bd 2156 76bd 9bfb 42bd 2af2 a9bd
00000160: b819 ccbc 8072 c13b 0d7a 0f3d 1921 b03b
00000170: 4c62 a33b df65 363d c741 25bd cc82 c1bc
00000180: f815 a4bd c7bc 3ebd f90c 233d 445d 08bc
00000190: a8dd a0bd 6119 333d 7f18 59bd 723b b0bd
000001a0: 67e4 2abc 3d42 043d 9dd0 50bc c856 d2bc
000001b0: 7975 07bd f46c 95bd fee6 863c d615 90bd
000001c0: 4b8b 52bc 3c27 a6bd 0aed 83bd cadf ff3a
000001d0: 5c1d 833c 854b 61bd ca29 783b 645a d0bc
000001e0: 413f 6fbd cf6b 043d f4e5 9eba 9981 0c3c
000001f0: f7b3 15bd cefe f7bc 231f 423d 06fc d0bc
00000200: 236f 8bbd 02af 9dbd 6f47 94bc a3ba 40bd
00000210: ee4a 23bc 8a5f d0bc 1354 40bd fdb7 83bd
00000220: 6c97 ebba 53b6 7cbd c240 b53a 1b1d c83b
00000230: dca8 b5ba f144 093d 74db 93bc 4392 d8bb
00000240: e085 bbbd 362b aabb 6f50 89bd 2d08 05bd
00000250: 72b7 d7bb 226a 17bc 871a 98bc fad8 a6bd
00000260: e880 9abd e5c9 093c 5084 e4bc eda2 62bd
00000270: a2a6 b43a 1172 00bd 2514 a1bc 756d 8cbc
00000280: 57bf 0bbd a3b9 3ebc 56ab 98bd 8651 f6bc
00000290: 88fd b9bc 5406 cf3b fa65 94bd a43c fabc
000002a0: 11a3 143c 8fd3 65bd 11ed 4bbc 7d20 2e3c
000002b0: 6ea7 e0bd ab5c d4bd 8d4e 77bc 8a3c 4bbd
000002c0: 3060 06be 375b f4bd b36b 38be 452f 073d
000002d0: 38d4 e9bd b974 b73c 29fe 1abe 3bdb 1fbe
000002e0: 8641 bd3c 364e c33c 0c53 b33d 3a5b 67bd
000002f0: 939b 1cbe c75b 55be edf8 5f3d 077b 27be
00000300: 8a05 af3d 7edc 063c 81ba 2f3d 6239 a33d
00000310: 4c4e 6f3d b396 2abd 093d 523d 33e7 583d
00000320: 77c6 a2bc b829 5c3c 4d7d 8bbd df4f 85bc
00000330: 142a 6e3d 726e a4be 00e2 e43c 83db 3a3d
00000340: 5e79 c6bc b443 09bf 4e1a 7d3e 4b65 a7bc
00000350: f382 6dbf d12f 403f 0ad4 073f 1438 e5be
00000360: 6f9f e33f 5bfb 9f3f 42e1 f93f 53bc da3e
00000370: 01ed 5b3f 6f66 5a3f f598 92bf 134d 903e
00000380: f006 193e 87ba ecbe ef53 1f3c a3ba fc3e
00000390: 189e 433d 200a 6e3d 4661 903d 3ced 1d3d
000003a0: 8116 363d c34e 453d bd05 6d3d 4b7a 12bc
000003b0: 9a3a b73c e654 443c f5d7 433d c8cc d93c
000003c0: 49b3 8dbd 5886 ce3c 7e69 e2bc d3ea 6a3b
000003d0: 8451 babb e555 613d 5385 9a3c 8dc2 b73c
000003e0: 37a8 9c3c a42c 973b b8fa dfbb 2cc0 81bd
000003f0: 342e 3a3d def6 a53b cbd8 9abd cb28 84bd

layers.0.bias f4 [256]
-3.6150372 -1.4017565 0.59193414 -1.0698507 -1.7238979 -1.5276946 -0.36370423 -3.4839969
-0.9230456 -2.747507 -1.4585427 -4.2410893 -0.87367916 1.2993284 -2.2462013 -1.0876486
-4.3824472 -0.97903156 -3.7437806 -0.045599755 -1.0480056 -0.75677556 -3.3284745 -2.8980448
-0.99950886 -1.1943187 -0.08893891 -2.5296986 -3.4313955 -0.33864674 -2.6109893 -2.4520538
-1.3083379 -1.1333152 0.34126547 -0.52748615 -2.5569878 1.4601074 -0.5499045 -1.1027565
-1.1246357 0.34738132 -0.27807802 -3.937048 -0.48121879 -1.1926177 -0.494796 -0.6118883
-0.28896648 -0.9539973 0.32001668 -1.6325682 -0.8065605 -0.013564945 -2.53976 -2.8652563
-3.2376857 -1.1359638 -3.86237 0.6224084 -0.4124502 -0.6603736 -0.061482877 -0.9104039
-0.07353924 -0.4619537 -2.9407003 -1.9926382 -1.3759216 -0.46747595 -1.5918541 -2.014992
-3.0231972 0.86832196 -0.040955633 -2.1035516 -1.708588 -0.5595416 -1.4838641 0.010026659
-1.180839 -1.1446553 -0.17054091 -0.73732275 -0.9309609 -2.7258031 -0.85577947 -0.39514357
-0.47325802 -1.6451004 -3.6301086 -1.0911291 -0.5099632 -1.0721418 0.41627094 -1.7267926
-0.7474533 -0.5525127 1.8881766 -1.5821002 0.5716794 -0.75588596 0.70593435 -0.45885408
-1.9261128 -1.0943377 -3.774678 -0.27158245 -1.9981393 0.028225828 0.16582891 -1.7993598
-0.438126 -0.12390778 0.060662303 0.8629365 -2.182916 -3.7717826 1.0773336 -0.8528564
-4.2749243 -0.5723012 -2.281261 -1.4890082 0.07285624 -1.5051106 -0.15218776 1.0288126
-1.8918512 -1.4296883 -1.5278652 0.14977086 -2.9515424 -3.3457227 -0.9940014 -3.6495714
-2.3576615 -2.5603156 -1.8456728 -1.1772964 -1.8424243 -1.0888895 -1.3889863 -1.3670753
0.22693221 -0.5297394 -0.55221504 -0.27857032 -1.3141668 -0.84818125 -1.8748854 -2.669821
-3.0168664 -1.9109336 -3.0580685 -1.1406968 -1.0550164 -0.32007775 -1.128305 -2.178359
-0.46534988 -2.5143251 -0.31921044 -3.3509698 -2.4226205 0.8576906 -1.8284224 0.21665552
-3.3257847 -3.3390696 -1.4699528 -0.12367978 -0.5073098 -0.09509639 -1.542529 -0.6329986
-0.89450336 -0.16762848 1.1358472 -2.1879454 -0.49389952 0.40792847 -0.13228591 -1.2871251
-1.5951554 -1.5747753 -1.1376296 -0.8079571 -0.53182334 -2.3841605 -1.8483824 2.7916634
-0.77692485 -2.7896063 -0.95190424 -0.66296244 -0.18091191 -2.0935977 0.04853334 -0.027177557
5.307791 -1.5267079 0.04202148 -0.03142681 -1.4498093 -1.5554686 1.4645909 -3.800115
-1.3143493 -1.4404635 -0.7144581 -1.610542 -0.06926611 -1.6132944 -2.7960947 -2.4079895
0.22671087 -0.58002365 -0.6965821 -1.1637272 -3.436374 0.12466249 -0.887412 -1.8816022
-0.9050258 -1.2082453 -0.51802623 -3.0180852 0.15449667 -1.0665569 -1.1196413 -1.0170048
-2.0526743 -0.9119509 -3.3322468 -3.6714935 -3.256099 0.2416126 -0.28853282 -3.1684237
-2.765843 -1.9656819 0.9237532 -2.3886847 -0.043496046 -1.9552547 -0.7688118 -2.2103243
1.2486775 -1.3457811 -0.18558781 -0.8349345 -2.3687634 -2.0176764 -1.3199869 -0.44507694
00000000: c55c 67c0 c26c b3bf ff88 173f def0 88bf
00000010: b0a8 dcbf 7f8b c3bf 7137 babe cef9 5ec0
00000020: b74c 6cbf 28d7 2fc0 87b1 babf 01b7 87c0
00000030: 70a9 5fbf 6550 a63f c3c1 0fc0 1238 8bbf
00000040: 023d 8cc0 d0a1 7abf 1a9a 6fc0 cfc6 3abd
00000050: 0c25 86bf 0bbc 41bf ba05 55c0 9179 39c0
00000060: d0df 7fbf 6fdf 98bf 9a25 b6bd 95e6 21c0
00000070: fc9b 5bc0 1b63 adbe 731a 27c0 73ee 1cc0
00000080: 9e77 a7bf 7910 91bf 59ba ae3e 5509 07bf
00000090: b0a5 23c0 cde4 ba3f 8bc6 0cbf 2027 8dbf
000000a0: 10f4 8fbf f7db b13e 3e60 8ebe 98f8 7bc0
000000b0: 4f62 f6be b2a7 98bf e755 fdbe b6a4 1cbf
000000c0: 6af3 93be 2b39 74bf 3ad9 a33e fff7 d0bf
000000d0: c07a 4ebf 813f 5ebc 6e8b 22c0 5c60 37c0
000000e0: 3e36 4fc0 4367 91bf 1231 77c0 2856 1f3f
000000f0: ac2c d3be 3f0e 29bf 78d5 7bbd 3b10 69bf
00000100: be9b 96bd 3285 ecbe 6f34 3cc0 c50e ffbf
00000110: 331e b0bf 0259 efbe e0c1 cbbf a1f5 00c0
00000120: 107c 41c0 594a 5e3f 18c1 27bd 97a0 06c0
00000130: 03b3 dabf 1e3e 0fbf 42ef bdbf db46 243c
00000140: bb25 97bf 1184 92bf 47a2 2ebe 2fc1 3cbf
00000150: 7453 6ebf 8f73 2ec0 5d14 5bbf 4250 cabe
00000160: e04e f2be a692 d2bf b353 68c0 1eaa 8bbf
00000170: f38c 02bf f13b 89bf 7721 d53e 8a07 ddbf
00000180: 1959 3fbf 7971 0dbf c5af f13f 4282 cabf
00000190: 9559 123f be81 41bf 1db8 343f ecee eabe
000001a0: dd8a f6bf 4213 8cbf 5394 71c0 db0c 8bbe
000001b0: 07c3 ffbf da39 e73c 0ecf 293e 6c51 e6bf
000001c0: 0d52 e0be 5dc3 fdbd 0979 783d 68e9 5c3f
000001d0: e5b4 0bc0 e364 71c0 11e6 893f cc54 5abf
000001e0: 2ecc 88c0 5582 12bf 2e00 12c0 d297 bebf
000001f0: a735 953d 77a7 c0bf 1cd7 1bbe 22b0 833f
00000200: 2e28 f2bf 0700 b7bf 1691 c3bf 885d 193e
00000210: 12e6 3cc0 5220 56c0 e076 7ebf 9492 69c0
00000220: ede3 16c0 36dc 23c0 023f ecbf a6b1 96bf
00000230: 8fd4 ebbf bb60 8bbf 4eca b1bf 53fc aebf
00000240: eb60 683e 009d 07bf f75d 0dbf c5a0 8ebe
00000250: 9e36 a8bf 6822 59bf 3ffc efbf 59de 2ac0
00000260: 5714 41c0 7999 f4bf 65b7 43c0 5a02 92bf
00000270: c70a 87bf 3be1 a3be 4c6c 90bf 3c6a 0bc0
00000280: 5742 eebe b4ea 20c0 8d6f a3be 4a76 56c0
00000290: 370c 1bc0 9c91 5b3f bf09 eabf f2da 5d3e
000002a0: a8d9 54c0 51b3 55c0 6a27 bcbf d34b fdbd
000002b0: 0edf 01bf e5c1 c2bd 9771 c5bf 320c 22bf
000002c0: 2cfe 64bf cda6 2bbe 7163 913f 4c07 0cc0
000002d0: 66e0 fcbe 00dc d03e f575 07be 84c0 a4bf
000002e0: 0d2e ccbf 3d92 c9bf d99d 91bf 47d6 4ebf
000002f0: 9325 08bf 1696 18c0 cb97 ecbf 9daa 3240
00000300: 8ce4 46bf e988 32c0 ffaf 73bf e8b7 29bf
00000310: f940 39be 81fd 05c0 e5ca 463d 78a3 debc
00000320: 6dd9 a940 2a6b c3bf b71e 2c3d 66b9 00bd
00000330: 5a93 b9bf 9819 c7bf b777 bb3f 1635 73c0
00000340: 993c a8bf 1c61 b8bf bae6 36bf 3e26 cebf
00000350: 64db 8dbd 6e80 cebf 37f3 32c0 801c 1ac0
00000360: e526 683e 6e7c 14bf 3453 32bf 03f5 94bf
00000370: 8ded 5bc0 0c4f ff3d 6f2d 63bf 57d8 f0bf
00000380: c5af 67bf c8a7 9abf 5e9d 04bf 4f28 41c0
00000390: 6034 1e3e f084 88bf 6850 8fbf 372d 82bf
000003a0: 045f 03c0 9d75 69bf 8843 55c0 c0f9 6ac0
000003b0: ed63 50c0 4b69 773e 93ba 93be 74c7 4ac0
000003c0: 9203 31c0 779b fbbf 177b 6c3f 36e0 18c0
000003d0: e928 32bd c945 fabf dad0 44bf f475 0dc0
000003e0: aad4 9f3f 8e42 acbf bb0a 3ebe 44be 55bf
000003f0: d299 17c0 9c21 01c0 55f5 a8bf 20e1 e3be

layers.2.weight f4 [128, 256]
0.21353634 2.712283 -0.47161713 -0.5361016 -0.31751806 1.414627 0.19804938 2.5031493
-0.02127091 -0.13692102 0.15519702 2.3313944 -0.3832164 -0.2158665 -0.82581645 -0.2723159
-0.17574984 0.29199493 0.13699335 0.23548292 1.727979 1.0902182 -0.3792722 1.0113702
-3.5556512 1.5577037 0.29914537 1.8579315 0.7700728 0.042046938 -0.6601648 -0.5316729
0.31927395 0.15712814 0.40172583 0.5167452 0.7448854 -0.18525837 -1.2566419 -0.15057316
-2.797952 0.3591671 -0.27660772 2.2322454 -0.8471954 1.375173 -0.1398586 -0.56161404
0.053043038 -4.964032 2.0968404 -0.23544484 -0.73484194 0.41735053 0.5583242 -1.3288802
3.0403602 -0.38425395 1.5704112 -0.9378186 0.25588337 -2.7700505 0.045744807 -0.038395524
0.021021862 -0.20931002 -1.4284207 0.21434414 -0.044447772 0.033286266 -2.1935878 -1.4986948
0.15162465 0.10102867 0.84933364 -2.1837738 -0.8039412 0.3925017 -0.5224084 0.09567673
-1.0496737 0.33194727 0.652181 0.19719315 0.17969754 -0.6718405 -0.3372923 -0.08022978
-0.2693412 -1.6958586 0.9388981 -0.47367617 -0.72168654 -1.0009358 0.61172736 -0.49388736
-0.2804029 -0.061635 0.027378682 -1.0167972 -1.601231 0.05903988 0.40276563 0.060621735
-0.7128559 2.694021 -2.841064 0.29588902 0.8563452 -0.21033666 -0.49086213 -0.70620435
0.21530296 -0.7183478 0.63343215 -0.49088097 2.2079532 -2.248602 -0.30218875 -1.1646365
0.37573943 -1.2271502 -1.138839 0.37543523 -1.7883867 -1.8762172 0.049413837 -0.13354453
1.4350396 0.31944612 2.0622778 -0.12267661 1.2561334 0.03266636 -0.2481818 -0.31511793
0.03744434 -1.5348055 -0.24541242 0.8669441 1.1438289 -1.8229005 -0.8369245 1.3087771
-1.1944796 -0.6421614 -0.13161564 0.43722403 0.42748606 0.29461527 -2.440094 -2.2882283
-1.2729214 0.06460458 -0.27013546 1.7026289 -0.6925601 -0.17342052 0.15227413 0.07873029
-1.2379051 -2.6360025 -0.4348379 1.6453853 -1.6046603 -0.20309357 -0.874577 -0.7708223
1.948303 0.64866513 1.7962444 -0.55926365 -0.5242384 -0.06781836 -1.0055271 -1.1098086
-0.97132003 -0.1442043 -1.1295282 1.2664998 -0.6300816 -0.13582756 -0.95399374 -0.8258861
-1.6714884 0.29436246 -3.154652 -0.25290087 -0.7857911 3.2448254 -1.7659732 -0.46773562
-1.8463093 -2.2953176 -0.43716004 -0.47162056 -0.25678623 -0.16263504 0.6605288 -1.3771592
0.022382751 0.78246903 -0.9151642 -0.4407059 -2.1970613 0.4499993 0.48885885 2.8382246
-1.7876093 0.57815117 -1.226637 1.1974888 0.8210194 1.4786711 -0.30124587 -1.1248231
0.8299966 0.19568126 -3.189241 0.07102893 3.58839 -0.31220326 0.8057068 1.2591293
-0.33582512 2.0791047 -1.9835098 0.16455925 0.17183305 -2.1493692 1.6586391 0.19530588
-3.9282708 1.6994226 1.0856236 -1.6941578 1.4716849 -3.5041003 0.36439547 1.8304782
-0.16396163 0.6235413 -0.0056639374 0.6692117 -0.46979228 -3.1162589 -0.5361318 2.7441778
-0.29210997 -6.1435995 -0.5763643 0.234817 0.8732803 2.186087 0.028137838 0.201028
00000000: 45a9 5a3e 0b96 2d40 cd77 f1be f43d 09bf
00000010: ba91 a2be 7f12 b53f 75cd 4a3e 9933 2040
00000020: 5540 aebc 0635 0cbe f8eb 1e3e 9135 1540
00000030: f134 c4be 1c0c 5dbe b568 53bf fd6c 8bbe
00000040: c4f7 33be 5c80 953e fc47 0c3e 6f22 713e
00000050: 6a2e dd3f 458c 8b3f f72f c2be 9474 813f
00000060: ca8f 63c0 d662 c73f 9529 993e b3d0 ed3f
00000070: 7e23 453f 6939 2c3d 8f00 29bf b71b 08bf
00000080: e077 a33e 33e6 203e 02af cd3e 6a49 043f
00000090: cfb0 3e3f 5fb4 3dbe a4d9 a0bf da2f 1abe
000000a0: a511 33c0 c0e4 b73e 879f 8dbe 1cdd 0e40
000000b0: cce1 58bf ab05 b03f 1837 0fbe f0c5 0fbf
000000c0: a843 593d 5ad9 9ec0 a232 0640 7418 71be
000000d0: 9a1e 3cbf f8ae d53e 56ee 0e3f bf18 aabf
000000e0: 4395 4240 efbc c4be 3c03 c93f e114 70bf
000000f0: 2503 833e 8248 31c0 e85e 3b3d a044 1dbd
00000100: 0a36 ac3c 5e55 56be 7dd6 b6bf 087d 5b3e
00000110: de0e 36bd 2e57 083d be63 0cc0 3bd5 bfbf
00000120: 7e43 1b3e 1fe8 ce3d ee6d 593f f3c2 0bc0
00000130: 17cf 4dbf fcf5 c83e 8fbc 05bf 29f2 c33d
00000140: b55b 86bf fef4 a93e 56f5 263f 00ed 493e
00000150: a202 383e bdfd 2bbf 94b1 acbe 834f a4bd
00000160: 17e7 89be e511 d9bf a05b 703f af85 f2be
00000170: 73c0 38bf aa1e 80bf 2a9a 1c3f cede fcbe
00000180: f890 8fbe fb74 7cbd 4249 e03c 6926 82bf
00000190: 23f5 ccbf cdd3 713d 4c37 ce3e 7f4e 783d
000001a0: b97d 36bf d76a 2c40 fed3 35c0 c47e 973e
000001b0: 7039 5b3f 7e62 57be 4852 fbbe cfc9 34bf
000001c0: 6178 5c3e a4e5 37bf 9c28 223f c054 fbbe
000001d0: 1b4f 0d40 18e9 0fc0 7cb8 9abe cf12 95bf
000001e0: eb60 c03e 4213 9dbf 7ac5 91bf 0c39 c03e
000001f0: dbe9 e4bf e327 f0bf 2a66 4a3d e6bf 08be
00000200: 61af b73f 718e a33e 5cfc 0340 e03d fbbd
00000210: fbc8 a03f 29cd 053d 5f23 7ebe 2357 a1be
00000220: 3c5f 193d 8274 c4bf 654d 7bbe 0cf0 5d3f
00000230: fc68 923f ce54 e9bf af40 56bf 0286 a73f
00000240: b5e4 98bf b164 24bf 40c6 06be d4db df3e
00000250: 74df da3e d0d7 963e 802a 1cc0 5572 12c0
00000260: 17ef a2bf 684f 843d 324f 8abe beef d93f
00000270: 9e4b 31bf 2695 31be c0ed 1b3e 593d a13d
00000280: ad73 9ebf 44b4 28c0 13a3 debe fc9b d23f
00000290: 8265 cdbf c3f7 4fbe 47e4 5fbf 9c54 45bf
000002a0: fe61 f93f eb0e 263f 56eb e53f e72b 0fbf
000002b0: 7d34 06bf 5ae4 8abd 1db5 80bf 350e 8ebf
000002c0: 6ea8 78bf 4baa 13be 6194 90bf aa1c a23f
000002d0: 074d 21bf 6116 0bbe ef38 74bf 456d 53bf
000002e0: 55f3 d5bf adb6 963e d2e5 49c0 397c 81be
000002f0: 9b29 49bf 38ab 4f40 690b e2bf 0b7b efbe
00000300: dd53 ecbf 7ce6 12c0 71d3 dfbe 4078 f1be
00000310: 7c79 83be cd89 26be 6a18 293f c146 b0bf
00000320: 085c b73c e44f 483f 3348 6abf 34a4 e1be
00000330: a79c 0cc0 4f66 e63e b54b fa3e 79a5 3540
00000340: 62d0 e4bf b701 143f 7102 9dbf 5047 993f
00000350: 542e 523f 1845 bd3f e63c 9abe 34fa 8fbf
00000360: a87a 543f ab60 483e 861c 4cc0 9e77 913d
00000370: 2fa8 6540 1bd9 9fbe cd42 4e3f 262b a13f
00000380: 45f1 abbe 0d10 0540 a6e3 fdbf 3882 283e
00000390: 01f5 2f3e 448f 09c0 494e d43f 44fe 473e
000003a0: ca68 7bc0 ae86 d93f b7f5 8a3f 2ada d8bf
000003b0: 2c60 bc3f 2e43 60c0 0b92 ba3e 1c4d ea3f
000003c0: 8fe5 27be 67a0 1f3f 8d98 b9bb 7551 2b3f
000003d0: 9d88 f0be c970 47c0 ef3f 09bf 9ca0 2f40
000003e0: 708f 95be 5e98 c4c0 9c8c 13bf de73 703e
000003f0: 4c8f 5f3f d9e8 0b40 5381 e63c 49da 4d3e

layers.2.bias f4 [128]
1.1510888 -0.8031101 -1.3212823 0.17114256 -2.681744 1.8073581 -0.62010884 -0.04541513
-0.30570227 -2.6371672 -0.8673014 -0.88428175 -0.22761555 -0.40678206 -0.07227026 0.64952034
-2.282299 0.109690934 -0.45042875 -1.7364055 -0.073841654 -3.374324 -3.8485014 -0.021161765
-3.468038 -0.9852868 -0.07287801 -0.084169604 -0.08282428 -1.5600319 -1.1485697 -2.5502687
-5.341375 -0.6549543 0.113419235 -3.9063325 -3.3260336 -0.007179869 -0.81888545 0.9830457
-4.2789335 -0.43599105 -1.5440239 -0.09553446 0.5526755 -2.7838843 -0.70152676 -4.64069
-0.036472812 1.1870985 0.051509704 -2.1331573 -0.33410403 -1.6353672 -1.2053483 -1.7194597
-1.4915849 -0.053571183 -0.37348923 -1.0674258 -1.778271 -1.3682146 -3.5738876 -0.52518874
-2.7607303 0.65513444 -4.495448 -3.4054341 -1.4336183 -2.1017973 -0.036994055 -1.4983873
-0.40868583 -0.07679239 -1.48246 0.744356 0.7205845 -0.5939043 -0.4067433 -0.04510724
0.7875737 0.7116031 -1.0135714 0.3296792 -3.0475223 -2.73615 -0.08420781 0.8125125
-2.1388109 -4.121534 -2.4684987 -0.44077396 -0.09968492 -0.091435805 -3.0362182 -2.2539377
-0.5094674 1.2792729 -2.359463 -1.1889905 1.1709884 -0.0874037 1.0869596 -1.0027729
0.020213244 -0.11240122 -0.47032267 1.0299165 -0.5965766 0.60233223 -2.2623398 0.008776742
-0.042360835 0.20090665 -2.0546997 0.5423722 -0.753742 -1.041244 -0.2836596 -1.0977199
0.59118193 -0.85258144 0.4717616 -0.044159845 -0.09675145 0.6753429 -2.491577 -0.9533685
00000000: e156 933f a098 4dbf c71f a9bf ff3f 2f3e
00000010: b2a1 2bc0 8357 e73f 74bf 1ebf 3705 3abd
00000020: 0285 9cbe 59c7 28c0 7707 5ebf 4a60 62bf
00000030: 0d14 69be bd45 d0be 6e02 94bd f746 263f
00000040: 3011 12c0 a4a5 e03d 999e e6be 8942 debf
00000050: 4b3a 97bd edf4 57c0 d94d 76c0 705b adbc
00000060: 56f4 5dc0 c13b 7cbf 1141 95bd 1d61 acbd
00000070: c79f a9bd 20af c7bf 5504 93bf 9a37 23c0
00000080: 8bec aac0 16ab 27bf 5848 e83d 5a01 7ac0
00000090: bcdd 54c0 1b45 ebbb 7aa2 51bf e2a8 7b3f
000000a0: 06ed 88c0 383a dfbe 93a2 c5bf 92a7 c3bd
000000b0: 247c 0d3f 292b 32c0 4297 33bf 8880 94c0
000000c0: 8464 15bd d8f2 973f d7fb 523d a685 08c0
000000d0: af0f abbe b653 d1bf da48 9abf 4117 dcbf
000000e0: 41ec bebf 756d 5bbd fb39 bfbe 69a1 88bf
000000f0: 629e e3bf a821 afbf 93ba 64c0 c572 06bf
00000100: ceaf 30c0 e4b6 273f b6da 8fc0 a2f2 59c0
00000110: ce80 b7bf d983 06c0 1487 17bd 28cb bfbf
00000120: 453f d1be 5445 9dbd 40c1 bdbf 1d8e 3e3f
00000130: 3a78 383f 1d0a 18bf a840 d0be 5fc2 38bd
00000140: 6e9e 493f 9f2b 363f b5bc 81bf b6cb a83e
00000150: 9b0a 43c0 151d 2fc0 2575 acbd d200 503f
00000160: 47e2 08c0 9be3 83c0 e2fb 1dc0 20ad e1be
00000170: 9b27 ccbd b242 bbbd 6651 42c0 8440 10c0
00000180: 756c 02bf 37bf a33f 7101 17c0 d730 98bf
00000190: f3e2 953f b600 b3bd 7e21 8b3f dd5a 80bf
000001a0: 3f96 a53c 9c32 e6bd 22ce f0be 4ed4 833f
000001b0: 3eb9 18bf 7232 1a3f 2dca 10c0 53cc 0f3c
000001c0: 8e82 2dbd 79ba 4d3e 3380 03c0 e8d8 0a3f
000001d0: 3cf5 40bf 7c47 85bf d53b 91be 1682 8cbf
000001e0: b357 173f c742 5abf bd8a f13e f4e0 34bd
000001f0: a025 c6bd 46e3 2c3f ff75 1fc0 f50f 74bf

layers.4.weight f4 [32, 128]
-0.15619512 -0.20486914 -0.019444015 0.05286341 0.12421682 -0.12241598 0.10005667 -0.30504727
0.10676268 0.16437472 -0.11622608 -0.2720481 -0.10410321 -0.06789356 0.003101655 0.06398819
-0.077615574 -0.12064989 -0.008855911 0.21845348 0.066687785 0.18337746 0.092498645 -0.06577247
-0.013774043 0.08080709 -0.019270351 0.07316266 0.036026012 -0.29181373 -0.08948554 0.17651707
0.09528871 -0.17811243 -0.25026163 0.20695333 0.034146965 0.01617003 -0.15614232 -0.06451286
0.1561506 -0.14604448 0.12376442 -0.03475647 -0.11476981 0.106925234 0.020682076 0.16884694
-0.05749478 -0.22843793 -0.19729638 0.10500297 -0.028125634 0.084825814 0.08004436 0.109776355
0.101175115 0.06919989 -0.100107454 -0.06088599 0.117061295 -0.024886679 0.12797125 -0.061730992
0.084323764 -0.112510055 0.10923053 0.13769926 0.09330554 0.089873925 0.159084 -0.19661245
-0.43385553 -0.049175296 0.09924632 -0.20091276 -0.1414849 0.13879915 -0.043083597 -0.08802266
-0.27064824 -0.051923227 0.076616906 -0.12681201 0.102658734 -0.0842919 -0.040747926 -0.18860866
0.07888681 0.14140481 0.12462789 -0.15134653 0.054896474 0.05669021 0.09455696 0.07263314
-0.650714 -0.08489644 0.110197455 -0.42183208 -0.0696011 -0.0725593 -0.30039915 0.09605234
-0.22783716 -0.3567474 0.04127139 0.08227842 -0.36399272 -0.16767202 0.097795725 -0.10082199
0.043465957 -0.22185963 0.12457328 -0.098972805 -0.05871886 -0.13820414 0.06559799 0.077190585
0.08533341 -0.14753737 0.10382925 0.058529053 -0.05478762 -0.09045219 0.07693725 0.040439602
0.009654924 0.36175874 0.38678318 0.25954935 0.32902086 0.14218853 0.41441792 -3.2231445
-1.6607748 -0.2795928 0.13023612 0.5482517 -0.21172053 -0.06937317 -0.0028292465 -0.1950274
-1.9481505 0.13720688 0.034610093 0.09541785 0.0689015 0.074582465 -0.12921621 -1.1142808
-3.587766 -0.30170867 -0.07085225 -0.031100241 -0.0013912449 0.20730898 0.36171362 -0.10229991
-1.0089664 0.036063906 -1.0304677 -1.0212412 0.43767053 0.0071115973 -0.17324483 -0.36952433
0.21393058 -1.1355424 0.31222337 0.0040589236 -0.39156663 0.20655869 -0.017987257 -0.47145635
-0.028405653 -0.96611995 -0.96010494 -0.28643486 0.26028368 0.059216943 0.29914364 0.19866356
-1.5240982 0.016977958 0.18615836 0.49691826 -0.35758373 -0.28210196 -0.019414138 -0.0968803
-0.23834875 -0.055159107 0.4175836 0.27180615 -0.22423038 -0.21795759 -0.13193074 0.5134793
0.5948613 0.043724343 -0.25088507 -2.187217 0.21442986 -0.0628963 0.06704865 -1.0355871
-0.34225142 0.12014711 -0.25030586 -0.02715672 -0.025656402 0.13824746 -0.034479123 0.3099585
-0.06499607 -0.25874647 -0.33466414 0.2988036 -0.03413115 0.046013128 0.026513934 -0.22724117
-0.34016332 -0.016053915 0.12337614 0.45102665 0.079572886 0.05014021 0.089165196 -1.9720936
-0.11597101 -4.55306 -0.70601964 0.0022066792 -0.010055798 0.046180643 -0.036850464 0.19511585
0.01625957 0.18907368 -0.2968598 -1.0029753 -0.11669798 0.31470582 -0.30329576 -0.5648382
0.09605401 -0.02316836 -0.49781725 0.03149644 0.056169566 -0.0037228172 -1.8675255 -0.13038313
00000000: 9df1 1fbe 37c9 51be 0e49 9fbc 4e87 583d
00000010: 6365 fe3d 3bb5 fabd 83ea cc3d 282f 9cbe
00000020: 64a6 da3d d951 283e f007 eebd e349 8bbe
00000030: 1034 d5bd c70b 8bbd 2345 4b3b 3d0c 833d
00000040: eaf4 9ebd 4a17 f7bd 6218 11bc 45b2 5f3e
00000050: 9b93 883d 4dc7 3b3e ee6f bd3d b7b3 86bd
00000060: 86ac 61bc 307e a53d dbdc 9dbc 4ed6 953d
00000070: 0390 133d 9c68 95be 3244 b7bd e4c0 343e
00000080: ba26 c33d 1b63 36be 4b22 80be 93eb 533e
00000090: b0dd 0b3d 0377 843c c6e3 1fbe 511f 84bd
000000a0: f1e5 1f3e af8c 15be 3378 fd3d cd5c 0ebd
000000b0: 6f0c ebbd 9efb da3d 756d a93c 36e6 2c3e
000000c0: a57f 6bbd a2eb 69be 1008 4abe cc0b d73d
000000d0: bb67 e6bc 28b9 ad3d 4cee a33d 6dd2 e03d
000000e0: e634 cf3d acb8 8d3d 2305 cdbd 9663 79bd
000000f0: d5bd ef3d 26df cbbc e50a 033e a3d9 7cbd
00000100: f0b1 ac3d ac6b e6bd 42b4 df3d 0901 0d3e
00000110: fa16 bf3d d20f b83d ebe6 223e c654 49be
00000120: 5022 debe 096c 49bd a841 cb3d 13bc 4dbe
00000130: 6be1 10be 5d21 0e3e 6d78 30bd 3945 b4bd
00000140: 6892 8abe 73ad 54bd 53e9 9c3d 02db 01be
00000150: be3e d23d 3ba1 acbd 4ce7 26bd a122 41be
00000160: 688f a13d 6ccc 103e e83c ff3d 96fa 1abe
00000170: 20db 603d fe33 683d 14a7 c13d afc0 943d
00000180: 3195 26bf 2fde adbd 34af e13d 60fa d7be
00000190: 068b 8ebd f899 94bd ebcd 99be 17b7 c43d
000001a0: 254e 69be 98a7 b6be 300c 293d 9781 a83d
000001b0: 415d babe 37b2 2bbe 2049 c83d c27b cebd
000001c0: 5c09 323d 2c2f 63be 4720 ff3d 41b2 cabd
000001d0: 3083 70bd 6385 0dbe 3d58 863d 1916 9e3d
000001e0: 48c3 ae3d 0914 17be 6ea4 d43d 29bc 6f3d
000001f0: fc68 60bd ff3e b9bd 4791 9d3d ffa3 253d
00000200: b02f 1e3c 7138 b93e 7208 c63e a7e3 843e
00000210: 6c75 a83e df99 113e 962e d43e 0048 4ec0
00000220: 4594 d4bf ca26 8fbe 9e5c 053e 395a 0c3f
00000230: 44cd 58be 8513 8ebd e16a 39bb 43b5 47be
00000240: ff5c f9bf f67f 0c3e 50c3 0d3d 6f6a c33d
00000250: 3b1c 8d3d b1be 983d 4151 04be c1a0 8ebf
00000260: f59d 65c0 8f79 9abe fc1a 91bd efc5 febc
00000270: 6f5a b6ba ce48 543e 8732 b93e 9d82 d1bd
00000280: d025 81bf bfb7 133d 5ee6 83bf 08b8 82bf
00000290: 5a16 e03e 6708 e93b 1867 31be 4b32 bdbe
000002a0: 9e10 5b3e 7459 91bf bedb 9f3e b800 853b
000002b0: 6c7b c8be 1f84 533e 035a 93bc ba62 f1be
000002c0: f9b2 e8bc a353 77bf 70c9 75bf 97a7 92be
000002d0: e743 853e 778d 723d 5b29 993e 766e 4b3e
000002e0: a615 c3bf 5c15 8b3c 4ca0 3e3e 126c fe3e
000002f0: 3715 b7be ab6f 90be 660a 9fbc 2e69 c6bd
00000300: b211 74be 84ee 61bd 85cd d53e 2d2a 8b3e
00000310: a69c 65be 4630 5fbe da18 07be 6173 033f
00000320: d548 183f 4c18 333d 0274 80be 5dfb 0bc0
00000330: 8093 5b3e c6cf 80bd cd50 893d 1e8e 84bf
00000340: 943b afbe b00f f63d 1728 80be c577 debc
00000350: 602d d2bc be90 0d3e fb39 0dbd e1b2 9e3e
00000360: a91c 85bd 6b7a 84be 1959 abbe c9fc 983e
00000370: 1bcd 0bbd 4378 3c3d c033 d93c e9b1 68be
00000380: e329 aebe 8083 83bc a1ac fc3d f7ec e63e
00000390: 1cf7 a23d d25f 4d3d 3e9c b63d 906d fcbf
000003a0: 3582 edbd abb2 91c0 b4bd 34bf ef9d 103b
000003b0: 13c1 24bc ea27 3d3d 83f0 16bd 73cc 473e
000003c0: ca32 853c 889c 413e 02fe 97be 7f61 80bf
000003d0: 5aff eebd 1f21 a13e 9549 9bbe 3c99 10bf
000003e0: f7b7 c43d 93cb bdbc e7e1 febe 6902 013d
000003f0: 0f12 663d 82fa 73bb 130b efbf 2883 05be

layers.4.bias f4 [32]
0.10983829 -2.435035 0.12629122 0.017192341 0.017649751 0.015422604 0.018794103 0.017955236
-3.575661 0.101244755 -2.7629516 0.10652094 -2.709626 0.09642038 0.098000824 -2.692871
0.018330427 0.10941309 -4.5144386 -1.2274666 -0.88887537 -3.3619215 0.11096711 0.1024218
0.106694765 -0.77491415 0.11442228 -3.3614151 -1.4743738 0.050533388 -3.2624702 0.017487405
00000000: e6f2 e03d 9dd7 1bc0 7c52 013e f4d6 8c3c
00000010: 3696 903c 17af 7c3c 17f6 993c dc16 933c
00000020: a1d7 64c0 6959 cf3d 33d4 30c0 a727 da3d
00000030: 836a 2dc0 0c78 c53d a8b4 c83d 0058 2cc0
00000040: b129 963c f813 e03d 4876 90c0 a01d 9dbf
00000050: 568d 63bf b929 57c0 b942 e33d 85c2 d13d
00000060: c982 da3d c660 46bf 3a56 ea3d 6d21 57c0
00000070: 48b8 bcbf 19fc 4e3d 50cc 50c0 bf41 8f3c

layers.7.weight f4 [1, 32]
0.0045797876 -0.003066354 0.004139034 -0.0024620043 -0.0028587363 -0.0028252017 -0.0028711907 -0.0020752812
-0.0037148239 0.0053136055 -0.004662342 0.0039741765 0.007896818 0.006954839 0.00600391 0.005073819
-0.0026110844 0.0024840878 0.013940573 -0.006076216 -0.002006612 0.026037844 0.0053082067 0.005351997
0.002470171 -0.007433042 0.0020147734 0.01570664 -0.0041181818 0.008712173 0.006620319 -0.002941155
00000000: 0b12 963b e2f4 48bb bca0 873b 9459 21bb
00000010: a359 3bbb 0527 39bb 962a 3cbb 7101 08bb
00000020: 6774 73bb c11d ae3b 8fc6 98bb cf39 823b
00000030: a861 013c 6be5 e33b 73bc c43b 4742 a63b
00000040: ba1e 2bbb 14cc 223b 0067 643c ff1a c7bb
00000050: 5d81 03bb 514d d53c 77f0 ad3b ce5f af3b
00000060: 98e2 213b e090 f3bb 4a0a 043b 36ab 803c
00000070: d0f1 86bb 81bd 0e3c 43ef d83b 65c0 40bb
