Anul III/Semestrul 2/NLP/Laborator/lab_4/data/best_model.pt (torch, 17047 bytes, 6 tensors)

model.0.weight f4 [60, 30]
0	0xbec9b249	-0.39393833
1	0xbda957fb	-0.08268734
2	0xbe7de890	-0.24795747
3	0x3b35a59c	0.002771712
4	0x3e72f22c	0.23725194
5	0x400166b8	2.0218945
6	0x4066e924	3.6079798
7	0x404341c9	3.0508902
8	0x3b9f1d1f	0.0048557664
9	0xbd3a5af3	-0.045496892
10	0xbd7bb425	-0.061451096
11	0xbd9d9444	-0.07694295
12	0x3f1f841a	0.62310946
13	0x3ebd0902	0.36920935
14	0x3f02d38f	0.5110406
15	0x3fe8932c	1.8169913
16	0x3fcbc6a7	1.5919999
17	0x3fbecfca	1.4907162
18	0x3e262154	0.16223651
19	0x3f526f91	0.82201487
20	0xbe9252da	-0.28578836
21	0x3e5e343b	0.21699612
22	0xbe8a4d86	-0.2701227
23	0xbc4ea774	-0.012613166
24	0x3e810353	0.2519785
25	0x401c446a	2.4416757
26	0x404de092	3.2168317
27	0x4022c6e3	2.543389
28	0x3ef00ca0	0.46884632
29	0x3efed254	0.49769843
30	0xbe88701e	-0.2664804
31	0xbe9118a3	-0.2833911
32	0xbec8b9e2	-0.39204317
33	0xbcdcb730	-0.02694282
34	0xbe236d7e	-0.15959737
35	0x3e9a6ce3	0.301612
36	0x3efa5875	0.48895612
37	0x3ef65308	0.48110223
38	0xbe36120d	-0.17780323
39	0xbeab9d41	-0.33518413
40	0xbe951624	-0.29118454
41	0xbe6f7379	-0.23383893
42	0xbd4ceac3	-0.050028574
43	0x3e03982a	0.12851015
44	0xbd2aad19	-0.041668985
45	0x3e1316df	0.14364193
46	0x3e434b4e	0.19071695
47	0xbd419361	-0.047259692
48	0xbdf2aa3a	-0.118488744
49	0xbe379e81	-0.17931558
50	0xbe504891	-0.20340182
51	0xbe5d9508	-0.21638882
52	0xbe9bb793	-0.30413494
53	0x3cad1a1a	0.02113061
54	0x3cc7d588	0.024393812
55	0x3ea6ed58	0.32602954
56	0x3e6b4730	0.22976375
57	0x3e905265	0.28187862
58	0xbe341bf4	-0.17588788
59	0xbe9e5f50	-0.30932093
60	0x3dfc2bdf	0.12313055
61	0x3f0f7a37	0.5604586
62	0x3e4885b0	0.19582248
63	0xbd7d1e7f	-0.06179666
64	0x3e47898a	0.1948606
65	0xbe8d567d	-0.27605048
66	0x3cfd0681	0.03088689
67	0xbf15edce	-0.58565986
68	0x3eff210e	0.49829906
69	0x3eb3db6d	0.35128346
70	0x3eb3d26a	0.3512147
71	0x3f41aa90	0.7565088
72	0x3e43743c	0.19087309
73	0x3e1b5554	0.15169269
74	0x3f46d8d3	0.776746
75	0x3ded83f3	0.11597433
76	0x3f8fe745	1.1242453
77	0x3f062c76	0.5241159
78	0x3eea9f5b	0.45824704
79	0x3f400560	0.750082
80	0x3e12fb1d	0.14353605
81	0x3f093de6	0.53610075
82	0x3d0db724	0.034598485
83	0xbd8e865f	-0.06959223
84	0xbd081b20	-0.033228993
85	0xbf2bd83e	-0.67126834
86	0xbdb9bf4d	-0.09069691
87	0xbee3a1b8	-0.4445932
88	0x3db44d06	0.088037536
89	0x3c9d0f71	0.019172402
90	0x3e1548f5	0.14578612
91	0xbe95f72f	-0.2929015
92	0x3b4541ff	0.0030099151
93	0x3d3f53a6	0.046710633
94	0xbe2e686b	-0.1703202
95	0xbf81fa89	-1.0154582
96	0xbffb1db4	-1.961844
97	0xbfce5009	-1.6118175
98	0x3d81c853	0.06337037
99	0xbc27b7c0	-0.0102366805
100	0x3dba722c	0.09103808
101	0xbd979031	-0.07400549
102	0xbe5cec2d	-0.21574469
103	0xbebb6857	-0.36603042
104	0xbe839926	-0.2570278
105	0xbf9481b1	-1.1602079
106	0xbf590fa2	-0.8478948
107	0xbf67dd4a	-0.90572035
108	0xbeb8c656	-0.36088818
109	0xbe9f99ed	-0.31172124
110	0x3e0c34d3	0.13692026
111	0xbe4b07ef	-0.19827245
112	0x3e385f5c	0.18005127
113	0xbdb37d9e	-0.08764194
114	0xbbf2c636	-0.0074088825
115	0xbfc52db1	-1.5404569
116	0xbfd83b95	-1.6893183
117	0xbfa47b50	-1.2850132
118	0xbe90dc0e	-0.28292888
119	0xbeac524d	-0.3365654
120	0x3e7108d8	0.2353853
121	0xbef3b850	-0.47601557
122	0x3e4fcb2a	0.20292345
123	0xbe02dbf3	-0.12779216
124	0xbeecf0f9	-0.46277598
125	0xbf85b65f	-1.044628
126	0xbfcdb836	-1.6071842
127	0xbfa825d3	-1.3136543
128	0xbe86b48c	-0.2630962
129	0xbeaf6863	-0.34259328
130	0x3e876763	0.26446065
131	0xbdd2517c	-0.10269448
132	0xbdf5cbd0	-0.12001765
133	0x3e4bb969	0.19894947
134	0xbf3bb9eb	-0.73330563
135	0xbf940940	-1.1565323
136	0xbf8abe87	-1.0839394
137	0xbf442ba3	-0.76629084
138	0xbf174a5d	-0.59097844
139	0xbf2e52c5	-0.68095046
140	0xbd164d74	-0.03669496
141	0xbef566c4	-0.47929966
142	0x3dc6ad53	0.09701028
143	0x3d1d641f	0.03842556
144	0xbee2fdae	-0.44334167
145	0xbf98a1d0	-1.1924381
146	0xbfd0c570	-1.6310253
147	0xbf9cde6b	-1.2255377
148	0xbf0d9cf0	-0.5531759
149	0xbf3cd2b9	-0.7375904
150	0x3e1c820c	0.15283984
151	0xbe33159a	-0.17488709
152	0x3dc87c22	0.097893015
153	0xbd2a6f39	-0.041609976
154	0xbddfa346	-0.10919814
155	0xbf171657	-0.5901846
156	0xbf6ea8f4	-0.9322655
157	0xbf6e34bd	-0.9304922
158	0x3dc841c1	0.097781666
159	0x3e298f51	0.16558577
160	0x3e5cb779	0.21554364
161	0x3c735745	0.01485235
162	0xbc8a7604	-0.016901977
163	0xbe465a0b	-0.19370286
164	0x3cb2a9c4	0.021809466
165	0xbf0780cd	-0.5293091
166	0xbf17b334	-0.5925782
167	0xbe390b99	-0.1807083
168	0xbe129650	-0.14315152
169	0xbe5ce833	-0.21572952
170	0x3db89035	0.0901188
171	0xbe0d72bf	-0.13813303
172	0x3e38e41f	0.18055771
173	0xbd2fd429	-0.04292694
174	0xbded9429	-0.11600525
175	0xbf1236ed	-0.5711506
176	0xbf5b060c	-0.855561
177	0xbf0ec453	-0.55768317
178	0x3bf940d1	0.0076066037
179	0xbe89d164	-0.26917565
180	0xbf10c09b	-0.5654389
181	0x3e89e886	0.26935214
182	0xbebd060e	-0.36918682
183	0x3df69d2e	0.120416984
184	0x3e7ea18a	0.2486631
185	0x4000a38b	2.0099819
186	0x40752ddf	3.8309247
187	0x403f9b20	2.993843
188	0xbcaa18cd	-0.020763779
189	0xbeabc9c9	-0.33552387
190	0xbe8a7c05	-0.27047744
191	0xbda31e3c	-0.07964751
192	0x3f0e1a83	0.55509204
193	0x3daf7319	0.08566875
194	0x3f4fbd21	0.8114796
195	0x3fd96681	1.6984407
196	0x401085e5	2.2581723
197	0x3fdbf397	1.7183713
198	0x3f06b45e	0.5261897
199	0x3f4e19d1	0.8050814
200	0xbe9e74af	-0.30948398
201	0x3b6e3109	0.0036345145
202	0xbeae9242	-0.3409596
203	0xbd5272ee	-0.051379137
204	0x3ec79b18	0.38985515
205	0x401cdc36	2.4509406
206	0x404aaf77	3.1669595
207	0x400d3240	2.206192
208	0x3ef631f9	0.48085
209	0x3ef383e4	0.47561562
210	0x3d1086c2	0.035284765
211	0x3db44d87	0.0880385
212	0xbe025c2e	-0.12730476
213	0xbe05e750	-0.1307652
214	0x3e380725	0.17971475
215	0x3fb532e1	1.4156152
216	0x3fe540fd	1.7910458
217	0x3fc6b253	1.552317
218	0x3e679282	0.22614482
219	0x3da5413c	0.08069083
220	0x3c919572	0.017771456
221	0xbe095f83	-0.13415341
222	0xbdb8fd27	-0.0903266
223	0xbcd8e4a6	-0.026476216
224	0x3d811b05	0.06303982
225	0x3f6bedab	0.9215953
226	0x3f3acb87	0.7296681
227	0x3f24b1c0	0.64333725
228	0x3eabf0dc	0.335822
229	0x3eb005fd	0.3437957
230	0xbe6fc292	-0.23414066
231	0x3d3d5967	0.04622784
232	0x3d29055d	0.04126488
233	0x3d77e452	0.060520478
234	0x3e4ac88b	0.19803064
235	0x3fad7093	1.354998
236	0x3fdb5974	1.7136674
237	0x3f95a95d	1.169231
238	0x3e914f30	0.28380728
239	0x3efce159	0.49390677
240	0x3f1613d4	0.58624005
241	0x3c4818b6	0.012212923
242	0x3ed73ef8	0.4204023
243	0x3e1bb6ce	0.15206453
244	0x3dc63d87	0.09679704
245	0xbfc8b09a	-1.5678895
246	0xc03e6919	-2.9751647
247	0xc024b9c1	-2.5738375
248	0x3e0a7241	0.13520147
249	0x3ed4de86	0.41576022
250	0x3e6fdb0f	0.23423408
251	0x3eba0e48	0.3633902
252	0xbe37e897	-0.1795982
253	0xbdb12764	-0.08650091
254	0xbebc1ec4	-0.36742222
255	0xbf9e22ff	-1.235443

model.0.bias f4 [60]
0	0xbf54c954	-0.831197
1	0xbed44863	-0.41461477
2	0x3f0957a4	0.53649354
3	0x3ed50a7e	0.41609567
4	0x3e104b07	0.1409112
5	0x3d9f3959	0.0777461
6	0xbf5aa7b6	-0.85412157
7	0xbecc5ac4	-0.39913
8	0x3f465a69	0.77481705
9	0x3f7d22ab	0.98881024
10	0xbf43e23b	-0.76517075
11	0xbdcc7b32	-0.09984435
12	0xbf5d5a3d	-0.8646582
13	0xbf3fcbe6	-0.749205
14	0x3e91257e	0.28348917
15	0xbeeb6196	-0.4597289
16	0xbea32fb5	-0.31872335
17	0x3f9c3397	1.2203244
18	0xbccd9264	-0.025094219
19	0x3e179789	0.148039
20	0x3f53ff12	0.8281108
21	0x3f713bb5	0.9423173
22	0x3ee20500	0.4414444
23	0x3f8a1a77	1.0789326
24	0xbf806125	-1.0029646
25	0x3f708982	0.9395982
26	0xbf208ce9	-0.6271501
27	0xbec19261	-0.3780699
28	0xbeb5af51	-0.35485318
29	0x3f178b3e	0.5919684
30	0xbf57fa20	-0.84366035
31	0x3dc8859d	0.0979111
32	0xbf6e6bac	-0.93133044
33	0x3f07183d	0.5277136
34	0x3f6ca966	0.9244598
35	0xbf4745cc	-0.77840877
36	0xbf036d1c	-0.5133836
37	0xbf807a4b	-1.0037321
38	0x3f864835	1.0490786
39	0xbf4db435	-0.803531
40	0xbe226eb4	-0.15862542
41	0x3d172c68	0.036907583
42	0x3f2ac7c3	0.6671106
43	0xbed0abcf	-0.4075608
44	0xbe03937d	-0.12849231
45	0xbe77851c	-0.24171871
46	0x3dcaa5d5	0.09894911
47	0x3f839cc3	1.0282215
48	0x3ec5b8a0	0.3861742
49	0xbf6020a2	-0.87549794
50	0xbf60e583	-0.8785021
51	0x3ee92374	0.4553486
52	0xbf3cd524	-0.73762727
53	0xbd2405a6	-0.04004445
54	0x3f71c93b	0.9444768
55	0xbed8ff07	-0.4238207
56	0x3f60be7a	0.87790644
57	0xbf262475	-0.6489938
58	0xbf8467e5	-1.0344206
59	0xbf59aa72	-0.85025704

model.3.weight f4 [30, 60]
0	0x3dde973a	0.10868688
1	0xbcf65b2d	-0.030072773
2	0xbbb78920	-0.0056010634
3	0xbdaf639a	-0.08563919
4	0x3dd1ce29	0.102444
5	0xbc4683ff	-0.012116431
6	0xbdcd8543	-0.10035183
7	0xbda77e72	-0.081784144
8	0xbc91831b	-0.017762711
9	0xbb611aa3	-0.0034348152
10	0xbdfa10a7	-0.122102074
11	0xbd448e0f	-0.04798704
12	0x3da12abc	0.07869479
13	0xbd611253	-0.054949116
14	0xbd89dee0	-0.06731963
15	0xbdbca91c	-0.092119426
16	0x3d28378d	0.041068602
17	0x3d3eab61	0.04655016
18	0x3d98cb40	0.07460642
19	0x3b477bde	0.003043882
20	0x3e00e0cb	0.12585752
21	0x3e1408da	0.14456502
22	0x3d8a1f3e	0.0674424
23	0x3e318bd4	0.17338496
24	0x3dae39f0	0.085071445
25	0x3cba6d18	0.022757098
26	0x3cf0d3a9	0.029397802
27	0xbcb3d3ae	-0.021951523
28	0xbd4a2d46	-0.049359582
29	0x3d212b54	0.03934796
30	0xbd1a3db6	-0.03765651
31	0x3dbea432	0.093086615
32	0x3d9afb28	0.075674355
33	0x3d0027f6	0.03128811
34	0x3d865981	0.0656004
35	0x3d7ec13d	0.062196005
36	0xbdc487eb	-0.09596237
37	0xbbf842e2	-0.0075763324
38	0xbd9f0c20	-0.077659845
39	0xbdb71748	-0.089399874
40	0x3c9987ae	0.018741455
41	0x3da0ed87	0.07857805
42	0xbd0ab7bf	-0.03386664
43	0x3d6f4aba	0.058420874
44	0x3dbd2492	0.09235491
45	0x3cec801a	0.028869677
46	0xbd8e8c50	-0.06960356
47	0xbcf06757	-0.029346151
48	0x3dd6098a	0.10451038
49	0xbe0fc505	-0.1404
50	0xbe1e120e	-0.15436575
51	0x3d754bf5	0.05988689
52	0xbd5383da	-0.051639415
53	0xbd246d49	-0.040143285
54	0x3e17c24c	0.14820212
55	0x3a613bf1	0.0008592001
56	0xbdcec3a9	-0.10095913
57	0x3d95b09a	0.07309075
58	0xbe7ef41f	-0.24897812
59	0xbd438da3	-0.047742497
60	0xbd9fe297	-0.078068905
61	0x3c2a07e1	0.010377855
62	0x3d948cba	0.07253404
63	0x3d342b85	0.043986816
64	0x3e006323	0.12537818
65	0xbdb4a391	-0.0882026
66	0xbc1bb208	-0.009502895
67	0x3d09b84d	0.03362303
68	0x3e1ee0d7	0.15515457
69	0x3da5d3a8	0.08097011
70	0x3d7bfb2f	0.061518844
71	0xbd1fd015	-0.039016802
72	0xbdb1acc2	-0.08675529
73	0x3bbce808	0.005764965
74	0x3dc84a29	0.0977977
75	0xbae58231	-0.0017510114
76	0xbbac510c	-0.005258685
77	0x3dcf4413	0.10120406
78	0x3e0cc85d	0.13748308
79	0x3d6f617d	0.05844258
80	0x3c8d4d17	0.017248673
81	0x3e193ac2	0.1496382
82	0xbb858377	-0.0040745097
83	0x3de0c5d5	0.109752335
84	0x3de074e4	0.10959795
85	0x3d8cba8e	0.0687152
86	0x3df5e1b2	0.120059386
87	0xbdc32a43	-0.09529545
88	0x3d05791f	0.032586213
89	0x3d982b6d	0.07430158
90	0xbd5fc111	-0.05462748
91	0x3ddb6c1b	0.10713979
92	0xbc66fca5	-0.014098321
93	0xbda68b6a	-0.0813206
94	0x3d4c4db6	0.0498788
95	0xbd59da11	-0.05318648
96	0xbcc9afee	-0.024620023
97	0x3ddebbe6	0.108756825
98	0x3cb5503c	0.022132985
99	0xbd9d95ec	-0.07694611
100	0x3d803ab4	0.06261197
101	0xbd38dd67	-0.04513302
102	0x3dab8869	0.083756275
103	0xbb804199	-0.00391407
104	0xbd8c4a10	-0.06850064
105	0x3c1fdef1	0.009757743
106	0x3d745ea3	0.059660565
107	0x3dd95a22	0.106128946
108	0x3dd582fe	0.104253754
109	0xbc42fcc0	-0.011901081
110	0xbe3bf621	-0.1835561
111	0x3ca490ad	0.020088518
112	0xbe11b7b9	-0.14230241
113	0x3d1e4fcb	0.038650315
114	0x3e10a0d7	0.14123856
115	0x3d7f0122	0.06225694
116	0xbd12ff4b	-0.035887998
117	0x3dd60c69	0.10451586
118	0xbdf36d06	-0.11886029
119	0xbc2d695e	-0.0105842035
120	0x3d275e59	0.04086146
121	0xbd987566	-0.07444267
122	0x3be7042c	0.007050058
123	0xbd61bd03	-0.055111896
124	0x3dfdd63f	0.1239438
125	0x3d8d4137	0.06897204
126	0xbd8c6231	-0.06854666
127	0xbdd0b61f	-0.10190987
128	0xbbcae10c	-0.0061913785
129	0xbdbd121c	-0.0923197
130	0xbdb3192f	-0.08745038
131	0xbc385355	-0.011250337
132	0xbb71d87a	-0.0036902712
133	0x3d47f078	0.048813313
134	0x3dbe7af5	0.09300796
135	0x3aba53aa	0.0014215608
136	0x376c4082	1.4081716e-05
137	0x3d6b63e4	0.05746831
138	0xbc45339a	-0.012036229
139	0xbb2d88ed	-0.002647932
140	0x3d14a7c6	0.036292814
141	0x3da58135	0.08081285
142	0x3c2a1477	0.010380856
143	0x3db78674	0.08961192
144	0xbd2b58f1	-0.041832868
145	0x3d5f210d	0.05447488
146	0xbd37c7c5	-0.04486825
147	0xbde26b54	-0.110556275
148	0x3cb05e3d	0.021529311
149	0xbcf6dffd	-0.030136103
150	0xbaa303a7	-0.0012437002
151	0x3d34f65e	0.044180267
152	0xbe007d26	-0.1254774
153	0xbda62b00	-0.0811367
154	0x3e19b18d	0.15009136
155	0xbde1e020	-0.110290766
156	0x3a53c9b3	0.0008079067
157	0xbd543a6b	-0.051813524
158	0x3dbc124a	0.09183176
159	0xbbc0ad63	-0.0058800443
160	0xbdbd71da	-0.09250231
161	0x3d8083ba	0.06275125
162	0x3e0eaf93	0.13934164
163	0xbd92b04d	-0.07162533
164	0xbde493a1	-0.111609705
165	0xbdbd7a49	-0.0925184
166	0xbd622a2e	-0.055216007
167	0x3c29a844	0.010355059
168	0x3dfaef4d	0.12252674
169	0xbd9250aa	-0.07144292
170	0x3dd8c9e0	0.105853796
171	0x3ba9a16e	0.0051767146
172	0xbe23dd9c	-0.16002506
173	0x3dccfe31	0.10009421
174	0x3dfda897	0.123856716
175	0xbd3a5678	-0.04549262
176	0xbda0368e	-0.078229055
177	0xbdd03f3c	-0.10168311
178	0xbe659596	-0.22420344
179	0xbe28f2d4	-0.16498882
180	0x3d2bd97e	0.041955464
181	0x3d1adfe4	0.037811175
182	0x3d81ae40	0.06332064
183	0xbc40456c	-0.011735301
184	0x3c25689f	0.010095744
185	0x3de0ebb5	0.109824575
186	0x3d104def	0.035230573
187	0xbdad7c63	-0.084709905
188	0x3d0c61cb	0.03427295
189	0x3c1b232f	0.009468838
190	0x3c180673	0.009278881
191	0xbe038eac	-0.12847394
192	0xbc507953	-0.012724238
193	0xbcaf0c03	-0.021368032
194	0x3dc85612	0.097820416
195	0xbd8c27b6	-0.06843512
196	0x3d596e53	0.05308373
197	0x3d8dd70c	0.069257826
198	0x3d7d023e	0.061769716
199	0x3da2823b	0.07934996
200	0x3cf39aec	0.029736958
201	0x3e3c2bb8	0.18376052
202	0x3dc6c917	0.097063236
203	0x3d118788	0.035529643
204	0xbda7db1e	-0.0819609
205	0xbddb030f	-0.10693943
206	0x3cdecfbc	0.027198665
207	0x3cbfe535	0.023424724
208	0x3d879d66	0.06621818
209	0xbdfb2b7b	-0.122641526
210	0x3d6f6650	0.058447182
211	0x3dde4235	0.10852472
212	0xbe0086f6	-0.12551484
213	0x3d396fbd	0.045272578
214	0x3cd14d9c	0.025549702
215	0xbcd32dfb	-0.025778761
216	0xbdd61a16	-0.10454194
217	0x3cc93874	0.024563052
218	0x3dcaee9b	0.09908792
219	0xbe17da20	-0.14829302
220	0x3dc4d7e3	0.096114896
221	0x3d07497e	0.033029072
222	0x3e055f88	0.13024724
223	0x3db76baf	0.08956086
224	0x3db2ee9b	0.08736917
225	0x3de73c51	0.11290801
226	0xbdcf8ace	-0.10133897
227	0x3d9fd455	0.07804171
228	0xbcd34a50	-0.02579227
229	0x3dad395e	0.084582075
230	0xbd5b4542	-0.053532846
231	0x3e4d9e5d	0.20079942
232	0xbd8ac8b0	-0.06776559
233	0x3d531985	0.05153801
234	0x3db60eee	0.08889566
235	0xbbb25abb	-0.005442945
236	0x3d26d0b5	0.040726382
237	0x3d904d3e	0.07045983
238	0xbe8c2b62	-0.27376848
239	0xbe8a7f7d	-0.2705039
240	0xbdd95f47	-0.10613876
241	0x3d162b8e	0.03666263
242	0xbd7ddc0d	-0.061977435
243	0x3d5fd1ff	0.054643627
244	0x3d0e5a6c	0.0347542
245	0xbde49809	-0.11161811
246	0xbcee25ce	-0.029070761
247	0xbde4b851	-0.11167968
248	0xbd20b33c	-0.03923343
249	0xbd2da59e	-0.042394273
250	0xbd82c82a	-0.063858345
251	0xbdd2a604	-0.10285571
252	0x3d7a2799	0.06107292
253	0x3dc7cd57	0.09755962
254	0xbd7aee7f	-0.061262604
255	0xbd902411	-0.07038129

model.3.bias f4 [30]
0	0x3e69acc5	0.22819813
1	0x3e6b47bb	0.22976582
2	0x3e0cefa7	0.13763295
3	0x3e4b0fae	0.198302
4	0xbe413b18	-0.18870199
5	0xbdf83f15	-0.12121407
6	0xbdbdc611	-0.09266294
7	0xbe28e1cf	-0.16492389
8	0xbe0cedaf	-0.13762544
9	0xbe696a46	-0.22794446
10	0x3d8d45f5	0.06898109
11	0xbea66208	-0.32496667
12	0xbab0e31c	-0.0013495418
13	0x3e1a9177	0.15094553
14	0xbe21f255	-0.15815099
15	0xbe401515	-0.18758042
16	0xbd00580e	-0.031333975
17	0x3de31d5b	0.110895835
18	0xbb994408	-0.0046772994
19	0xbe9a78eb	-0.30170378
20	0xbe7fc016	-0.24975619
21	0xbbeb6234	-0.0071833376
22	0xbe34f173	-0.1767023
23	0xbded63b0	-0.115912795
24	0xbe15263f	-0.14565371
25	0x3d932d76	0.07186405
26	0xbe9e7aaf	-0.30952975
27	0x3d07861f	0.033086892
28	0xbcabb190	-0.020958692
29	0x3d94f0d7	0.07272499

model.6.weight f4 [2, 30]
0	0xbe3fbc90	-0.18724275
1	0xbdab398f	-0.08360588
2	0xbdc7d287	-0.09756952
3	0xbe5f870d	-0.21828862
4	0x3e4ea228	0.20179045
5	0x3c83c31e	0.01608425
6	0x3e1934f5	0.14961608
7	0x3db7764b	0.089581095
8	0x3dce08fe	0.10060309
9	0x3def848a	0.11695202
10	0xbd29bb46	-0.041438363
11	0xbd355b46	-0.0442765
12	0xbd49531f	-0.049151536
13	0xbc283a9b	-0.010267879
14	0x3d894667	0.06702881
15	0x3df7e3a4	0.12103966
16	0xbd32fa93	-0.043695997
17	0xbe0df664	-0.13863522
18	0x3dfc9c06	0.123344466
19	0x3e08f7dd	0.13375802
20	0x3e4660e2	0.19372895
21	0xbe06b4ab	-0.13154857
22	0xbd8ebfad	-0.06970153
23	0xbe00dc36	-0.12584004
24	0xbe09a258	-0.13440835
25	0xbe0e557f	-0.13899802
26	0x3c26a400	0.010170937
27	0x3e03fe99	0.1289009
28	0xbd14e931	-0.0363552
29	0x3dbb36c9	0.09141309
30	0xbd8d582e	-0.069015846
31	0xbd24eab5	-0.040262897
32	0x3d21dac1	0.03951526
33	0xbd899c1a	-0.06719227
34	0x3d8677aa	0.06565793
35	0xbd958a94	-0.07301822
36	0xbc9b58f8	-0.018963322
37	0xbd4ced2d	-0.050030876
38	0xbd43f8b1	-0.047844592
39	0xbd8ec0b9	-0.06970353
40	0x3daa23a4	0.08307579
41	0xbe3ef4ac	-0.18648022
42	0xbdc94112	-0.09826864
43	0x3d9a89e0	0.07545829
44	0x3d2d3dda	0.042295314
45	0xbda9151b	-0.08255979
46	0x3d26a059	0.040680263
47	0xbd397666	-0.04527893
48	0x3d923d7d	0.07140634
49	0xbd60b907	-0.054863956
50	0xbd8537ba	-0.065047696
51	0xbacdd916	-0.0015704955
52	0xbdd9dfff	-0.10638427
53	0xbd447980	-0.047967434
54	0xbe32ebc4	-0.1747275
55	0xbdb25fad	-0.08709655
56	0xbdf6722d	-0.12033496
57	0x3e5a5679	0.21322049
58	0x3d687c00	0.05675888
59	0x3df655af	0.120280616

model.6.bias f4 [2]
0	0xbe4e0f0a	-0.20122924
1	0x3de468b9	0.11152787
